model_v2/model_v2.tflite (tflite, 225088 bytes, 10 tensors)

arith.constant f4 [64]
-0.85297364 0.87593335 0.022267092 0.9294624 -0.8397441 0.6662302 -0.5161799 -0.16483274
1.2024003 -0.42289248 1.247317 0.22784592 0.23750857 0.8652074 1.1721392 0.071979724
-0.07184305 0.22390455 -1.3042595 1.470373 0.06523377 0.39318436 -0.29222324 -0.8633638
0.7595508 1.0188735 -0.32921433 0.23661403 0.2604745 0.24247564 0.21876942 0.9878637
-0.3846869 -0.43229216 1.0241416 0.107762694 -0.60956067 -1.2778153 -0.5937404 -2.0756629
0.24798277 -0.020734638 0.18832198 -0.24727349 -1.3492666 0.59113395 -0.18306814 0.41578963
1.0630875 0.7228687 0.24642105 -0.69052905 0.6071718 -0.12556963 0.41286826 0.023633197
-0.2799185 -0.3532778 1.1482209 -0.31399074 0.77673143 -0.061084863 0.036899973 0.37789026
00000000: 7b5c 5abf 2b3d 603f 7a69 b63c 3ff1 6d3f
00000010: 78f9 56bf 108e 2a3f 5e24 04bf eac9 28be
00000020: 41e8 993f 5d85 d8be 15a8 9f3f 7150 693e
00000030: 7235 733e 3b7e 5d3f a808 963f 1b6a 933d
00000040: 7322 93bd 3c47 653e faf1 a6bf 2f35 bc3f
00000050: 4899 853d 764f c93e 499e 95be 6905 5dbf
00000060: ec71 423f 726a 823f c88e a8be f34a 723e
00000070: ea5c 853e 894b 783e 1705 603e a3e4 7c3f
00000080: aef5 c4be 6655 ddbe 1217 833f b0b2 dc3d
00000090: 2b0c 1cbf 748f a3bf 5fff 17bf a9d7 04c0
000000a0: 32ef 7d3e b0db a9bc 7ad7 403e 4335 7dbe
000000b0: c5b4 acbf 8e54 173f 3776 3bbe 61e2 d43e
000000c0: 4013 883f ec0d 393f cd55 7c3e 83c6 30bf
000000d0: 9c6f 1b3f 5395 00be 7863 d33e 689a c13c
000000e0: 7a51 8fbe d4e0 b4be e7f8 923f 65c3 a0be
000000f0: dfd7 463f 1f34 7abd 6d24 173d d57a c13e

arith.constant1 f4 [128]
0.34512672 0.880246 0.6344703 1.3776091 -0.2683742 0.24040172 0.3927168 -0.89759177
0.77572787 0.46278775 0.81975305 0.26790312 0.028162846 0.31802285 0.6395244 1.2543744
0.17308447 0.6293615 0.12193789 0.3266485 0.2289506 0.94049436 0.45017874 0.3263296
-0.13513951 0.3573539 1.2898033 0.573925 -0.3762677 0.06623761 -0.017082827 0.94378144
0.52804416 0.27948928 0.37585148 0.7484372 0.048232324 0.6203774 0.6102147 0.5673228
0.40407908 0.5080585 -0.4381462 0.47183394 0.06546953 0.34051433 0.87781715 0.9378636
0.20095026 0.19599493 0.12768254 0.6383101 1.1138594 0.20407306 0.9822184 0.40791282
0.98769486 0.738373 0.81898427 0.77796555 -0.0043897266 0.6441345 0.9370971 1.215279
0.4295356 -0.030916018 -0.048005573 0.4742427 -0.062398974 0.33164716 -0.08622731 0.9134437
-0.37384057 0.028554162 -1.075537 -0.13192856 0.9283927 0.030814601 -0.026582979 0.8709406
-0.118192345 0.6175703 0.39022592 0.7196155 -0.117467314 0.18700753 -0.7792983 0.040321615
0.054515038 0.36106658 -0.37941095 -1.0941643 0.012322988 0.8823045 0.07421427 -0.8372858
0.93590903 0.27717566 -0.070452325 -0.2878819 0.5206145 0.98386556 0.8096094 0.5029175
0.50230247 0.8817852 0.5180306 0.2602635 0.7012764 -0.14143606 0.99443823 0.3159733
0.102172695 0.491531 -0.22867411 0.9316661 0.38038623 0.541533 0.3519032 0.65159047
0.4114714 0.7023556 -0.2710585 0.7693131 0.50689447 -0.1491299 0.97630376 0.6255175
00000000: 73b4 b03e cd57 613f a56c 223f 7f55 b03f
00000010: 5868 89be de2b 763e 2d12 c93e 93c8 65bf
00000020: 1a96 463f 84f2 ec3e 56db 513f 992a 893e
00000030: c5b5 e63c e4d3 a23e dfb7 233f 578f a03f
00000040: 0e3d 313e d61d 213f 93ba f93d 793e a73e
00000050: 0772 6a3e 3dc4 703f d47d e63e ac14 a73e
00000060: 0362 0abe 17f7 b63e 4618 a53f c0ec 123f
00000070: 29a6 c0be 96a7 873d 49f1 8bbc a99b 713f
00000080: e72d 073f 3819 8f3e 9b6f c03e 9599 3f3f
00000090: 428f 453d 0ed1 1e3f 0837 1c3f 113c 113f
000000a0: 74e3 ce3e 1f10 023f b354 e0be 3894 f13e
000000b0: e414 863d e557 ae3e a0b8 603f d417 703f
000000c0: e8c5 4d3e e5b2 483e 36bf 023e 4a68 233f
000000d0: f292 8e3f 87f8 503e aa72 7b3f f3d9 d03e
000000e0: 92d9 7c3f 0306 3d3f f4a8 513f c028 473f
000000f0: b2d7 8fbb 00e6 243f 98e5 6f3f 438e 9b3f
00000100: 17ec db3e 9743 fdbc 7ea1 44bd f0cf f23e
00000110: 1196 7fbd a8cd a93e f297 b0bd 72d7 693f
00000120: 0868 bfbe 6bea e93c 32ab 89bf 4818 07be
00000130: 25ab 6d3f e76e fc3c 8cc4 d9bc f7f5 5e3f
00000140: d40e f2bd 1619 1e3f b1cb c73e b938 383f
00000150: b492 f0bd e77e 3f3e 1880 47bf 4728 253d
00000160: 294b 5f3d b8dd b83e 2742 c2be 930d 8cbf
00000170: 5ce6 493c b5de 613f a7fd 973d 5d58 56bf
00000180: bc97 6f3f f8e9 8d3e 4f49 90bd 4265 93be
00000190: fe46 053f 9dde 7b3f 9042 4f3f 34bf 003f
000001a0: e596 003f adbc 613f a79d 043f 4241 853e
000001b0: da86 333f 9dd4 10be 8193 7e3f 41c7 a13e
000001c0: eb3f d13d f4a9 fb3e 8c29 6abe ab81 6e3f
000001d0: fcc1 c23e e8a1 0a3f a82c b43e a2ce 263f
000001e0: 61ac d23e 94cd 333f 2ec8 8abe b4f1 443f
000001f0: d6c3 013f 82b5 18be 0bef 793f ea21 203f

arith.constant2 f4 [64]
-0.07820663 -0.12401661 -0.1694769 -0.13672344 -0.12717848 0.10762928 -0.111594096 -0.11727661
-0.18460238 -0.2566184 -0.22679321 -0.051148314 -0.083628684 0.046658292 -0.08907854 0.063483596
-0.0782215 -0.18053815 0.0915299 -0.033941977 -0.15299278 -0.21083167 -0.15086928 -0.17980672
-0.20108083 -0.1860737 -0.1548238 -0.20039397 -0.1707278 -0.13243125 0.089966886 -0.10473395
-0.34588808 -0.13120471 0.03767387 -0.09632224 -0.08511129 -0.05997846 -0.07435896 0.0021897778
-0.15370093 0.088942744 -0.13108245 -0.22791658 -0.124303356 -0.24805121 -0.071581796 -0.23841232
-0.297448 -0.08974832 -0.028967138 -0.110027745 -0.22713846 -0.06467956 -0.19734709 0.0020030905
0.052375626 -0.12053013 -0.10379112 -0.3013388 -0.32639244 -0.30928087 -0.23829865 -0.12457305
00000000: cc2a a0bd 6cfc fdbd 5a8b 2dbe 3b01 0cbe
00000010: 133b 02be bd6c dc3d 728b e4bd b82e f0bd
00000020: 6808 3dbe 7d63 83be 7b3c 68be e580 51bd
00000030: 8445 abbd c41c 3f3d cf6e b6bd b003 823d
00000040: 9832 a0bd fede 38be 0774 bb3d be06 0bbd
00000050: 24aa 1cbe 42e4 57be 7a7d 1abe 411f 38be
00000060: 22e8 4dbe 1b8a 3ebe 218a 1ebe 1434 4dbe
00000070: 45d3 2ebe 0f9c 07be 8f40 b83d c17e d6bd
00000080: 3e18 b1be 875a 06be ea4f 1a3d 9844 c5bd
00000090: d44e aebd f9ab 75bd 8349 98bd 6082 0f3b
000000a0: c763 1dbe 9d27 b63d 7a3a 06be f762 69be
000000b0: c292 febd 2301 7ebe 7a99 92bd 5c22 74be
000000c0: 1b4b 98be f8cd b7bd 7e4c edbc 3a56 e1bd
000000d0: fc96 68be b876 84bd 5b15 4abe 4846 033b
000000e0: d387 563d 80d8 f6bd 7090 d4bd 1449 9abe
000000f0: e91c a7be 105a 9ebe 9004 74be 2820 ffbd

arith.constant3 f4 [64, 1, 3, 128]
0.005442166 -0.016851244 -0.01064284 -0.011283943 -0.06714064 0.053029288 -0.014815079 0.054127164
0.064345986 -0.006216246 0.032808464 -0.08418432 0.017940577 -0.051881853 0.008200692 0.016206546
0.0018370374 -0.02171523 -0.06847116 -0.035628494 -0.0065331166 0.037156932 0.058353964 0.05950225
0.0483456 0.056883726 -0.045014992 -0.026756627 -0.035023507 0.040126868 -0.05331597 -0.065260254
-0.019953439 0.041689403 0.004255367 -0.09550828 0.07064777 0.07012405 -0.007409769 -0.039132163
-0.03758489 -0.02625257 0.066378474 -0.038484987 0.001693483 0.012512875 -0.0052255564 -0.04915785
-0.015046621 0.019810429 -0.014890865 -0.033275288 -0.058946595 0.04282256 0.018198058 -0.027392559
0.09145616 0.015250944 0.04040034 0.006241646 -0.021175686 0.10481024 -0.034550514 0.030198865
0.08313297 0.04259149 0.034299098 -0.05614359 0.0682368 -0.07906644 -0.028762935 -0.05543342
0.0138215115 -0.06489781 0.11439728 0.021328542 -0.021445928 -0.036516618 -0.030783996 0.08731787
-0.04510225 0.029043604 0.052166067 0.056647945 0.00924112 -0.03419479 0.006143815 0.07299952
-0.0012026124 0.026338032 -0.029267924 0.099291824 0.014753683 -0.04013286 -0.014712392 0.05588947
-0.0073387576 0.038929295 -0.037003454 0.007450482 0.020915575 -0.04381436 -0.04634468 -0.04908075
-0.07079957 0.005066953 -0.019385112 0.036932543 -0.022235682 0.039527226 -0.086341396 -0.010327756
-0.037977673 -0.054603852 -0.0398045 0.015951691 0.061800957 -0.04089201 0.013602845 0.01111953
0.013323099 -0.017171245 0.04790471 0.06821263 -0.009829153 -0.038689613 -0.006419516 0.03947551
0.034286365 -0.053044166 0.012855996 -0.08513369 -0.04852292 0.032628626 0.022852588 0.09019159
0.0031483856 0.037874028 0.019292545 -0.04371614 -0.002087274 -0.024649417 0.042966858 -0.040729105
0.078984454 0.019512618 -0.03764034 -0.013782246 0.0016865253 0.055222303 0.02481337 0.02496754
0.004251029 -0.030970328 0.016549706 0.02795441 0.028185477 0.04175309 -0.021749735 -0.02241361
-0.040272012 0.021138027 0.052829385 -0.048224483 0.02666988 0.10007019 -0.051850144 0.021832263
-0.0148143675 0.01906398 0.03580625 -0.04058687 -0.04336909 -0.026317265 -0.0002389059 -0.03157232
0.056837104 -0.021363107 0.08598253 -0.076657996 -0.10520177 0.007380568 0.033199277 -0.023533298
0.044861846 -0.03139384 -0.022728652 0.013074304 0.0051464783 0.093797274 -0.046809565 0.002803822
0.067226656 0.011044712 0.026818225 0.032190032 0.04727879 -0.03963901 -0.009832345 -0.03277392
0.062963285 0.033091083 0.03538961 0.06391064 0.04560202 0.052196782 0.026160678 0.07771469
-0.0069573135 0.0041331085 0.08765441 0.051696815 0.013756843 0.051244065 -0.012060375 0.016297974
-0.029117974 0.05017049 -0.0754012 0.039650183 0.06684323 -0.078862466 -0.0048086243 0.07461111
0.017669724 0.079107754 -0.0052861604 0.051528927 0.027464114 -0.116805725 -0.03275699 0.014954574
0.06918293 0.02607651 0.0015820161 -0.0654786 0.020041134 0.04556366 -0.056209013 0.012533918
-0.013256913 -0.059460416 -0.039619204 0.00014211009 0.052655157 -0.0011182413 0.042506643 -0.0049010566
-0.053907197 0.042322606 0.027671933 0.073931955 -0.054838184 -0.045026872 -0.0009462378 -0.025622481
00000000: 3254 b23b 9f0b 8abc 4e5f 2ebc 4ae0 38bc
00000010: 0881 89bd 3d35 593d f2ba 72bc 72b4 5d3d
00000020: d4c7 833d a7b1 cbbb 2b62 063d d468 acbd
00000030: 1ef8 923c 1182 54bd 325c 063c 97c3 843c
00000040: bfc8 f03a 23e4 b1bc 9c3a 8cbd 2fef 11bd
00000050: c113 d6bb de31 183d 9104 6f3d a2b8 733d
00000060: 0906 463d e9fe 683d a461 38bd b730 dbbc
00000070: cf74 0fbd 125c 243d d961 5abd 2ba7 85bd
00000080: 6575 a3bc 82c2 2a3d 9b70 8b3b d899 c3bd
00000090: c7af 903d 339d 8f3d a6cd f2bb 0c49 20bd
000000a0: 9df2 19bd a10f d7bc 70f1 873d 6fa2 1dbd
000000b0: dcf7 dd3a cd02 4d3c 253b abbb be59 49bd
000000c0: 1a86 76bc 7b49 a23c d1f8 73bc ab4b 08bd
000000d0: fc71 71bd b566 2f3d 1814 953c 5c66 e0bc
000000e0: 5e4d bb3d 18df 793c d47a 253d b986 cc3b
000000f0: a278 adbc c0a6 d63d d784 0dbd 9c63 f73c
00000100: 9e41 aa3d 6a74 2e3d 367d 0c3d d2f6 65bd
00000110: bcbf 8b3d 96ed a1bd 3fa0 ebbc 270e 63bd
00000120: 9f73 623c 25e9 84bd 1f49 ea3d 32b9 ae3c
00000130: 5faf afbc 7392 15bd b82e fcbc b6d3 b23d
00000140: 23bd 38bd daec ed3c 16ac 553d ad07 683d
00000150: 1168 173c d60f 0cbd 0e52 c93b c680 953d
00000160: faa0 9dba dbc2 d73c 49c3 efbc 8359 cb3d
00000170: 6eb9 713c 5b62 24bd 3f0c 71bc 5bec 643d
00000180: f679 f0bb 5374 1f3d ef90 17bd 2c23 f43b
00000190: 2457 ab3c b076 33bd ebd3 3dbd e608 49bd
000001a0: 5dff 90bd af08 a63b 87cd 9ebc 9446 173d
000001b0: 9b27 b6bc 4de7 213d c2d3 b0bd c035 29bc
000001c0: 7a8e 1bbd 4aa8 5fbd 0b0a 23bd 1fad 823c
000001d0: 0023 7d3d 617e 27bd 78de 5e3c b02e 363c
000001e0: 2149 5a3c b6aa 8cbc bb37 443d 10b3 8b3d
000001f0: 750a 21bc 0079 1ebd ce5a d2bb 13b1 213d
00000200: dc6f 0c3d d744 59bd f5a1 523c 925a aebd
00000210: f8bf 46bd 98a5 053d 5a35 bb3c 5eb6 b83d
00000220: 2555 4e3b cc21 1b3d 660b 9e3c b20f 33bd
00000230: a6ca 08bb 93ed c9bc 04fe 2f3d 90d3 26bd
00000240: 9ac2 a13d edd8 9f3c c22c 1abd eece 61bc
00000250: 660e dd3a c830 623d 6945 cb3c ba88 cc3c
00000260: 374c 8b3b 7cb5 fdbc 4093 873c a600 e53c
00000270: 3be5 e63c 4a05 2b3d 802c b2bc bf9c b7bc
00000280: 44f4 24bd a829 ad3c a063 583d 0987 45bd
00000290: cb7a da3c 9af1 cc3d d160 54bd 93d9 b23c
000002a0: f6b7 72bc 102c 9c3c 93a9 123d 6b3e 26bd
000002b0: c9a3 31bd 4e97 d7bc d082 7ab9 fa51 01bd
000002c0: 06ce 683d af01 afbc 9c17 b03d defe 9cbd
000002d0: 0774 d7bd b1d8 f13b f7fb 073d e7c8 c0bc
000002e0: 0ec1 373d d496 00bd 7031 babc 9b35 563c
000002f0: caa3 a83b c918 c03d 63bb 3fbd 54c0 373b
00000300: 21ae 893d e1f4 343c e5b1 db3c b2d9 033d
00000310: 68a7 413d 845c 22bd d817 21bc f23d 06bd
00000320: e5f2 803d 848a 073d b2f4 103d 95e3 823d
00000330: 2fc9 3a3d 4bcc 553d eb4e d63c e128 9f3d
00000340: 2dfa e3bb 076f 873b 2884 b33d 0ac0 533d
00000350: 6264 613c 4ce5 513d e198 45bc 5483 853c
00000360: d188 eebc 927f 4d3d f26b 9abd 3b68 223d
00000370: 1ae5 883d a582 a1bd aa91 9dbb b6cd 983d
00000380: 19c0 903c 3f03 a23d 8737 adbb ff0f 533d
00000390: 6cfc e03c d737 efbd 322c 06bd 0804 753c
000003a0: c8af 8d3d 689e d53c a75b cf3a a519 86bd
000003b0: 4e2d a43c f6a0 3a3d 6c3b 66bd 105b 4d3c
000003c0: 8633 59bc c48c 73bd bf47 22bd 6303 1539
000003d0: efac 573d f491 92ba 721b 2e3d 0b99 a0bb
000003e0: cbcd 5cbd 785a 2d3d 40b0 e23c a369 973d
000003f0: 019e 60bd 196e 38bd f20c 78ba 3de6 d1bc

arith.constant4 f4 [128, 1, 3, 64]
-0.050672915 -0.0333682 -0.054200232 -0.049597774 -0.06316242 -0.0741883 0.028127057 -0.032605965
-0.031047024 0.029517282 0.034822423 -0.015497171 -0.00761332 -0.019680561 0.010030265 0.03725044
-0.047497783 -0.034021813 -0.10530955 -0.0534298 0.0219767 0.023334457 -0.05737059 0.072541825
-0.016017133 0.016165726 -0.014004129 -0.006029892 0.050885808 -0.08777562 -0.0053193015 0.04282382
0.012472821 -0.057871383 -0.049334228 0.019033112 0.09761058 -0.012908825 0.0063186805 0.007158656
0.05085852 0.023918102 -0.024376098 0.024621956 0.0143220695 0.002158762 -0.09264925 0.013521794
-0.06368756 -0.025973951 -0.007784807 0.13228291 -0.01466179 -0.079540744 -0.0027762894 -0.08636237
-0.14695796 0.035496823 -0.039991345 -0.08323546 0.009415545 -0.017153703 -0.03493055 0.08775354
-0.05236891 -0.088180155 0.027613493 0.021533934 -0.0052375174 -0.059890237 -0.00433104 -0.02960316
-0.050022557 -0.032708094 0.005011832 0.0017155507 -0.028581243 -0.05793591 0.0025356973 0.0016427421
0.07362881 -0.07890143 -0.07730593 -0.019133281 -0.04790396 0.021337062 -0.022591373 0.019223915
-0.060545217 0.04347559 0.008706907 -0.06608712 -0.003106931 0.07941971 0.03990152 -0.02024563
0.054927297 0.06866742 0.020406524 0.0035840198 -0.06717057 0.0006559878 -0.018289713 0.0981008
-0.048811704 0.013412836 0.02748426 -0.029003156 -0.038842555 0.010238636 0.017245138 0.039764218
0.033217125 0.017153254 -0.033243768 0.049895234 0.01404097 0.053764336 -0.037365254 -0.07686963
-0.09229905 0.023595892 -0.00031752686 -0.019577263 -0.037874702 -0.037616078 -0.04585478 0.08079279
-0.029617557 0.04410841 -0.01541282 0.037372317 -0.0043419492 -0.043188743 -0.06331153 0.000264909
-0.021120561 -0.07109769 -0.024483085 -0.017099382 -0.016031627 -0.054740336 -0.018207913 -0.063451566
0.08470635 -0.0995886 -0.043660827 -0.050220877 -0.050045297 0.0188435 0.011221771 0.04708858
0.0127969915 -0.01687307 -0.042823125 0.012021307 -0.006128346 0.022590682 -0.02869618 0.028745864
0.069693044 -0.0073171197 -0.032444313 0.0033669376 0.0026417838 -0.025793672 0.020402696 0.012531264
-0.030778928 0.022380888 -0.046730462 0.022268578 -0.048122946 0.013491383 -0.036793917 -0.037819423
0.016145594 0.053450212 -0.0067635914 0.07081538 0.053661395 0.08241469 -0.06752312 -0.038567033
-0.06133306 0.04642248 -0.04550131 -0.0024274776 0.07669829 -0.045296382 -0.070617184 -0.034378555
-0.0045559593 -0.021333447 -0.015107314 0.0033226395 0.017116224 -0.023026295 -0.054268394 0.028431086
-0.008714842 0.009365231 -0.0059808595 0.018347235 0.003424901 -0.01696051 -0.013759829 -0.018681224
-0.034211792 -0.002978173 -0.011411059 -0.014916792 0.039248146 -0.07618727 -0.015890876 -0.072212726
-0.0067058434 -0.05832663 0.027102647 0.004923863 -0.037428875 0.007069914 -0.009550275 -0.066329226
0.0077376096 0.014207473 0.021423023 -0.034994226 -0.041291337 -0.02356512 0.024759522 3.4877794e-05
-0.05325696 -0.040646754 0.0121232215 -0.0006545341 0.0067531727 0.006743221 0.029121099 -0.022139989
-0.025500715 -0.0046206787 -0.04270923 -0.08416822 -0.0027149003 0.018228473 0.03270854 -0.003050943
-0.0015597586 -0.0174038 0.0208611 0.0034285923 0.007923756 -0.035632566 -0.031488206 -0.020312317
00000000: 678e 4fbd 18ad 08bd 1001 5ebd 0927 4bbd
00000010: 4d5b 81bd 09f0 97bd b76a e63c d58d 05bd
00000020: 5456 febc 3ace f13c f5a1 0e3d d9e7 7dbc
00000030: 2879 f9bb 2139 a1bc fb55 243c eb93 183d
00000040: 098d 42bd 755a 0bbd 89ac d7bd 35d9 5abd
00000050: 7b08 b43c e727 bf3c 6cfd 6abd cf90 943d
00000060: 5d36 83bc fc6d 843c 9371 65bc 6696 c5bb
00000070: a36d 503d b4c3 b3bd 894d aebb 0868 2f3d
00000080: ce5a 4c3c 8b0a 6dbd b012 4abd 54eb 9b3c
00000090: 0ee8 c73d 897f 53bc ef0c cf3b 2993 ea3b
000000a0: 0651 503d e5ef c33c 62b0 c7bc fcb3 c93c
000000b0: 1da7 6a3c 047a 0d3b e4be bdbd 848a 5d3c
000000c0: a06e 82bd 53c7 d4bc b217 ffbb 2c75 073e
000000d0: 0138 70bc 42e6 a2bd 68f2 35bb c1de b0bd
000000e0: 267c 16be 1e65 113d f7cd 23bd 5a77 aabd
000000f0: a843 1a3c ec85 8cbc 5613 0fbd 21b8 b33d
00000100: c880 56bd cc97 b4bd b135 e23c ef67 b03c
00000110: 7b9f abbb 774f 75bd 66eb 8dbb 5482 f2bc
00000120: 74e4 4cbd ecf8 05bd 4b3a a43b 54dc e03a
00000130: 3623 eabc 344e 6dbd f12d 263b 4751 d73a
00000140: b4ca 963d 1397 a1bd 9252 9ebd 66bd 9cbc
00000150: f136 44bd 10cb ae3c 8b11 b9bc 797b 9d3c
00000160: 43fe 77bd 7613 323d 6aa7 0e3c af58 87bd
00000170: a79d 4bbb cda6 a23d c76f 233d 2ada a5bc
00000180: 72fb 603d 81a1 8c3d 952b a73c e0e1 6a3b
00000190: b990 89bd 99f6 2b3a 4fd4 95bc 12e9 c83d
000001a0: c8ee 47bd 83c1 5b3c ac26 e13c 0798 edbc
000001b0: 5f19 1fbd f4bf 273c ad45 8d3c cedf 223d
000001c0: ae0e 083d fb84 8c3c 9e2a 08bd f25e 4c3d
000001d0: 190c 663c fe37 5c3d 4f0c 19bd d36d 9dbd
000001e0: 4907 bdbd 2c4c c13c bc79 a6b9 7f60 a0bc
000001f0: 8122 1bbd 5113 1abd 39d2 3bbd b176 a53d
00000200: 85a0 f2bc 05ab 343d 0d86 7cbc b713 193d
00000210: e946 8ebb aee6 30bd 7aa9 81bd 7ce3 8a39
00000220: 0705 adbc aa9b 91bd c090 c8bc 0114 8cbc
00000230: c254 83bc 6737 60bd c328 95bc e5f2 81bd
00000240: 867a ad3d 1cf5 cbbd b2d5 32bd 68b4 4dbd
00000250: 4cfc 4cbd af5d 9a3c 85db 373c f4df 403d
00000260: 79aa 513c 6439 8abc 4d67 2fbd 04f5 443c
00000270: 4bd0 c8bb 1810 b93c 4014 ebbc 727c eb3c
00000280: 3abb 8e3d 73c4 efbb 54e4 04bd d7a7 5c3b
00000290: c721 2d3b 404d d3bc 8e23 a73c ee4f 4d3c
000002a0: 1724 fcbc 2058 b73c 7168 3fbd 986c b63c
000002b0: 911c 45bd f60a 5d3c 38b5 16bd 8ae8 1abd
000002c0: c443 843c 9cee 5a3d 1ea1 ddbb a707 913d
000002d0: 0dcc 5b3d 08c9 a83d 9049 8abd 77f8 1dbd
000002e0: 6038 7bbd 8025 3e3d 955f 3abd 5116 1fbb
000002f0: fe13 9d3d b388 39bd be9f 90bd 87d0 0cbd
00000300: 284a 95bb 7bc3 aebc ab84 77bc a4c0 593b
00000310: 5337 8c3c a4a1 bcbc 8948 5ebd 4fe8 e83c
00000320: b2c8 0ebc a070 193c 16fb c3bb f14c 963c
00000330: 4e74 603b c4f0 8abc e870 61bc 5e09 99bc
00000340: aa21 0cbd 742d 43bb 73f5 3abc 8f65 74bc
00000350: aac2 203d 1208 9cbd 952d 82bc 44e4 93bd
00000360: b1bc dbbb e8e7 6ebd 5f06 de3c 5b58 a13b
00000370: 054f 19bd bdaa e73b c278 1cbc 9ed7 87bd
00000380: c68b fd3b 76c6 683c 567f af3c 1b56 0fbd
00000390: 1b21 29bd a30b c1bc 7bd4 ca3c bf49 1238
000003a0: f823 5abd 367d 26bd 7aa0 463c 0a95 2bba
000003b0: b849 dd3b 3df6 dc3b 5f8f ee3c ec5e b5bc
000003c0: e0e6 d0bc 1069 97bb e0ef 2ebd 6360 acbd
000003d0: 78ec 31bb e153 953c 64f9 053d 54f2 47bb
000003e0: d070 ccba 6a92 8ebc e6e4 aa3c 3cb2 603b
000003f0: a4d2 013c 74f3 11bd c7f9 00bd 0466 a6bc

arith.constant5 f4 [64, 1, 3, 4]
0.028987985 -0.32040232 0.25102413 0.15975702 -0.1165646 -0.17096737 0.13722816 -0.23267306
-0.007316951 -0.22507732 0.27326083 0.12377449 0.49290237 -1.1080183 -0.398736 0.13396704
-1.1660341 0.14412756 -0.79986715 -0.8598099 0.5765198 0.7103991 1.0155606 0.49104092
-0.25219098 0.25905764 -0.4090337 0.20542876 -0.53984046 -0.1996159 0.017498838 -0.30810806
0.085711986 -0.41733783 0.096680135 -0.1860616 -1.0541964 0.8815476 -0.23349226 0.589039
0.7946414 0.0753669 0.0421143 -0.46218207 0.21640275 -0.84191674 0.15752304 -0.7135014
0.24806942 -0.28103995 0.6394843 0.52238 0.0018073092 0.33157298 0.260736 -0.17083728
-0.08067146 -0.004372222 -0.4839827 -0.45866403 0.61684924 0.30691063 -0.08517561 0.54646003
0.19957313 0.047366135 -0.4985181 -0.22241756 -0.5853114 -0.20387645 0.35026705 0.41624203
0.2674849 -0.83944905 -0.31755024 0.12928888 -0.46404237 0.07528165 0.47429436 -0.21361792
-0.47266594 0.05387791 0.5807631 -0.11365547 -0.029161366 -0.025206264 -0.33915955 -0.371616
-0.15597412 0.122815974 -0.089458086 0.10595518 -0.025672255 -0.020993596 -0.18072939 -0.12610863
-0.19600835 -0.28255844 -0.19743054 -0.5607698 -0.0700669 0.23620756 -0.28021425 -0.23695496
-0.21578275 -0.022748223 0.22531685 0.36818328 0.3566615 0.28979942 -0.06517982 -0.23515165
0.28297716 0.36695197 0.1767954 0.17401102 -0.0630099 0.14590566 -0.5747808 0.05428727
0.33842042 -0.15951914 -0.3976429 0.05023603 0.46000406 0.06337681 0.19556293 -0.34025356
0.21842743 -0.013715953 -0.20767292 0.28638846 0.30606595 0.92137015 -0.18168308 -0.064104125
-0.6783669 0.27359712 0.8135462 -0.7182712 0.46616292 -1.7096713 -0.8067795 0.6569657
0.047675084 -0.024746183 0.20620295 0.2339054 0.010590535 0.1607924 0.16644722 0.062083088
-0.035455685 0.053719115 0.18264782 0.066400774 0.18494582 -0.18919234 0.3220547 -0.07769763
-0.1726059 -0.4087235 0.4295237 -0.0022142762 0.2384122 0.21121451 -0.05713314 0.08733345
-0.14845031 -0.9207542 -0.3628251 -0.44153187 -0.28982627 0.058313716 0.13430591 -0.03590701
0.019265411 -0.046693664 -0.10173702 0.31917277 -0.2830393 0.037181165 0.30382243 0.11619119
-0.23117697 0.0310113 0.14730439 0.1108743 0.08248367 0.058398243 0.23088215 -0.016149608
0.2336245 0.6469215 0.62592113 0.56658506 0.10792934 -0.21843994 -0.6832384 0.3639335
-0.15173598 -0.30679464 -0.8018556 -0.77944547 0.10103331 -0.63503677 0.6160423 -0.31743112
0.2221241 -0.12486501 -0.038401574 0.42456016 0.15937828 0.80275494 -0.4158153 0.53336465
-0.0029517284 0.00032733055 0.32357615 0.18305485 0.17393474 0.21279141 0.063700855 0.16647114
-0.021764463 -0.1496349 0.13972872 0.06257815 0.114077345 -0.23885708 0.47480834 0.5426429
0.35140875 0.42963073 0.42239094 -0.43889648 -0.12605642 -0.15656023 0.1438465 -0.5211774
0.044293955 0.20479302 -0.22725302 -0.3636103 -0.04913329 0.1183579 0.06556954 -0.29164195
0.0133266095 0.25888535 -0.0016456004 0.056088336 0.0025438431 -0.67638475 0.2956786 0.41218492
00000000: 3678 ed3c c60b a4be 3c86 803e 5897 233e
00000010: 6cb9 eebd 1212 2fbe 8a85 0c3e d941 6ebe
00000020: 09c3 efbb ab7a 66be d8e8 8b3e 7b7d fd3d
00000030: b35d fc3e 8bd3 8dbf 2027 ccbe a82e 093e
00000040: 9b40 95bf 2d96 133e 18c4 4cbf 801c 5cbf
00000050: cd96 133f b7dc 353f e4fd 813f b769 fb3e
00000060: 2d1f 81be 34a3 843e dd6c d1be eb5b 523e
00000070: fc32 0abf 1c68 4cbe b959 8f3c 57c0 9dbe
00000080: c489 af3d 4ead d5be 3c00 c63d ef86 3ebe
00000090: e8ef 86bf 1aad 613f 9818 6fbe 43cb 163f
000000a0: 9e6d 4b3f f659 9a3d 0b80 2c3d 21a3 ecbe
000000b0: af98 5d3e db87 57bf b84d 213e 07a8 36bf
000000c0: e905 7e3e 78e4 8fbe 3eb5 233f b2ba 053f
000000d0: 3ce3 ec3a efc3 a93e 307f 853e f8ef 2ebe
000000e0: 1437 a5bd db44 8fbb 95cc f7be 03d6 eabe
000000f0: d5e9 1d3f 6423 9d3e 8d70 aebd cee4 0b3f
00000100: e65c 4c3e fe02 423d c43d ffbe 6ec1 63be
00000110: f8d6 15bf fdc4 50be 3456 b33e ad1d d53e
00000120: c8f3 883e 22e6 56bf f295 a2be 4e64 043e
00000130: f696 edbe 442d 9a3d b6d6 f23e a8be 5abe
00000140: 4501 f2be 15af 5c3d e4ac 143f 33c4 e8bd
00000150: d1e3 eebc 5e7d cebc 52a6 adbe 7444 bebe
00000160: aeb7 1fbe f186 fb3d cd35 b7bd 08ff d83d
00000170: 9f4e d2bc c3fa abbc 2011 39be 9f22 01be
00000180: 6ab6 48be 80ab 90be 3b2b 4abe 9c8e 0fbf
00000190: 3c7f 8fbd 65e0 713e 3e78 8fbe 52a4 72be
000001a0: 27f6 5cbe 7b5a babc 76b9 663e 8582 bc3e
000001b0: 569c b63e 9760 943e ff7c 85bd 98cb 70be
000001c0: 62e2 903e 21e1 bb3e da09 353e f22f 323e
000001d0: 560b 81bd 4b68 153e d624 13bf 545c 5e3d
000001e0: 7145 ad3e fc58 23be da97 cbbe 4cc4 4d3d
000001f0: a785 eb3e b3cb 813d a641 483e b735 aebe
00000200: 71ab 5f3e e0b8 60bc 36a8 54be 82a1 923e
00000210: adb4 9c3e eade 6b3f 210b 3abe 0649 83bd
00000220: 74a9 2dbf ec14 8c3e 9044 503f 9fe0 37bf
00000230: e8ac ee3e 82d6 dabf 1a89 4ebf e72e 283f
00000240: f346 433d 82b8 cabc de26 533e e684 6f3e
00000250: ec83 2d3c c3a6 243e 2471 2a3e d64a 7e3d
00000260: fb39 11bd 9308 5c3d 0808 3b3e 21fd 873d
00000270: 7062 3d3e a3bb 41be 5be4 a43e ef1f 9fbd
00000280: 9abf 30be 3544 d1be 88ea db3e 641d 11bb
00000290: 5422 743e 9e48 583e 7004 6abd e1db b23d
000002a0: 5c03 18be 8cb6 6bbf 36c4 b9be 7710 e2be
000002b0: 1c64 94be 5dda 6e3d 7d87 093e 3b13 13bd
000002c0: 7fd2 9d3c db41 3fbd 805b d0bd 9d6a a33e
000002d0: 87ea 90be 474b 183d 9d8e 9b3e a6f5 ed3d
000002e0: a8b9 6cbe 690b fe3c f6d6 163e 1112 e33d
000002f0: 33ed a83d ff32 6f3d 5f6c 6c3e 2f4c 84bc
00000300: 433b 6f3e a69c 253f 5e3c 203f b80b 113f
00000310: 0f0a dd3d b8ae 5fbe b6e8 2ebf 7e55 ba3e
00000320: ad60 1bbe 3014 9dbe 6946 4dbf bd89 47bf
00000330: 8dea ce3d c591 22bf f3b4 1d3f 5586 a2be
00000340: 8074 633e 3ab9 ffbd f84a 1dbd f35f d93e
00000350: 0f34 233e 5981 4d3f bee5 d4be 968a 083f
00000360: c971 41bb 909d ab39 c6ab a53e bb72 3b3e
00000370: f31b 323e fee5 593e 9875 823d 6977 2a3e
00000380: 634b b2bc e439 19be 0c15 0f3e f928 803d
00000390: 62a1 e93d f396 74be 141a f33e a5ea 0a3f
000003a0: d9eb b33e 8ff8 db3e a043 d83e 0ab7 e0be
000003b0: ef14 01be 5351 20be 7f4c 133e e26b 05bf
000003c0: 946d 353d 43b5 513e 04b5 68be 212b babe
000003d0: fd3f 49bd a065 f23d 5349 863d 1852 95be
000003e0: da57 5a3c 9f8c 843e 30b1 d7ba e2bc 653d
000003f0: 9bb6 263b 8d27 2dbf 2f63 973e e709 d33e

arith.constant6 f4 [64]
0.022974672 -0.024084963 -0.026799595 0.058379147 0.038901567 -0.0103836255 -0.017522048 -0.042354297
-0.012002689 0.07600582 -0.027983963 -0.0006131655 -0.0076862234 0.004015573 0.027535927 0.02029977
0.008265018 0.011160495 0.031488396 -0.051641706 0.051802758 -0.03172517 -0.009065307 -0.0064801513
-0.0004654878 -0.010255786 -0.0119124865 0.022185907 -0.008003525 -0.022608696 -0.015771493 -0.020032646
0.060925424 -0.017366216 0.02319753 0.017536215 -0.0023977717 0.048004832 0.015915452 0.027905112
0.043879963 -0.010926553 0.0007872849 -0.0048843473 0.008948422 -0.029587248 0.013471801 0.037767224
0.075107105 -0.02893549 -0.016221961 0.013161253 0.019556858 -0.002616089 0.01980851 0.046108697
-0.015769003 -0.016030313 0.011761569 0.008160477 0.006557728 -0.013678108 0.0123987505 0.057174593
00000000: 6135 bc3c d44d c5bc d38a dbbc f91e 6f3d
00000010: 4057 1f3d 1520 2abc 668a 8fbc b37b 2dbd
00000020: eda6 44bc f0a8 9b3d a03e e5bc d7bc 20ba
00000030: b7dc fbbb 1195 833b 0693 e13c b44b a63c
00000040: 006a 073c 82da 363c faf9 003d 4186 53bd
00000050: 212f 543d 40f2 01bd a786 14bc 7357 d4bb
00000060: b70c f4b9 e207 28bc 972c 43bc 38bf b53c
00000070: 3821 03bc df35 b9bc 3833 81bc 811b a4bc
00000080: f08c 793d 9843 8ebc bf08 be3c 1ca8 8f3c
00000090: ef23 1dbb b7a0 443d 1f61 823c 4399 e43c
000000a0: 7abb 333d 4905 33bc cc61 4e3a e00c a0bb
000000b0: 679c 123c f560 f2bc d4b8 5c3c ceb1 1a3d
000000c0: c1d1 993d 1f0a edbc ebe3 84bc 4ca2 573c
000000d0: b435 a03c b172 2bbb 7545 a23c 79dc 3c3d
000000e0: ff2d 81bc 0152 83bc 99b3 403c 85b3 053c
000000f0: 36e2 d63b 251a 60bc 2124 4b3c e82f 6a3d

arith.constant7 f4 [3]
-0.018722957 0.014482219 -0.0015406827
00000000: e360 99bc d446 6d3c bcf0 c9ba

arith.constant13 f4 [3, 64]
-0.41950387 -0.19117752 -0.26181778 0.26919255 0.009322773 -0.59742796 -0.32502717 -0.13054065
-0.25010237 0.41146824 0.06458606 -0.26869652 -0.29451594 0.15441388 0.23738495 0.38296965
0.085275315 0.031364296 -0.19397101 0.26226977 0.2601371 -0.3746358 -0.44082707 0.16731061
-0.5592761 0.17744116 -0.2536155 0.39250973 0.1483206 0.21079928 0.10509124 -0.27550074
0.20032558 -0.31651515 -0.16268866 0.17451921 0.21505822 0.29812604 -0.6260512 0.081887335
0.5242518 -0.48130268 -0.13230233 0.12243129 0.10165242 -0.48220256 -0.117980696 0.27640733
0.10395301 -0.03227861 -0.22010413 -0.19184108 0.24312352 -0.53512007 0.44541326 0.2458821
-0.4260441 -0.15220316 -0.4093589 0.19573653 -0.11744968 -0.14354202 -0.29375067 0.3469152
-0.008547179 0.18178244 0.03363876 -0.28366327 0.08877644 0.26528564 0.20605291 0.010477585
0.35183537 -0.60777014 0.2538209 0.15910588 -0.2482885 -0.18952258 -0.2844854 -0.3070679
-0.4014567 -0.34018654 -0.4543185 -0.058582574 0.27858865 -0.26376522 0.15964119 -0.18658523
0.27795324 -0.58372176 0.25245014 -0.15438677 -0.36176026 -0.3024362 -0.24869147 0.5202055
0.12162629 0.3584321 0.45894793 0.1827101 -0.4088002 0.21251595 -0.035862412 0.38902703
-0.48534608 0.09572982 -0.28279307 -0.21358235 -0.36562452 0.09258682 -0.15297113 0.19449838
0.11511357 -0.1950855 0.13898897 -0.078606136 -0.0692733 -0.0935634 -0.21730703 -0.41725948
0.028098477 -0.35795784 0.13466087 0.16300921 0.14612827 -0.017302534 0.13285013 -0.6134228
0.044664856 -0.000777463 -0.11103987 -0.4207292 -0.54211706 0.21454136 -0.03547404 -0.1321628
0.060082197 -0.039189685 -0.14411017 -0.22213449 -0.18025665 0.3243357 -0.06440221 -0.20235793
0.2094555 0.17438886 0.39133295 -0.021136804 -0.36360428 0.34855074 -0.3753752 -0.08034983
0.29902014 0.32613188 0.2514944 -0.14334649 0.28183544 0.35672644 -0.22646846 -0.3943864
-0.4237318 -0.37007108 -0.33615196 0.2628336 0.35289046 -0.4059087 0.002985697 -0.4279498
-0.19214705 0.07046052 0.3790939 0.22668074 -0.033863835 0.043988068 0.2817056 -0.44299152
-0.4740714 0.18817852 0.14390033 0.39833015 -0.24665102 0.2792356 -0.41718975 -0.36542618
0.16502866 0.36030057 0.15827154 -0.40273035 -0.08230457 -0.011868225 -0.37277353 -0.27170902
00000000: 36c9 d6be 0ac4 43be fb0c 86be 9bd3 893e
00000010: 8bbe 183c 0af1 18bf f669 a6be 73ac 05be
00000020: 6b0d 80be f7ab d23e b245 843d 9792 89be
00000030: cbca 96be ac1e 1e3e 0a15 733e 9914 c43e
00000040: d3a4 ae3d d977 003d 56a0 46be 3948 863e
00000050: b130 853e 43d0 bfbe 16b4 e1be 7953 2b3e
00000060: b82c 0fbf 23b3 353e e4d9 81be 09f7 c83e
00000070: 5be1 173e c4db 573e 133a d73d 6f0e 8dbe
00000080: 2622 4d3e 460e a2be db97 26be 2ab5 323e
00000090: 3938 5c3e faa3 983e e444 20bf 8cb4 a73d
000000a0: 5e35 063f 4e6d f6be 437a 07be 42bd fa3d
000000b0: 252f d03d 41e3 f6be dd9f f1bd 4385 8d3e
000000c0: 51e5 d43d 9336 04bd fa62 61be fd71 44be
000000d0: 5ff5 783e a1fd 08bf 350d e43e 84c8 7b3e
000000e0: 7422 dabe 25db 1bbe 7d97 d1be 286f 483e
000000f0: 7589 f0bd aefc 12be 7d66 96be de9e b13e
00000100: 7809 0cbc 2d25 3a3e ccc8 093d 503c 91be
00000110: 6cd0 b53d 85d3 873e 89ff 523e 2daa 2b3c
00000120: c423 b43e d396 1bbf d0f4 813e a7ec 223e
00000130: 573f 7ebe 3512 42be 12a8 91be 0138 9dbe
00000140: bc8b cdbe ee2c aebe 6f9c e8be 48f4 6fbd
00000150: 2ca3 8e3e 3c0c 87be fb78 233e 3310 3fbe
00000160: e34f 8e3e ca6e 15bf 2541 813e 9117 1ebe
00000170: a438 b9be ebd8 9abe faa8 7ebe 302c 053f
00000180: 3417 f93d 6a84 b73e 39fb ea3e 5b18 3b3e
00000190: 434e d1be c89d 593e 77e4 12bd 8d2e c73e
000001a0: 487f f8be ff0d c43d 41ca 90be 55b5 5abe
000001b0: 2333 bbbe 299e bd3d 77a4 1cbe 952a 473e
000001c0: aac0 eb3d 7ec4 47be 2053 0e3e 41fc a0bd
000001d0: 29df 8dbd 2b9e bfbd bc85 5ebe 09a3 d5be
000001e0: c72e e63c 4046 b7be 8ae4 093e e3eb 263e
000001f0: a6a2 153e 0bbe 8dbc dd09 083e 4709 1dbf
00000200: 7ff2 363d a9ce 4bba df68 e3bd d169 d7be
00000210: 2fc8 0abf bbb0 5b3e 3a4d 11bd af55 07be
00000220: c018 763d 5d85 20bd 9e91 13be 3977 63be
00000230: 3395 38be 540f a63e 4ee5 83bd eb36 4fbe
00000240: 817b 563e fe92 323e cb5c c83e 1727 adbc
00000250: 572a babe 3e75 b23e 2e31 c0be 748e a4bd
00000260: 2b19 993e c2fa a63e e0c3 803e 6cc9 12be
00000270: bc4c 903e d9a4 b63e 59e7 67be 04ed c9be
00000280: 60f3 d8be f579 bdbe 1c1c acbe 2092 863e
00000290: 0fae b43e 44d3 cfbe afab 433b 3c1c dbbe
000002a0: 32c2 44be 9b4d 903d 9818 c23e ff1e 683e
000002b0: ceb4 0abd d52c 343d b73b 903e c9cf e2be
000002c0: 7db9 f2be dfb1 403e 9c5a 133e eef1 cb3e
000002d0: 1692 7cbe f8f7 8e3e e599 d5be 2419 bbbe
000002e0: 46fd 283e 5179 b83e ef11 223e ac32 cebe
000002f0: 4c8f a8bd f272 42bc 2cdc bebe 721d 8bbe

arith.constant14 f4 [64, 64]
0.2728874 -0.14571133 -0.0455918 0.045694984 0.026830962 0.09791519 0.0077109747 0.14431491
-0.25892764 0.25472236 -0.009970866 -0.13057332 0.09760482 0.047425292 0.11516305 -0.12345598
0.052425228 0.11517223 0.013902989 -0.07330054 0.14318344 0.34821078 -0.22441606 0.06495556
-0.07436956 0.047554627 0.071578585 0.289929 0.09100117 0.097289875 0.17420664 -0.0038929651
0.05678882 -0.2402795 -0.16097449 -0.014057335 0.23940799 -0.088418536 0.02090582 -0.043068405
0.21865526 -0.10460143 0.050247807 -0.21730375 -0.03279411 -0.27827916 0.15022632 0.29982072
0.26057142 0.26788482 0.29435694 -0.3898388 0.20578668 -0.16435377 -0.0616288 0.051905762
0.043453522 -0.0072029294 -0.249162 0.15558122 0.050424647 -0.050864123 -0.23284627 0.24135493
0.011540121 -0.13066146 -0.11576205 -0.19145231 -0.069318995 0.0031136116 -0.19654433 0.057527784
0.1369751 -0.18917207 -0.031717703 -0.09542065 -0.024950713 0.07248655 0.113853075 -0.02363743
0.17283453 0.12196614 -0.12676162 -0.12669763 0.02086817 -0.15285964 0.02222656 0.0065099616
0.17765002 0.03678167 -0.19908987 -0.21525832 0.010203201 0.03267898 -0.21799539 -0.23390158
0.07170709 0.16184227 -0.13203223 0.07914513 -0.0154513605 -0.14111146 -0.0065293144 -0.013115804
-0.21439792 0.16320299 -0.055949643 0.113583066 -0.06749891 -0.18026866 0.07213808 -0.08126327
-0.18065615 0.10393701 0.14736545 -0.09534324 0.054040726 -0.047561537 -0.060837038 0.048490975
-0.12983112 0.05598684 -0.1591937 -0.18070106 -0.006938627 -0.036337383 0.10425018 0.120557606
-0.110210024 0.18059453 -0.00922287 0.016553149 0.15201382 -0.12966423 0.02968068 0.09579066
-0.22265176 -0.20992154 0.092005685 -0.2092253 0.013131285 -0.026342437 -0.110345624 0.10597685
-0.14850329 -0.20077151 -0.04342927 0.17172292 -0.058385145 0.1953565 0.09869796 0.13891782
-0.1621298 -0.11956273 -0.01964976 0.15065558 -0.24416728 0.09239344 0.1932541 -0.08374096
0.038733434 -0.008681026 0.05539541 -0.085378915 -0.17281105 -0.13294397 -0.2216891 -0.20716313
-0.23429778 -0.02625648 -0.23287153 -0.06076627 0.16324274 -0.17822158 -0.0009147393 -0.036645707
0.14727753 -0.0022286933 0.11578577 -0.14172722 -0.15886235 -0.002831176 0.04279262 -0.06198265
-0.106631815 0.17595957 0.117807314 -0.12922508 0.0027399643 -0.18470316 -0.1800985 -0.14740528
-0.23346338 -0.11474361 0.29610208 0.21548945 0.1755514 0.09094806 -0.08625032 0.06931426
-0.12626839 -0.29892692 -0.35686845 -0.19679615 0.06972528 0.20844017 -0.05924962 -0.01774748
-0.030156773 0.17198598 0.053920362 0.009135479 -0.0887352 0.011125201 -0.046299625 -0.20403226
-0.004821261 -0.004989679 -0.28812072 -0.17426056 -0.041953404 0.111690424 0.056451213 0.19350001
0.26540953 0.0074959933 -0.098905414 0.33333248 -0.26824963 -0.061684392 0.04796921 -0.10511389
-0.21282974 0.2635587 0.28067154 0.15651923 0.19771068 -0.03864572 0.050042342 -0.2464447
-0.089016706 -0.23607956 -0.03297567 -0.12694483 0.12223494 -0.06366246 -0.23449814 0.26472798
-0.11200979 0.13466576 0.12441368 -0.09045557 -0.17070225 -0.3816546 0.17690831 -0.03624832
00000000: e6b7 8b3e 5a35 15be 78be 3abd aa2a 3b3d
00000010: 9bcc db3c c287 c83d 58ac fc3b 4ac7 133e
00000020: 2a92 84be f86a 823e d85c 23bc 03b5 05be
00000030: 09e5 c73d 0641 423d 9bda eb3d 7dd6 fcbd
00000040: d6bb 563d 6bdf eb3d 5dc9 633c 981e 96bd
00000050: ae9e 123e af48 b23e 53cd 65be 6c07 853d
00000060: 114f 98bd a4c8 423d cb97 923d 9371 943e
00000070: d25e ba3d ea3f c73d 3a63 323e 1e21 7fbb
00000080: 659b 683d d40b 76be 7fd6 24be bd50 66bc
00000090: 5e27 753e c714 b5bd af42 ab3c 7f68 30bd
000000a0: 2ae7 5f3e 4639 d6bd a5d0 4d3d e084 5ebe
000000b0: 1e53 06bd 9b7a 8ebe eed4 193e 1a82 993e
000000c0: 9e69 853e 3328 893e f4b5 963e f498 c7be
000000d0: beb9 523e 5b4c 28be 7b6e 7cbd 239b 543d
000000e0: 52fc 313d 8d06 ecbb 5324 7fbe af50 1f3e
000000f0: 138a 4e3d e656 50bd 416f 6ebe bf25 773e
00000100: c712 3d3c 1ecc 05be a714 edbd 130c 44be
00000110: 1ef7 8dbd bc0d 4c3b eb42 49be 41a2 6b3d
00000120: 3343 0c3e 53b6 41be 6cea 01bd e76b c3bd
00000130: 7065 ccbc d473 943d cd2b e93d 49a3 c1bc
00000140: 89fb 303e 62c9 f93d cccd 01be 06bd 01be
00000150: b9f3 aa3c 3d87 1cbe 7a14 b63c 8451 d53b
00000160: e3e9 353e 60a8 163d 37de 4bbe ad6c 5cbe
00000170: 542b 273c 65da 053d 2f3a 5fbe e583 6fbe
00000180: 2bdb 923d fbb9 253e 7533 07be d816 a23d
00000190: b427 7dbc 867f 10be dcf3 d5bb abe3 56bc
000001a0: 218b 5bbe af1e 273e 742b 65bd 3d9e e83d
000001b0: de3c 8abd 5998 38be 21bd 933d 5b6d a6bd
000001c0: edfd 38be eddc d43d f8e6 163e 5143 c3bd
000001d0: cf59 5d3d e3cf 42bd 4230 79bd 799e 463d
000001e0: 73f2 04be 7552 653d ac03 23be b309 39be
000001f0: 6c5d e3bb 82d6 14bd 1e81 d53d e8e6 f63d
00000200: cbb5 e1bd c6ed 383e 851b 17bc 789a 873c
00000210: 83a9 1b3e b3c6 04be e624 f33c e52d c43d
00000220: d3fe 63be acf5 56be 7a6d bc3d 283f 56be
00000230: 9a24 573c 18cc d7bc e3fc e1bd 640a d93d
00000240: 3f11 18be 0c97 4dbe e4e2 31bd 22d8 2f3e
00000250: 4325 6fbd 890b 483e 2822 ca3d 7940 0e3e
00000260: 5b05 26be 4edd f4bd 89f8 a0bc 7545 1a3e
00000270: fd06 7abe c638 bd3d 67e4 453e 6180 abbd
00000280: f3a6 1e3d dd3a 0ebc 4ce6 623d 24db aebd
00000290: 61f5 30be 7722 08be 7802 63be 9222 54be
000002a0: c2eb 6fbe d417 d7bc e075 6ebe 0de6 78bd
000002b0: 1b29 273e b87f 36be 1ecb 6fba cf19 16bd
000002c0: eccf 163e 450f 12bb 1721 ed3d f120 11be
000002d0: d0ac 22be 408b 39bb 5047 2f3d 85e1 7dbd
000002e0: c861 dabd bf2e 343e f644 f13d 9453 04be
000002f0: f990 333b d322 3dbe be6b 38be 69f1 16be
00000300: 0611 6fbe b3fe eabd b19a 973e 44a9 5c3e
00000310: bfc3 333e fa42 ba3d 02a4 b0bd a2f4 8d3d
00000320: 804c 01be f30c 99be 76b7 b6be ee84 49be
00000330: 21cc 8e3d 5771 553e bbaf 72bd 2a63 91bc
00000340: 560b f7bc 181d 303e 99db 5c3d faac 153c
00000350: cdba b5bd 7a46 363c ada4 3dbd d5ed 50be
00000360: abfb 9dbb 7680 a3bb 8f84 93be 5c71 32be
00000370: 55d7 2bbd f3bd e43d 6339 673d de24 463e
00000380: c2e3 873e f3a0 f53b ec8e cabd 8eaa aa3e
00000390: 0458 89be c6a8 7cbd 5d7b 443d f345 d7bd
000003a0: 0af0 59be 2af1 863e 2eb4 8f3e 9446 203e
000003b0: ab74 4a3e f94a 1ebd 33f9 4c3d 005c 7cbe
000003c0: 644e b6bd d7be 71be 7f11 07bd d3fd 01be
000003d0: 5056 fa3d 7761 82bd 4820 70be 6d8a 873e
000003e0: 6465 e5bd d2e5 093e 99cc fe3d c540 b9bd
000003f0: 92cc 2ebe 3b68 c3be 7427 353e 1e79 14bd
