best_models/model_v4.tflite (tflite, 225348 bytes, 10 tensors)

arith.constant f4 [64]
00000000: 4ddb 57bf 8faf 003f 27ef ae3f f809 623e
00000010: 7644 5d3f ba04 05bf 0d18 9c3f cf4d 8c3f
00000020: 1faf 573e 9abc dd3e 1cf6 903e 3a5c 4fbf
00000030: e7e0 893f 4e6b 723f 587f b03f d3df bb3e
00000040: 3a68 8d3d 5bc7 9a3f 297d 7a3f 9884 f33f
00000050: abb8 ce3e 06eb 15bf 8c03 08be 82dd 503e
00000060: 5d46 c53e 5708 0d3f 83bb 9a3e 68ec ec3f
00000070: 2f52 4abf a782 c03f e4a5 2d3f 08da b5be
00000080: 1f79 c43e 8cec 0f40 3169 8a3f a09e 253f
00000090: 951a 5ebf 94a8 c33f 54fb 693f 930c 2e3f
000000a0: d9a9 0a3e 1c69 dd3d 5d30 9ebe 719d 1a3f
000000b0: 3030 3d3f facc 803f 3825 8a3f be98 80be
000000c0: 4767 9fbf 1f2c 053e 5ff1 4fbd e210 be3d
000000d0: 5c6d b83f ea04 38bf babc cdbd af50 3cbf
000000e0: c3df 903f 39f0 3a3f 7ea6 0f40 d4f8 8b3f
000000f0: a0bb e43e 3769 debe 388a 863f e5fb 583f
-0.84319 0.5026788 1.3666734 0.22074115 0.8643259 -0.5196034 1.219484 1.0961245
0.21062897 0.43307954 0.28312767 -0.810001 1.077176 0.94694984 1.3788862 0.36694202
0.06904645 1.2092088 0.9784723 1.9024839 0.40375265 -0.5856174 -0.13282603 0.20396999
0.38530245 0.5509085 0.30221185 1.8509645 -0.7903165 1.5039872 0.67831254 -0.35517907
0.38373658 2.2488127 1.0813352 0.6469517 -0.8675931 1.5285821 0.9139912 0.67987937
0.13541354 0.10811064 -0.30896273 0.60396487 0.73901653 1.0062554 1.0792608 -0.25116533
-1.2453393 0.13005112 -0.0507673 0.09280564 1.4408374 -0.718825 -0.10045762 -0.73560613
1.1318287 0.730228 2.2445369 1.0935311 0.44674397 -0.43439648 1.0510931 0.8475936

arith.constant1 f4 [128]
00000000: d3db a63f 1bfd 303f 1ab1 5d3e 7644 763f
00000010: 32ba 8d3e 7532 b1be e550 593f 4301 193f
00000020: f959 063f 81d8 493d 77a6 f9be 7a84 91bf
00000030: b32b 073c 8f2a 10bf fb6f 803e c9c2 80bf
00000040: 1286 b3bd adb6 8cbf c808 1ebf e8c1 eb3e
00000050: 47a9 243f 8335 0cbe 1c66 fd3e c1fe 5e3d
00000060: 1db9 ac3e 26ce 9d3e 4e58 263f c411 083f
00000070: 471b b93e dc1e bcbe 35ea dfbd eab5 b33e
00000080: 16a8 883f 2f4d 263f 6d99 a53e 6d1e d3be
00000090: b9fc d83e 2e75 2ebf a15f 7fbe dc2f 53be
000000a0: 4324 133e ea7f 683e 0868 3d3f 9ff9 3b3f
000000b0: 1f84 853e 066b dd3e 7896 54bf d920 d53e
000000c0: 3ded 623f ac26 a33f e279 203f 5117 a73d
000000d0: dd1b 8cbf 3952 4e3f c972 063f 41e1 a93e
000000e0: 1c80 513f 668c e73e 6493 bf3e 248a 4a3f
000000f0: 6a30 9dbb f8f4 863e 9ab2 1c3f 4d2f 4c3f
00000100: da6b 5e3f 3b4a 683e fe23 273e 8daa 5b3f
00000110: c418 873e 2b6a e4be a353 c53e c01d 81bd
00000120: aa4d 3a3f 4ddf 02be 865f 613f 001d 693f
00000130: 2a1b 813f 3cb6 3dbf 9d81 483f 0e79 083f
00000140: af67 1b3f fbcd 7a3e 6a50 04be ce13 32bd
00000150: cc84 dc3e 72d0 0b3f a728 6d3f b543 253f
00000160: be16 243f e70e 323e 4e4e 073d 13e5 df3e
00000170: 4c69 7a3f 0bd5 a53f 1aa6 6a3f c30b 273f
00000180: dcd1 353f 60a2 933f d1e4 3bbf 422d 983f
00000190: a876 633f 5d77 c93d a47b 373f cb3c 8b3e
000001a0: 4d56 ff3c 9c0f 1c3f 5e64 3f3f 476f 49be
000001b0: ce75 413f 4e6e 4a3f f6dd 793f 1324 333e
000001c0: d858 ab3f 6a5e 663f 8de8 133f ff00 6c3e
000001d0: b83c 30bf 09fb 503f 4b33 c93f 4b58 a23f
000001e0: 2062 6f3f 2154 5c3f b399 9a3e 9b5f 8cbf
000001f0: 319c 60be 9a90 383d d919 49bf 6ad4 0a3f
1.3035835 0.6913621 0.2164959 0.96198213 0.27681118 -0.34608808 0.8488906 0.5976755
0.5248104 0.04927874 -0.48759815 -1.1368554 0.008250165 -0.5631494 0.25085434 -1.0059444
-0.08765806 -1.0993248 -0.6173215 0.46046376 0.64320797 -0.13692288 0.49491966 0.05444217
0.3373498 0.3082134 0.6497849 0.5315211 0.36153623 -0.36742294 -0.10933343 0.35099727
1.0676296 0.6496152 0.32343617 -0.4123415 0.42380312 -0.6814755 -0.24938823 -0.20623726
0.14369301 0.22705045 0.73986864 0.73427767 0.26077363 0.43245715 -0.830421 0.41626623
0.88643247 1.2746177 0.6268598 0.08158744 -1.0946003 0.8059421 0.525189 0.33179668
0.81836104 0.45224303 0.37417138 0.79117036 -0.004797031 0.2635877 0.61210024 0.79759675
0.8688332 0.22684567 0.16322324 0.85807115 0.26386082 -0.4461225 0.38540372 -0.063045025
0.72774756 -0.12780495 0.8803638 0.91059875 1.0086415 -0.7410619 0.78322774 0.53309715
0.60705084 0.24492638 -0.129213 -0.04347592 0.43070066 0.5461494 0.92640156 0.6455644
0.640972 0.17388497 0.03303366 0.43729457 0.9781692 1.295564 0.916597 0.6525232
0.71023345 1.1533928 -0.7339602 1.1888812 0.8885293 0.0983722 0.71673036 0.2719482
0.031169081 0.6096132 0.74762523 -0.19671355 0.7557038 0.7907456 0.9760431 0.1749423
1.3386488 0.89987814 0.5777672 0.23047255 -0.6884265 0.8163305 1.5718778 1.2683195
0.935091 0.8606587 0.30195388 -1.0966676 -0.21934582 0.045059778 -0.78555065 0.5423037

arith.constant2 f4 [64]
00000000: e078 3f3c 7754 02be b228 853d 394a f9bd
00000010: a278 2a3d 9934 793d a650 aebd 6f0b 6dbd
00000020: 3de7 5bbe 744a 9d3d f69d 26be f041 2a3d
00000030: 2c39 303d aaef 42bd ca32 cdbd f677 053d
00000040: 280e 33be 5c41 1b3c 06cf 16bd e026 82bd
00000050: d284 20bd 2cd3 92be 72a1 05be 2c57 dbbb
00000060: 0768 c2bd 245a 1abe 6623 d5bd bd07 fabd
00000070: baf7 11be 9dc1 26bd bf18 22be 4553 8abe
00000080: fc44 22be 60e0 e5bd fae6 8dbd 0a65 8ebc
00000090: 702b 34be 6d8a ecbd 4819 fbbd c295 213c
000000a0: e0d7 e0bc ace3 a9bd 1e40 c73d c476 24be
000000b0: b22e e5bd 73cc 83bd 2f66 18bd 3145 01be
000000c0: cf39 e4bd 763c 24be 0ce6 763d 5831 5cbd
000000d0: 04a9 41be bddc 67bd 1525 5abd 68c2 9f3d
000000e0: 1d76 9cbd efe2 aebd 75d2 5abd 120e 0dbd
000000f0: 0c39 2bbe ccd7 80be 14e2 c9bc 5757 223e
0.011686534 -0.12727533 0.06501903 -0.1217236 0.04161895 0.060841177 -0.08511476 -0.057872232
-0.21474929 0.076802164 -0.16271195 0.04156679 0.043023273 -0.047591843 -0.10019453 0.032585107
-0.17485869 0.009476032 -0.036818527 -0.06355071 -0.039189167 -0.28676736 -0.13049868 -0.0066937413
-0.09492498 -0.15073448 -0.10407142 -0.12208507 -0.14254656 -0.040711988 -0.15829752 -0.27016655
-0.15846628 -0.11224437 -0.06928821 -0.017382164 -0.17594695 -0.1154984 -0.122606814 0.009862365
-0.027446687 -0.08295378 0.09729026 -0.1606093 -0.11190547 -0.0643548 -0.037206825 -0.1262405
-0.111438386 -0.16038689 0.060277984 -0.053757995 -0.1891213 -0.056606997 -0.05325802 0.07800752
-0.07639716 -0.08539378 -0.053423364 -0.034437247 -0.1672098 -0.2516464 -0.024643935 0.1585363

arith.constant3 f4 [64, 1, 3, 128]
00000000: 1eb1 163d 61a2 1f3d 77ed 2b3d 1381 583c
00000010: f83b b1bc 8dce b8bb 99d2 013d c370 3c3d
00000020: 1d1e 4ebd ab35 233d a639 1a3d a9d2 1abd
00000030: 0da4 8ebd 9f82 453d 2f50 ddb9 3668 43bd
00000040: 6015 823c bd9c 3cbd 0905 913d fad8 25bb
00000050: db72 4cbd 56ba 0c3c 6bcf 1fbd 9475 d2bc
00000060: 857b 653d 2b67 c1bd e8c6 08bd d2b3 243d
00000070: 6ec6 223c a6f1 72bd 4bcd 7ebc cba1 7fbb
00000080: 8063 863c d95c 25bd 45ea 023b 34b7 093d
00000090: cb21 953c edf6 a93d 03ae b83d 7930 ea3c
000000a0: 21f8 773d 698a 793c 1687 893d 25bd 953d
000000b0: ed2c ef3c 6897 df3b 303d 8bbd b342 623d
000000c0: 97e1 0abd 531e e2bc 91d4 293d 6884 423d
000000d0: 55ed e7bc fa3d 143d 419d f6bb b8ce 87bc
000000e0: c1d9 3c3d 0ea1 9fbc 9690 b13c a94b 52bc
000000f0: a5b3 833d aa81 70bc 2360 183c 1dcd 493d
00000100: de18 1c3d 4679 8cbc d763 bfbc 3efb c7bc
00000110: 0966 66bd dde4 5f3d a8f2 0fbd 1931 2f3d
00000120: 91b4 56bd feeb 023d 3cbb ed3c 30cb cabc
00000130: 6c80 113d f9a7 8dbd 8a22 72bd fcbf 053d
00000140: b3ba e6bd e55c 4f3d a347 8e3d 6131 723d
00000150: ef6b 483d bc4a 743d 8794 063c a91e fcbc
00000160: db41 43bc 974f 483c c2e0 2e3d 0f6c 233c
00000170: 326a 403c 3c8e 49bc dd9d b9bb 5ba4 cc3c
00000180: b927 15bd e159 dcbb ab59 0bbd a57f f5bc
00000190: ebed 9dbd dccd d23c 0605 ff3c b455 033d
000001a0: a1b5 8dbd 73ff b83c 8d94 683d de5b 843c
000001b0: 92d8 23bd 440e 933c 9337 7d3d 1819 3c3d
000001c0: a202 39bb bd7f a83c 97ea 77bd 6314 8abc
000001d0: d22e 123d d9ff 3e3c 3b55 ccba 44cd 92bd
000001e0: 44e1 853d 472e 913d f366 a2bc 0dd3 0dbc
000001f0: 6661 db3b cb48 2a3d 0d62 8abd 37eb e3bc
00000200: 38ef 253d 96be 623d 212c 803c 8de4 c7bb
00000210: eab0 513c a08e 9d3d f7ad 8dbc e011 0fbc
00000220: f35f 25bd 327f 8f3c 5f46 8fbd 9edc 9fbb
00000230: 47a4 a33c afef ea3c 6ccb fd3c b211 58bd
00000240: 5259 65bd 5f20 1ebd b7b9 0c3d bdae 013c
00000250: 6e46 273c 55d3 24bd d58e e43b ae75 eb3b
00000260: 27b1 edba 839a 753d c7fe 03bd 0498 3fbd
00000270: 22cf 233c 29ff a6bc 54e6 513d 9714 163d
00000280: 7694 61bd dc05 2e3d 2803 b23d dd50 5a3d
00000290: 65ea 89bc 1732 23bb c297 acbc c620 7f3d
000002a0: 963b b0bc 6072 533d f390 adbc 4590 5fbc
000002b0: 0a33 603d af32 0dba 2cfe fd3c 0488 2b3d
000002c0: c85e 8abd ab2a c73c 27f2 19bc 338b 9a3a
000002d0: b0f3 04bd 6a7c f73b 4198 983c 53f0 eb3c
000002e0: 5a42 583d a49c 08bd 9d28 9bbb d296 9a3d
000002f0: c4c6 8a3d 586e 0ebc 6ebb 66bc 845a 9c3d
00000300: 65c5 de3a f6c4 4fba 66d3 f03b 969b d3bc
00000310: 32c0 50bc b230 3e3d d518 413d 367d 6a3d
00000320: b4e4 2bbd 5abd a93d 8eea 0bbd 30e8 a43c
00000330: 96ac 24bd 3fec 483d ded8 1f3d e484 2f3d
00000340: 5b56 123d 0eb6 a93c 4d4a 0339 369c 40bc
00000350: 3875 8abc 9c94 dc3c 2383 99bb edff 883c
00000360: 04d3 80bc df66 423d c397 8ebb 549e da3b
00000370: e128 79bd 144a 86bd 9302 413d de86 2b3c
00000380: d9cd 9b3d dc84 43bc 685d 67bb 9526 9a3c
00000390: 98b9 a53c 764c b23c 1aff c0bc b311 2cbd
000003a0: 2d63 bb3d e0b1 343d f32f 7e3b 57ec b83c
000003b0: 949c 2f3d f203 653b 211d 6dbd 557d 1bbb
000003c0: d499 e73b e30f c2bb 0893 273d eb1f 153d
000003d0: 487f 13bd fedf b83c 4599 01bd e7eb 10bd
000003e0: c169 863c 4fb5 3f3d 798c e6ba 53b1 eebb
000003f0: a5d4 22bc 0ce4 a03c 643b b83c b907 f73c
0.036790006 0.038973216 0.04197451 0.013214367 -0.02163504 -0.005639857 0.031694982 0.046005975
-0.050321687 0.039846104 0.037652634 -0.037798557 -0.06964884 0.048220273 -0.00042212146 -0.047706805
0.015879333 -0.046047915 0.070810385 -0.002530633 -0.049914222 0.008589348 -0.03901617 -0.025690831
0.056026 -0.09443506 -0.033392817 0.040210553 0.009935005 -0.059312485 -0.015551875 -0.0039006348
0.016404867 -0.04037175 0.0019976061 0.03362198 0.01820459 0.082990505 0.09017565 0.028587567
0.06053937 0.015230753 0.06715219 0.07311467 0.029196227 0.006823469 -0.0679878 0.05523939
-0.033906545 -0.02760235 0.041462485 0.047489554 -0.02831141 0.036191918 -0.0075260703 -0.016578063
0.046106104 -0.019485977 0.02167539 -0.012835422 0.06430749 -0.014679352 0.0093002645 0.049267877
0.038109653 -0.017147671 -0.023363037 -0.024411794 -0.056249652 0.05466162 -0.035143524 0.042771433
-0.052418295 0.03196334 0.029019944 -0.02475509 0.035522863 -0.06916804 -0.05911497 0.032653794
-0.11266079 0.0506257 0.06947257 0.059129123 0.04893106 0.059641585 0.008214123 -0.030776339
-0.011917557 0.012226007 0.042694815 0.009974494 0.011744069 -0.012301978 -0.0056645707 0.024980715
-0.036414836 -0.0067245816 -0.03402106 -0.029968092 -0.07711395 0.025732927 0.031130325 0.032064155
-0.069194086 0.022582745 0.056782294 0.016157087 -0.04000146 0.017951138 0.061820578 0.04592237
-0.002823033 0.020568723 -0.060526457 -0.016855424 0.035689183 0.0116576785 -0.0015589366 -0.071680576
0.06537107 0.07088905 -0.01982448 -0.008656275 0.0066949604 0.041573327 -0.06756983 -0.02782212
0.04051134 0.05535754 0.015646042 -0.0061002434 0.012798527 0.07693219 -0.017294867 -0.008732289
-0.040374707 0.017516706 -0.06995844 -0.0048785945 0.019975794 0.028678743 0.030980788 -0.05275125
-0.055993386 -0.03860509 0.0343568 0.007915196 0.010209663 -0.040240604 0.0069750347 0.0071856594
-0.001813446 0.059961807 -0.032225396 -0.046775833 0.009998115 -0.020385342 0.05124505 0.03664073
-0.055073224 0.042486057 0.08692008 0.053299773 -0.0168354 -0.0024901682 -0.021068458 0.062287115
-0.021512788 0.05162275 -0.021187281 -0.013645236 0.054736175 -0.00053862756 0.031004988 0.04187776
-0.06756359 0.024312338 -0.0093961125 0.0011790752 -0.03245896 0.007552673 0.018627288 0.028801119
0.052797653 -0.03335251 -0.004735066 0.07548298 0.06776193 -0.0086933 -0.014082773 0.07634452
0.0016996084 -0.0007925773 0.0073494194 -0.025831025 -0.012741135 0.04643316 0.047142822 0.057248317
-0.041966155 0.08288069 -0.034159236 0.020130247 -0.040203653 0.049053427 0.03902518 0.042851344
0.035726886 0.020716693 0.00012520813 -0.011755994 -0.016901597 0.026926331 -0.004684822 0.016723597
-0.01572562 0.047461387 -0.0043515875 0.006671706 -0.06083 -0.06557098 0.047121596 0.010469167
0.07607622 -0.011933532 -0.0035303477 0.018817225 0.0202301 0.021764975 -0.023559142 -0.042009067
0.09149776 0.044114947 0.0038785904 0.022573633 0.042873934 0.0034944979 -0.057889108 -0.0023725827
0.0070678983 -0.005922304 0.040911704 0.036407392 -0.036010057 0.022567745 -0.03164031 -0.035381224
0.01640785 0.04680377 -0.0017589472 -0.0072843223 -0.009938394 0.019639991 0.022489257 0.03015505

arith.constant4 f4 [128, 1, 3, 64]
00000000: 7b64 5bbd 256c 2bbc 3a91 403d 9e1b 62bc
00000010: 9bb7 ea3c 567a 4cbd 2c34 38bd 086f a8bd
00000020: 6000 253c 01c6 67bd c7b0 f3bc 256c 7ebd
00000030: 03f9 e5bc d19f bfbd 3a4e c3bb 9fb7 f3bd
00000040: 6bbd 34bc 3124 78bd c811 62bd fa3d 1fbb
00000050: 36bc 51bc ce63 313c c79a f8bb 8b85 9fbd
00000060: 2ff8 6c3c 213f b33c f653 5cbd e822 813d
00000070: 4131 6cbc e49c 90bd b1ad 9d3a 3cf3 2dbd
00000080: 9daf 92bd 3ad5 433c 90a8 1d3d 0667 ebbd
00000090: 2c9e 62bd 91cd 59bb 3d4c 1dbd dcde 73bc
000000a0: 6cb2 08be ac9a 07bd a6c7 14bd c165 0dbd
000000b0: a3b8 e33c 575a 06bd 9a55 38bd d441 b3bc
000000c0: ff60 4fbd 1087 a3bd a5c5 dfbc abc2 78bd
000000d0: e8f7 37bb 99fa 36bb fd2a 413d aaf9 2bbc
000000e0: efdd b7bb b0b5 54bd 2439 05bd f535 b3bd
000000f0: c59d de3c 0ec0 0abd 30bc 43bd 82c1 84bc
00000100: 5c0c 9fbd 603b a73c ffeb a8bc 7d67 163b
00000110: e0a3 ec3c eecc a13c 3b9f 76bd 7fd9 74bd
00000120: f255 873c b57c 06bd 7c2f 11bd 8540 86bc
00000130: 1ba3 2d3b eb36 09be ef86 9d3a 9d7f 84bd
00000140: 2d07 1fbd 8f5e 5fbd 5510 983a d236 243d
00000150: 2a6b 2a3c 8343 90bd b7aa 40bd 9d90 5abd
00000160: f727 ec3b 7023 8e3c a713 9ebd 7338 cebc
00000170: e26a 4ebd 069a 89bd 139c edbc 08e4 f1bc
00000180: ece0 4cbd fe70 743c 58ff 093c 78b2 c9bd
00000190: 0930 c4bc 387b 103c 64d3 f3bc 98f6 c73c
000001a0: 340a 9dbd abda b53c 8d15 5abd c86e 9fbc
000001b0: a959 40bc d4c4 fcbc 2d26 4b3d d927 a83c
000001c0: f25b 98bd cea8 0fbd 3da9 daba fc70 653c
000001d0: eaf1 cb3a 8524 013d d669 bc3c 5cf7 0e3d
000001e0: b0ee fabc 796b 493d 87b4 9fbc 7f76 70bd
000001f0: 3578 a93c 6118 90bb 9298 bdbd f0c6 d73c
00000200: 940e 1fbb 39d3 adbd 3087 92bc add3 453d
00000210: 68a3 ed3c a0d7 743b b62b 89bd 343d 83bd
00000220: 2b58 9e3c 206a 8fbc 6dad 9e3c 2baa 06bd
00000230: fb31 fa3c c1e2 debd bebd d4bc 1475 71bd
00000240: c6d0 f93c d236 e03c a7c6 173d 5206 86bb
00000250: e16d 0fbd 7e57 c0bd 037b 343d e74b 3cbd
00000260: f9a8 e0bc 25a3 0d3c d326 543d 5c8a f23c
00000270: fa18 e03c 5807 d73b 4eb8 293d 2454 903c
00000280: d050 093d 2a87 963c 68bc a6bc b0b7 cfbc
00000290: 1c75 893d 0b7f 4c3c 5f76 f83c 20f3 88bc
000002a0: 7b57 483c 6778 cd3c 2de3 96bc 119e 73bb
000002b0: 97a5 e83c b2fb 2f3c f357 1e3d 4e74 773d
000002c0: 1ba2 4dbd fd20 c8ba a74e f8bc 2d18 183d
000002d0: a757 113d 976d 1d3d 34d8 ddbb 5fdd bfbb
000002e0: ae58 00bd 5b11 bdbc 7343 00bd afaf 08be
000002f0: d3a3 47bd e597 673d c424 90bd 4ec9 073d
00000300: cde0 64bd ae17 3bbd 7116 82bd b824 cb3b
00000310: 40f3 6ebd e2d4 5c3d 7139 48bd c6e0 e2bc
00000320: 317f 0dbd f750 593d c105 e6bd 7429 8b3d
00000330: 760b a1bd 5d38 13bc bfdf abbd 08d1 07bc
00000340: 0127 efbc 4e5f 053d 3012 d7bc 770a 62bd
00000350: 00f2 81bd 09c1 393b e403 733c 578e 7bbd
00000360: 4d68 173c 53ac 40bd 33e1 09bc 8ccf 0c3c
00000370: 69fe d83b 65e2 acbc 7dad f8bb fe41 60bd
00000380: b48b 403d 83ef fdbc 72e7 fcbc c02b 3abc
00000390: 62a2 dd3c fd67 ca3c 639c 98bd 9c93 823a
000003a0: 7528 883b 03c7 c2bc ec89 453d d483 12bd
000003b0: b39a a9bc 87c9 e53c bc23 66bc 2666 0dbd
000003c0: cd82 cdba 5a86 0ebd 2a04 bcbc e523 8abd
000003d0: 48a4 88bd 25e9 90bd b27a a9bd 259f 95bd
000003e0: d422 d23c d064 90bd dda8 73bd 0cb8 94bc
000003f0: bded 47bc 35f8 63bd cdfe bfbc 45e9 12bd
-0.053562623 -0.010462795 0.0470135 -0.01380053 0.028652003 -0.049921356 -0.04497163 -0.082243025
0.01007089 -0.056585316 -0.02974738 -0.062114853 -0.02807284 -0.093566544 -0.005960253 -0.11900257
-0.011031489 -0.06058139 -0.05519274 -0.0024298416 -0.012801221 0.010827018 -0.0075868103 -0.07789143
0.014463468 0.021880688 -0.05379101 0.06305486 -0.01441604 -0.070611745 0.0012029913 -0.042468295
-0.07162402 0.011952693 0.03849083 -0.114942595 -0.055326626 -0.00332341 -0.038402785 -0.014884677
-0.13349313 -0.03310649 -0.036323212 -0.03452087 0.027798003 -0.032801 -0.04500351 -0.021881975
-0.050629612 -0.079847455 -0.027315924 -0.060732525 -0.0028071348 -0.0027920364 0.047160137 -0.010496536
-0.0056111733 -0.051931083 -0.032525197 -0.08750526 0.02717484 -0.033874564 -0.04778689 -0.016205553
-0.07766029 0.020414054 -0.020620344 0.0022949867 0.028886735 0.019751038 -0.060210448 -0.059777733
0.016520474 -0.032833774 -0.035445675 -0.016388187 0.0026494924 -0.13399856 0.0012018363 -0.06469653
-0.038825203 -0.054533537 0.0011601547 0.040091343 0.0104015265 -0.07044127 -0.047037806 -0.05336057
0.0072069126 0.017350882 -0.07718592 -0.025173401 -0.0503949 -0.06718831 -0.029005086 -0.02952768
-0.05001919 0.014919518 0.008422695 -0.09848493 -0.023948686 0.00881844 -0.029763885 0.024409577
-0.07667962 0.022198996 -0.05324321 -0.019462004 -0.011740127 -0.030855574 0.049596954 0.020526813
-0.07439412 -0.035073094 -0.0016682517 0.014003988 0.0015559767 0.03152897 0.022999685 0.03490387
-0.030631393 0.04917476 -0.019495262 -0.058706757 0.020687202 -0.0043974374 -0.09257616 0.026339978
-0.0024270164 -0.08487553 -0.017886728 0.048297573 0.029008582 0.0037359968 -0.0669779 -0.06408158
0.019329151 -0.017506659 0.019369805 -0.03287713 0.03054141 -0.108830936 -0.025969382 -0.058949545
0.030495059 0.02736989 0.037054684 -0.004090109 -0.035016898 -0.09391688 0.044062626 -0.045970824
-0.027424322 0.008644854 0.05179484 0.02960699 0.02735566 0.0065621547 0.041435532 0.017618246
0.033524334 0.018374998 -0.020353511 -0.025356144 0.0671179 0.012481461 0.030329881 -0.016717494
0.012227888 0.025081826 -0.018418873 -0.0037173072 0.028399272 0.010741161 0.038658094 0.06041365
-0.050203424 -0.001526862 -0.030310942 0.03713243 0.035483982 0.03843459 -0.006770158 -0.005855247
-0.03133457 -0.023079565 -0.031314325 -0.13348268 -0.04874022 0.056541342 -0.070382625 0.033150963
-0.05587845 -0.04567688 -0.063519366 0.0061994456 -0.05833745 0.05391396 -0.048882905 -0.027695071
-0.034545127 0.05305573 -0.11231566 0.06795016 -0.07863514 -0.008985606 -0.083922856 -0.008289583
-0.029193403 0.032561593 -0.02625379 -0.05518576 -0.06344986 0.0028343818 0.014832471 -0.061415043
0.009241176 -0.04703934 -0.008415508 0.008594405 0.006622125 -0.021104047 -0.007589041 -0.054750435
0.04700823 -0.030997997 -0.03087208 -0.01136297 0.02705497 0.024707789 -0.074517034 0.0009962204
0.0041552135 -0.023776537 0.048227236 -0.035770252 -0.02070365 0.028050197 -0.014046606 -0.034521244
-0.001567924 -0.034796096 -0.022951204 -0.067451276 -0.06671959 -0.07075719 -0.082753554 -0.07305745
0.025651373 -0.070504785 -0.059487212 -0.018154167 -0.012202677 -0.05565663 -0.023436928 -0.035866994

arith.constant5 f4 [64, 1, 3, 4]
00000000: a825 003f bd9c 383f 1a4f 6cbf d331 e43f
00000010: a69d f3bf f395 b73f 6a2f a63d 8548 adbf
00000020: dcd3 be3f 42b2 f8bf e47f da3f 71dd babf
00000030: c4a2 563e c5db e73c 5178 9abd d51b 51be
00000040: c5b4 3ebe e459 1f3e 85a3 b13d b182 9b3d
00000050: b075 923d 058b e13d e4c6 c1be 93ff eebe
00000060: dd62 b8be 51d3 003f 485d 3d3e de0f 0b3f
00000070: b591 2c3e 499f 06bb 6cc5 94be f49f 30bf
00000080: 4891 953e 96ee 8fbe 2bda 263f 7733 eb3e
00000090: 78ac 463e 6bbb b5bd 471b 06be a9a1 753d
000000a0: b55f d53e 5d1d ba3c 8b3f 313e d1dc 8abe
000000b0: 1fd8 933e 8ec6 96bd b63e 29be 4c76 333e
000000c0: 41dd 963d f777 fabd c8a4 373d 75c3 8fbe
000000d0: 3aa1 643e d88d 873e 2911 853e 22b6 313e
000000e0: 43b6 963d 3de9 4bbe af5b b53e 0745 403e
000000f0: ef4a b23c f709 833f 3d6e 53be e0db 4bbf
00000100: b852 2fbf 5196 09bf aaca 683c 2934 f0be
00000110: 252e 2c3f 1b24 9abe 4b79 853f c7d6 693e
00000120: 33ea cd3c a7d2 4fbf b9b1 933f 7572 63bf
00000130: de5e 4e3d 07cd db3c a443 cdbc a25f 3e3d
00000140: c5b7 a7be fbd2 9b3f 615c ddbd 8a2f 93be
00000150: 704a 14be d03e 24be 5bb5 393f a28e d43e
00000160: e658 3cbe db6a 3a3c d2e3 263f b9bd 42bf
00000170: f457 c03e 4005 a63e e692 23bf fad9 47bf
00000180: 7bf3 8f3f a3a4 473f 1716 4e3f 23d0 68be
00000190: 8ba4 e2be 01e6 e8be 6336 f4bd 413c 8fbe
000001a0: 56c5 6dbf 6054 a43d 27f4 5d3e 4f42 f83d
000001b0: 6f32 30bf f071 203f 4c29 55bf 4ddb 3cbf
000001c0: 83d5 e73e c24c 69be 3ed2 023f a56e 0abe
000001d0: e2bd 823e d8ec c3be ea8a 6f3e 1655 0e3f
000001e0: 6089 f03e 0f5d d1be 8c0c 8e3e aec4 db3e
000001f0: cc17 503e 7877 e63e 09c2 e73e 2a10 963e
00000200: 0cc8 bbbe 8399 e73e 5d50 25bf 4142 48bf
00000210: d57a 413d d133 7d3f 6067 67bf dcd7 d53e
00000220: 8e2d 31bf b42e e13f ff47 32bf e87c dc3e
00000230: 97ed 543f 4d0b 35c0 62e7 ef3f 61ef c7bf
00000240: b305 e7bc e64a d7bc d91b 2a3d 25de 9f3e
00000250: c9f7 043e d86e 003e b67f 8a3d c752 a33e
00000260: c692 313d 82b9 8dbd 9529 fc3a a0a3 643e
00000270: af19 773e 84b3 2fbf 5ab6 2b3f 43a8 f7be
00000280: 6518 6dbe c0fa 143e d889 fa3d 4d30 06bf
00000290: 0a83 1fbd c43e 283f f2fb fbbe 6283 1cbe
000002a0: a7f1 8abe 65d2 f0bd 2482 223e e968 c13e
000002b0: 9bca fd3b ae4f b73c 40e4 913d 9f7f 693d
000002c0: 80de c63d d715 813e f6c7 423e 6aff f43d
000002d0: 4ff1 71be 619d 9e3e 89ac 16be 59a3 9fbe
000002e0: 4611 4f3e dac7 82be 9505 0bbe e342 e9be
000002f0: e2b3 a83d df24 b1bd 2d6c 973d 3c19 633c
00000300: ab31 ad3e bb5f a2be 7858 69be 14bd 1ebf
00000310: dac0 403e e6c9 22bf 1566 3b3f ddca c8be
00000320: 4239 70bf c927 243f cc69 0d3f 1cae 4cbb
00000330: 06f6 7abf 9f8d 483f 448a a2bc b80c fe3d
00000340: 4fb2 1f3f 4093 973e 0d83 4cbf 3742 abbf
00000350: 880c 673e 1c48 9ebf f440 5b3f 114a 5e3f
00000360: 40ca 9fbe 7da8 d63d 85b9 dbbd 8ab2 153f
00000370: c1a8 b4bd 79e2 f2bb 2914 303e f55f 553e
00000380: 5c7f 7a3e ec8f 6f3d fe67 4a3e f8fb edbc
00000390: f33a 89be 7a23 8cbe 16c3 113f 638f 323f
000003a0: be8b 8fbf f5ed 3abe 13df 96bf 4e0e 363f
000003b0: 6d2b 9f3f bb1e 3b3f e0ec 93bd 7e4f 33bf
000003c0: a70f a23e f2a6 353e cc29 5a3d b250 9f3d
000003d0: ceee 51bc b41d c83e 9236 8d3e 3d43 00bf
000003e0: 63fb 69be f76c 0bbe ba58 f63e 80ba d03e
000003f0: 3a98 9bbe 7235 ef3b 6a9b 88be 2f99 993e
0.5005746 0.72114164 -0.923082 1.7827705 -1.9032485 1.4342636 0.08114512 -1.3537756
1.4908404 -1.94294 1.7070279 -1.4598829 0.20960528 0.028303036 -0.0754248 -0.20420773
-0.18623646 0.15561634 0.08673767 0.07593287 0.07151353 0.11012844 -0.37847054 -0.46679363
-0.36012927 0.50322443 0.18492615 0.54321086 0.16852458 -0.0020541719 -0.2905687 -0.6899407
0.29212403 -0.28111714 0.6517665 0.45937702 0.19401729 -0.08873638 -0.13096343 0.059968624
0.4167458 0.02271908 0.17309396 -0.27121595 0.28875825 -0.0736209 -0.16527829 0.17525595
0.073664196 -0.12229913 0.044834882 -0.2807881 0.22327128 0.26475406 0.25989655 0.17354634
0.073589824 -0.19913192 0.35421512 0.18776332 0.021764247 1.0237416 -0.20647521 -0.7963238
-0.68485594 -0.5374499 0.014208475 -0.46914795 0.6725791 -0.3010567 1.0427641 0.22835837
0.025136089 -0.81180805 1.1538612 -0.8884652 0.05038344 0.026831163 -0.025056668 0.04647792
-0.32757393 1.2173761 -0.108086355 -0.28747207 -0.1448152 -0.16039586 0.7254235 0.4151507
-0.18393287 0.011378015 0.65191376 -0.76070744 0.37567103 0.3242588 -0.63896024 -0.7806698
1.1246179 0.7798559 0.80502456 -0.22735648 -0.4426616 -0.4548798 -0.11924436 -0.27975658
-0.92879236 0.08023906 0.21675168 0.12122022 -0.68826956 0.62673855 -0.8326614 -0.73772126
0.45280084 -0.22783187 0.51102054 -0.1351877 0.25535494 -0.38266635 0.23392835 0.5559858
0.4697981 -0.4089131 0.27743948 0.42923492 0.20321578 0.45013022 0.45265225 0.29309207
-0.3667606 0.45234308 -0.6457575 -0.78226095 0.047236282 0.9890719 -0.9039211 0.4176625
-0.69210136 1.7592378 -0.6964111 0.43064046 0.83175033 -2.8288147 1.8742487 -1.5619928
-0.02820096 -0.026280832 0.041530464 0.3122417 0.12985148 0.12542284 0.0676264 0.31899092
0.043352865 -0.069201484 0.0019238467 0.22328043 0.24130891 -0.68633294 0.6707512 -0.4837056
-0.23153837 0.14548779 0.12233323 -0.5241745 -0.038943328 0.6572077 -0.49215657 -0.15284494
-0.2713749 -0.117588796 0.15869957 0.37775353 0.0077450997 0.022376861 0.07123613 0.057006475
0.09710407 0.25211975 0.19021592 0.11962779 -0.23627208 0.30979446 -0.14714254 -0.31179312
0.20221433 -0.255431 -0.13576348 -0.45558843 0.08237435 -0.08649611 0.0739368 0.013860997
0.33826956 -0.31713662 -0.22787654 -0.6200726 0.18823567 -0.6358932 0.7320264 -0.39217272
-0.9383737 0.6412321 0.5523956 -0.0031231707 -0.9803165 0.78341097 -0.01984132 0.1240477
0.6238145 0.2960453 -0.7988747 -1.3379582 0.22563374 -1.2365756 0.85645986 0.86831766
-0.31208992 0.10481355 -0.107287444 0.58475554 -0.0882125 -0.0074122516 0.1719519 0.20837386
0.24462646 0.058486864 0.19766232 -0.029050812 -0.26802787 -0.27370816 0.569383 0.6975004
-1.1214521 -0.18254836 -1.1786827 0.7111558 1.2435127 0.73093766 -0.07222915 -0.7004317
0.31652567 0.17739466 0.053262517 0.07779063 -0.012813283 0.39085162 0.27580696 -0.501026
-0.22849803 -0.13615786 0.48114568 0.40767288 -0.30389577 0.0073000723 -0.26681072 0.29999682

arith.constant6 f4 [64]
00000000: 24bf 803c a494 68bc c298 9e3c a250 f6bb
00000010: 0d2d 3f3c dce5 e6bc eb79 a63c 1426 473d
00000020: 86ef 533c 7ba5 14bd 8477 01bc 257b 0e3d
00000030: 2364 813c c727 edbb f453 cf3c 4d8e d73b
00000040: 8e80 103d 8bf9 023c 6863 b7bc 37cb 233c
00000050: bf67 31bb 94a7 843d 4715 f1bc 02bc b63c
00000060: da92 c1bc 07e5 29bd d6e6 273d 9527 613c
00000070: dfa8 363d dd05 78bb 771b 4539 0bcb 84bc
00000080: 0314 21ba 2242 91bb 1ec6 19bb 5ccc 02bd
00000090: 0ae4 1c3c a227 cfbc 43c7 c83b b784 6f3b
000000a0: 59f3 613b c2c0 e43a 13ba 92bb 9c3a 96bc
000000b0: 20cb d33c b02b a3bc 5ff7 0d3c 42b8 9b3c
000000c0: eac1 dd3b c885 0dbc 87ac 163d e048 bb3c
000000d0: 44c4 a1bc 84f8 90bb 48cc 723d de9e 093d
000000e0: 2392 e53b 3ae8 833c 6c6f 0dbd 6a9a 4e3c
000000f0: 2ebb d03b 33c7 c63c 56a1 813c 7cf8 9c3b
0.015716143 -0.014195595 0.01935995 -0.0075169364 0.011668456 -0.028185777 0.020321807 0.0486203
0.012935525 -0.036290627 -0.00790203 0.03478541 0.01579482 -0.007237408 0.025308587 0.006578243
0.03527885 0.007994066 -0.022386268 0.009997181 -0.0027069894 0.064772755 -0.029429091 0.022306446
-0.023629595 -0.041478183 0.040991627 0.013742347 0.04459464 -0.0037845292 0.00018797615 -0.0162101
-0.00061446446 -0.0044329325 -0.0023464034 -0.031933174 0.009575853 -0.025287453 0.0061272695 0.003654761
0.0034477322 0.0017452466 -0.004477748 -0.018338494 0.025853693 -0.019918293 0.008664935 0.01900876
0.006767501 -0.008637853 0.03678563 0.022861898 -0.019746907 -0.0044241566 0.05927685 0.033598773
0.0070059462 0.016101945 -0.03453009 0.012610057 0.00636997 0.024264907 0.015824001 0.004790364

arith.constant7 f4 [4]
00000000: 9916 54bc 367c f43c fbbd b43c dc45 92bd
-0.012944841 0.029844385 0.022063246 -0.07142231

arith.constant13 f4 [4, 64]
00000000: 4486 0bbf 587d 71be a347 4ebe 8ce3 9e3e
00000010: db3f d8be 1cf4 babd 0527 edbd 9552 043e
00000020: 6f8c 8b3e 1587 26be f258 063e 3582 0fbe
00000030: 0951 b03e a01f c1bd f5e3 083e bed7 bfbd
00000040: 23ec a43e 8086 3f3e f1c0 ac3d 0b33 a6be
00000050: 3284 fcba ce91 403e 10a3 7dbe a61f db3d
00000060: 3fa3 ae3d 7a40 f7bd 8a91 563e 5b8c 513d
00000070: e1bd 03bd 699e c6be 9fb7 3abe 2faf 0b3e
00000080: 2028 a9be 61d7 903e 41f4 88be 7688 7c3e
00000090: ef09 6b3e 67cf 993e e553 9ebd f9c1 c5be
000000a0: 34f7 923e 0989 c13e 5cee 803d 970e a63c
000000b0: a00e 623c d1d6 2c3c 391b cbbe 0010 d1be
000000c0: 8f58 503e 8b05 cb3d e2c1 67bd b68c 29be
000000d0: 3805 12be 9b5e 86be 25c9 12be a470 243e
000000e0: 59c1 f53d d3cc 4dbe 8ca3 9ebd 18fb d13e
000000f0: 5a60 613e b903 e83e 41f1 113e 5df8 50be
00000100: e65e 36ba 88c7 14be 78cc 88be 7cf2 8fbe
00000110: a242 8cbe cd72 8d3e efeb debd 34d5 4bbe
00000120: e08a afbc 12de 8c3e a26f 61be 178d 29be
00000130: ded0 43be 8b5a 9a3e a43b 6bbd 8e84 d4be
00000140: 7c8e 5abe b221 893e 6f27 753e fabe c4bd
00000150: 56e5 bdbe 57b6 0fbe 6d07 2c3e f009 7cbe
00000160: f7e6 7c3e c7b1 d13e 9417 733e 70fc f53d
00000170: 1672 e3be 736b 48be 1868 10be 93b8 4f3e
00000180: 9203 b53e aefb 343e 23cd f43d 207f 26bb
00000190: ea1d cfbe dc7e a33d 4312 d0bd 6ed7 583e
000001a0: a77b 0bbd 9b31 5cbe 11b0 92be 79f2 673e
000001b0: 8f2f 663d c0c1 623e df58 10be 8407 693d
000001c0: e58b d9be 9334 9f3e cc0b b9be 10ec 8cb7
000001d0: e6c6 5c3d 910c b7be 4e05 9fbe 5000 3f3e
000001e0: 6e3d 7ebb 9902 463e 0597 3d3c fb21 48be
000001f0: de31 7d3e 5224 8dbe 6960 84be 7fee 293e
00000200: a930 743a f1bb 55be 8fce 1e3d 4c35 c53e
00000210: e3dc d23e 8f5e 0dbd 78ca 15be 912b b0be
00000220: 990d b7be 4d26 93be 7cdd 7e3e 6043 12be
00000230: bacf efbe 016f 9abe a3be 683e c240 d43e
00000240: d18d a8be a2d2 dbbe 4405 05be 786d b33e
00000250: ad4f 2c3e 32d9 56be 3532 75be 73ac 8b3d
00000260: 0e2b d3bd 83bc 13be 100e 6d3e aa04 07bf
00000270: 69ec 213e 93dc 9a3d 1e9e 6ebe 7982 a7be
00000280: 62fc f13d 4c33 83be 8077 b73e bbea 563e
00000290: 6721 6a3e 232b 773e 9269 9f3d c4e9 c43e
000002a0: a7ac f2bc d6ef a7be f7c5 c0be d3c4 5a3d
000002b0: 4eee ba3d 1620 8dbd 17eb 0a3e 4cd1 ae3d
000002c0: f714 a1bd b0c8 063e 2dd3 9dbe d097 0c3f
000002d0: fa62 b1bd 8c4c 0ebd 3a24 c4bd e7fb 433e
000002e0: 0a96 d4be ce44 8e3e d5fe be3d e048 5ebe
000002f0: d8c6 34bd a06c d4bd 2fc9 b33e b9d1 0c3e
00000300: d43f 4e3e cfff 193e 0701 f93e bb71 05be
00000310: 506c 56be c7fb d2bd 557c 16bf 2506 463e
00000320: 019f 69be d142 d93d 029d adbe f661 eabe
00000330: 76ae 41bd b0ec 9b3e aee3 dbbe 9984 be3e
00000340: 100b 5d3e deba 2ebe 76ec a7be 2b7f d53d
00000350: e89b d53e bd19 0b3f 11ce 8d3c fe9a a4bd
00000360: 44d4 013e 764f 2e3e af14 edbe 37ff b2be
00000370: 8b70 043e e01f 71be f529 d63e cd94 aebe
00000380: 19b4 93be e977 a5be 6213 abbe a062 bebd
00000390: 5382 d1be e350 01bd 45e7 85be 570f 303e
000003a0: 46ab 94be 84a9 39be 5c2e c93d ec31 d7bd
000003b0: 31c2 11bf 7467 ccbc b8d9 ea3c de2e 74be
000003c0: 0fa7 893e 63a4 b5be ff49 a3bc 60d3 eebd
000003d0: b0ff c2be ebf4 e93e c616 9b3e b5f9 ffbe
000003e0: 7fc7 9fbe 7244 fabd 3029 0dbe fac0 97be
000003f0: 982c bebe 650b 833e f056 06be dee1 51be
-0.5450175 -0.23582971 -0.20144515 0.3103298 -0.42236218 -0.091285914 -0.11579708 0.12922128
0.2725558 -0.16262467 0.13119867 -0.14014514 0.34436825 -0.0942986 0.13368209 -0.093673214
0.32211408 0.18703651 0.08435238 -0.32460818 -0.0019265471 0.1880562 -0.24769235 0.10699396
0.085272305 -0.12072845 0.20953956 0.051159244 -0.032163505 -0.38792732 -0.18234108 0.13641046
-0.33038425 0.2828932 -0.2674885 0.2466143 0.22953008 0.30041048 -0.07730845 -0.38624552
0.28704226 0.37799862 0.062954634 0.020270629 0.013797432 0.010549263 -0.39669207 -0.4083252
0.20346282 0.099131666 -0.056581385 -0.16557583 -0.14259803 -0.26244053 -0.14334543 0.16058594
0.11999769 -0.20097665 -0.07746038 0.41011882 0.22009411 0.4531534 0.14252187 -0.20407243
-0.000695689 -0.1452924 -0.26718497 -0.28114688 -0.27394587 0.2762665 -0.108848445 -0.1990555
-0.021428525 0.27513176 -0.22015241 -0.16557728 -0.19122645 0.30147204 -0.057429925 -0.4150738
-0.21343416 0.2678352 0.23940824 -0.096067384 -0.37089032 -0.14034401 0.16799708 -0.24613166
0.24697481 0.40955946 0.23739463 0.12011039 -0.44422978 -0.19572239 -0.14102209 0.20285253
0.35354286 0.17674133 0.11953189 -0.0025405362 -0.4045251 0.07983181 -0.10159733 0.2117593
-0.03405347 -0.21503298 -0.28649953 0.2265109 0.0561977 0.22144222 -0.14096402 0.056891933
-0.42489544 0.31094798 -0.36141813 -1.6799226e-05 0.05390062 -0.35751775 -0.31058735 0.18652463
-0.003879394 0.19336928 0.01157165 -0.19544213 0.24726054 -0.27566773 -0.25854805 0.16594885
0.0009315112 -0.20872475 0.03877121 0.38517225 0.41184148 -0.034514006 -0.14628017 -0.3440824
-0.35752562 -0.2874016 0.24889177 -0.14283514 -0.4683817 -0.30162814 0.22728972 0.41455656
-0.32920697 -0.42934138 -0.1299029 0.35044456 0.16827269 -0.20981291 -0.23944934 0.068200015
-0.103109464 -0.1442738 0.23149896 -0.5274149 0.1581284 0.075616024 -0.23302504 -0.3271673
0.11815716 -0.25625074 0.3583336 0.2098798 0.22864304 0.24137549 0.07783808 0.384596
-0.029623343 -0.32800168 -0.37651035 0.053410362 0.09127484 -0.068908855 0.13566242 0.08536014
-0.07865327 0.13162494 -0.30825177 0.5491915 -0.086614564 -0.03474097 -0.09577222 0.19139062
-0.4152072 0.2778687 0.09325949 -0.21707487 -0.044134945 -0.10372281 0.35114428 0.13751878
0.20141536 0.1503899 0.48633596 -0.13031666 -0.20939755 -0.10301929 -0.58783466 0.19338281
-0.22814561 0.10608447 -0.3390885 -0.45777863 -0.04728552 0.30454016 -0.42947143 0.3721054
0.21586251 -0.17063472 -0.32797593 0.10424646 0.4172051 0.5433615 0.017310174 -0.08037375
0.12678629 0.170225 -0.46304843 -0.34960338 0.12933557 -0.23547316 0.41828886 -0.340979
-0.2884834 -0.32318047 -0.33413225 -0.09296155 -0.40919742 -0.03157128 -0.26153007 0.17193352
-0.2903692 -0.18131071 0.098232955 -0.10507569 -0.5693694 -0.024951674 0.02866827 -0.23846003
0.26885268 -0.3547698 -0.019932745 -0.1166141 -0.380857 0.4569467 0.30290812 -0.499952
-0.3120689 -0.12220086 -0.13785243 -0.29639417 -0.37143397 0.2559463 -0.13119102 -0.20496318

arith.constant14 f4 [64, 64]
00000000: 045e 23be 3f91 f03d f243 943e 2400 9f3d
00000010: 46e6 01be a760 3bbd 5e9c 54be e1eb a53d
00000020: eed5 98bd 7784 01be 9568 a1bd 1a86 b93d
00000030: 28e9 5bbe be1b 8cbd 6177 ec3d 2099 cbbd
00000040: 2ae5 a03d 133d 09be fc91 513b 85dc a53a
00000050: 3f7b 353e 4820 1bbd 5672 d9bd de27 283e
00000060: 7c0f 2fbe d067 9e3e 7607 ac3d 8efb 0d3e
00000070: e8e7 1dbe 1991 0abe 15a1 823d 6428 473d
00000080: 137f 243a a334 efbc 05e2 9b3e de36 c3bd
00000090: 6fe0 a03d 748a 65be 7cb2 f83b 585f 8a3e
000000a0: bb01 e73b bae6 0a3e b5bc 04be a043 9bbe
000000b0: e267 213e fef0 2c3d b953 803d 96d7 c9bd
000000c0: a0fa b33e 9fe4 85bd 8148 673e fe5e 4bbe
000000d0: 85f6 9fbc abe7 2bbd 385d 03be 2c86 f53d
000000e0: 5e09 84be 81e5 1f3e 7954 903e 49ad 073d
000000f0: df04 763d b8f0 58bd 3e7f 09be 4ca6 293e
00000100: 8bcb 3bbe a279 2f3e 056f 75be 7b76 cebc
00000110: 0aeb bb3d 6e04 c93b ed00 a7bd 4fb2 283d
00000120: e159 123e d836 4d3e d967 15bd f656 a6bd
00000130: b270 aebd 01c7 2cbe 1349 04be f1d7 17be
00000140: d4f6 e1bd 95af 3dbe c1c5 f13d 235d 473e
00000150: 24c5 56be e872 413e 47cd 40bd 67a3 ebbd
00000160: 9606 8d3d 2480 7d3d a920 60be d9ed 313e
00000170: 6a10 b9bd 805d 3dbd cde8 8b3d 8a17 43be
00000180: f665 693d 70b5 f53a 425c 23be f2a5 953c
00000190: 97b9 b5bd 52c4 c3bd 5f0b a33d 8e29 28be
000001a0: d3cf 48be 6154 ba3d 899f e63d fe7f 053e
000001b0: e977 f23d d960 463d f3aa 57be 36ff 493e
000001c0: df20 17be c5c1 b7bd b1b3 083e bb93 48be
000001d0: e12e 273d 1018 56be 242a 143e 7783 c63b
000001e0: a7ec d3bc 8bb1 1fbe 42e0 69bd 3be6 983d
000001f0: 3160 3fbe d872 39be 207f 73be f0b7 0ebe
00000200: 0328 89bd 62dc 2d3e 9378 b9bd 3212 243d
00000210: 92a8 8e3d 8565 ce3d 547b 57be eeac dabd
00000220: 4398 5abe d1c2 593e ee12 87bd 6c30 24be
00000230: 92b8 4dbe e6ce 03be a618 10be 857a 2c3d
00000240: 2dd2 5d3c 7a6c fd3d d636 6dbe 604c 003e
00000250: f12b b33d 5766 6bbc 1254 3a3c 1d07 d4bd
00000260: ac41 94bd f975 d5bd 3eaf f83d d149 a1bd
00000270: 0789 aabd 5868 9bbe 8e06 233e 7dbc 8abd
00000280: 0bb6 d53d 7f76 26bd 6a36 acbc 6d17 633d
00000290: 91d4 8f3e 2f28 563e 4815 35be d3e9 92be
000002a0: 52a7 25bd 78de 1f3e 7bdb 9dbe 4ba4 89be
000002b0: b209 c7bd 11a9 0b3e 7efc 0d3e 6299 37be
000002c0: 22b2 883e d80f 08be fc63 bb3d a7bb dcbb
000002d0: 0e9d 893d a5a5 7e3e 32c9 2ebe 6e92 14bd
000002e0: dd2c f6bd de32 2abc ef2e 27bd 7be2 85bd
000002f0: 109e bbbd 26d1 0ebe 845f 66be eeb3 033e
00000300: 8f75 e53d 91e4 75be b0b9 0e3d bc1f cebd
00000310: 8a7d 6c3e f88d b6bd 503d a1bd 5666 32be
00000320: 5136 573d 59ba b03d 7322 443e a71c 503e
00000330: 9b90 8bbd a7cd 17be 77cf cc3d fb11 b4bd
00000340: 59c8 6c3d 8110 68be b92d 54bd a544 aebd
00000350: 9e8d 8f3d 0761 953e 842d 4a3e 9bc9 ea3d
00000360: ec7b 883d e609 a13d c975 4dbe 3935 17be
00000370: b092 1c3e f41a 44be 3123 853d 7610 1f3e
00000380: 7763 653d 1171 82be 20fd 30be 42fc 0c3d
00000390: f1ad 2bbd 3099 f43b 7225 b2bd abc5 803d
000003a0: 318f a13c c6b9 febd fb44 103c f289 f43c
000003b0: 6149 6abe 723f a13d b40a 883c 8fde 1abd
000003c0: 8244 883d 16f7 2ebb 269f 72be 7b36 b73d
000003d0: 6e3a 6e3d 2917 3d3e f5f1 343e 2fa1 1a3e
000003e0: 8321 7ebe 3c65 ef3d 2479 4ebd 41ec e23d
000003f0: b573 dbbd 696f 383d d4c9 db3d df14 21be
-0.15953833 0.117464535 0.28958088 0.07763699 -0.12685499 -0.04574647 -0.20762774 0.08101631
-0.07462679 -0.12648188 -0.078812756 0.09058781 -0.21475661 -0.06841229 0.11546207 -0.09941316
0.078562096 -0.13402204 0.0031977883 0.0012654221 0.17722796 -0.037872583 -0.10617511 0.16421458
-0.1709575 0.30938578 0.083998606 0.13865492 -0.15420496 -0.13531913 0.0637838 0.048622504
0.0006275039 -0.029199904 0.30445877 -0.095319495 0.07855307 -0.22416097 0.0075896364 0.27025867
0.007049767 0.13564578 -0.12962611 -0.3032503 0.15762284 0.042222016 0.06265969 -0.09855573
0.3515215 -0.06537747 0.22586252 -0.19860455 -0.01952673 -0.041968983 -0.12828529 0.11988482
-0.25788397 0.15614893 0.28189448 0.033124242 0.06006324 -0.052963942 -0.13427445 0.16567343
-0.18339364 0.17136243 -0.23968132 -0.02520298 0.091756895 0.0061345613 -0.081544735 0.041185673
0.14292099 0.20040452 -0.03647599 -0.08122055 -0.08517589 -0.16872789 -0.129185 -0.14828469
-0.11033407 -0.1852401 0.11805297 0.19469123 -0.2097364 0.1889149 -0.047070768 -0.11505776
0.06886022 0.061889783 -0.21887459 0.17375888 -0.09036334 -0.046231747 0.068315126 -0.19051948
0.056982003 0.0018746089 -0.15953162 0.018267605 -0.08873289 -0.095589295 0.07961153 -0.16422102
-0.19610529 0.09098125 0.11260898 0.13037106 0.11839277 0.048432205 -0.21061306 0.19726261
-0.14758633 -0.089725055 0.13349797 -0.19587605 0.04081619 -0.20907617 0.144692 0.0060581523
-0.02586968 -0.15595071 -0.057098635 0.07465788 -0.18689038 -0.18110216 -0.23778963 -0.13937354
-0.06697085 0.169786 -0.09056201 0.040056415 0.06965746 0.10077957 -0.2104314 -0.10677515
-0.21347146 0.21265723 -0.065954074 -0.16034096 -0.20089939 -0.12871894 -0.14071903 0.04210903
0.013538879 0.12374206 -0.2316545 0.12529135 0.087486155 -0.014367661 0.011372583 -0.10352919
-0.072390884 -0.10422892 0.121428 -0.078754075 -0.08326917 -0.30353045 0.15920469 -0.067742325
0.104351126 -0.04064035 -0.02102204 0.055442262 0.28091863 0.20913766 -0.176839 -0.2869402
-0.040442772 0.15612209 -0.30831513 -0.26883158 -0.09718646 0.13638712 0.1386585 -0.17929605
0.26698405 -0.13287294 0.0914993 -0.006736237 0.06719409 0.24867876 -0.17068937 -0.03627246
-0.12020276 -0.010388104 -0.040816244 -0.06537338 -0.091610074 -0.13946971 -0.22497374 0.12861606
0.11204063 -0.24012972 0.034845054 -0.100646466 0.23094764 -0.08913797 -0.078730226 -0.1742185
0.052542035 0.08629293 0.19153766 0.2032343 -0.06814691 -0.14824544 0.10000508 -0.08792492
0.057808254 -0.22662546 -0.051801417 -0.08509187 0.07009433 0.29175588 0.19743925 0.114642344
0.06664261 0.07863216 -0.20064463 -0.14766397 0.15290332 -0.19150907 0.06500853 0.15533623
0.05600306 -0.25476888 -0.1728406 0.03442026 -0.04191393 0.0074645504 -0.086985484 0.06287702
0.0197216 -0.12437777 0.008805509 0.029850934 -0.22879554 0.07873429 0.016606666 -0.037809905
0.06653692 -0.0026697568 -0.23693523 0.08945938 0.05816119 0.18465866 0.17670424 0.15100549
-0.24817471 0.11689231 -0.050408497 0.11080218 -0.10715429 0.045028124 0.10731855 -0.15730618
