best_models/model_v5.tflite (tflite, 225348 bytes, 10 tensors)

arith.constant f4 [64]
-0.110715 0.13634695 0.91914845 0.27957317 0.8738933 -0.13667668 -0.67943704 -0.1437036
0.2231737 -0.2605437 2.3485646 1.3742266 0.45876735 -1.3385469 -0.4048538 0.8297241
1.3178244 -0.8678495 -0.22756667 -0.0038947356 0.18085226 0.7589334 0.30274925 -0.5291512
-0.09424795 0.7683279 0.9476463 0.75975263 -0.60777503 0.79193765 -0.24856882 0.7251248
-0.53315973 0.1408954 1.4723743 -0.90772635 1.0551974 0.29547527 -0.5751657 0.86132
0.8760111 0.87423795 -0.52549845 0.3240284 -0.010449767 -0.17399766 -0.96504116 0.62646997
-0.20092537 -0.3312592 1.4317327 0.35839415 0.3684143 -0.03606865 -0.66050833 0.61791784
0.62275374 1.0112659 0.5411622 -0.8130181 1.908889 1.0209181 -0.59952396 0.016128954
00000000: 8cbe e2bd 899e 0b3e 504d 6b3f 3724 8f3e
00000010: 79b7 5f3f f9f4 0bbe 96ef 2dbf 0927 13be
00000020: a587 643e fc65 85be e24e 1640 a8e6 af3f
00000030: 8ee3 ea3e 8155 abbf ff48 cfbe cc68 543f
00000040: 78ae a83f 632b 5ebf 3d07 69be d23e 7fbb
00000050: 5631 393e 7649 423f f301 9b3e 7476 07bf
00000060: 1205 c1bd 23b1 443f f398 723f 267f 423f
00000070: 2597 1bbf 6dbc 4a3f d388 7ebe c7a1 393f
00000080: 287d 08bf e246 103e c376 bc3f c160 68bf
00000090: b510 873f 8948 973e 0f3e 13bf 787f 5c3f
000000a0: 4342 603f 0fce 5f3f 1187 06bf 0de7 a53e
000000b0: 8035 2bbc 712c 32be f00c 77bf 5660 203f
000000c0: 61bf 4dbe ce9a a9be 0443 b73f 707f b73e
000000d0: cda0 bc3e b9bc 13bd 1317 29bf dd2f 1e3f
000000e0: ca6c 1f3f 2971 813f 9b89 0a3f f421 50bf
000000f0: 7a56 f43f 72ad 823f 677a 19bf de20 843c

arith.constant1 f4 [128]
-0.5941295 -0.36375895 0.19429319 -0.768618 0.8211456 -0.43914634 0.09928556 0.1910696
0.91214067 0.37347358 -0.07505184 0.55491424 0.3038908 0.824317 -0.6165009 0.92409927
0.8179163 0.91633445 0.89320093 0.83142614 0.68808204 -0.070133865 0.6469154 0.031736985
0.705783 0.8399475 0.08092323 0.7454972 0.45809233 0.68047816 0.46945566 -0.41067687
-0.3562803 0.19546047 0.20725106 -0.6214009 -1.5137336 0.055065095 0.60934585 -0.010329223
0.51001495 0.0103027625 -0.07720243 0.4710915 0.49461904 -0.7179993 0.5812858 0.15560141
-0.5065356 1.099592 -0.527183 0.0484702 0.0061987457 0.39086014 0.5265182 0.58637136
-0.011146896 0.72132045 0.9239271 0.28562912 0.8370926 0.0018024578 0.8482546 -0.17246616
0.3431365 1.0642 -0.40694255 0.74051964 0.5266042 0.06535126 0.8779401 0.2301987
0.701544 -0.055432186 0.86635256 0.3927445 0.89097464 -0.44199207 0.59893715 0.8460113
0.26327473 0.7385025 -0.08329536 0.54050356 0.76406217 1.029654 -1.0616584 0.43208346
0.2881378 0.48149353 0.023920307 0.85921675 -0.66862077 -0.5444099 -0.08862786 0.18367234
0.46450323 -0.20647472 0.005837627 0.008263026 -0.9725675 -0.23109305 0.30256838 -0.7656182
-1.1480632 0.3467377 0.8400608 0.6682791 0.73348784 0.7214588 0.4050025 1.0284141
0.43992513 0.647448 0.11513758 0.3795502 1.1188177 0.96554965 0.1546576 0.8712669
1.1050236 1.0606127 0.41360256 -0.01486604 0.6053538 0.29230684 0.90335244 0.78040904
00000000: df18 18bf 9d3e babe cbf4 463e 26c4 44bf
00000010: 9936 523f cad7 e0be 3a56 cb3d c0a7 433e
00000020: 0d82 693f ee37 bf3e c7b4 99bd dc0e 0e3f
00000030: 9397 9b3e 7006 533f 01d3 1dbf c591 6c3f
00000040: f662 513f e594 6a3f d1a8 643f 58d8 543f
00000050: 2526 303f 58a2 8fbd 3f9c 253f a4fe 013d
00000060: 32ae 343f cd06 573f 14bb a53d e8d8 3e3f
00000070: 148b ea3e d133 2e3f 7e5c f03e 3d44 d2be
00000080: 5f6a b6be ca26 483e 9f39 543e 2114 1fbf
00000090: 06c2 c1bf f08b 613d 17fe 1b3f e73b 29bc
000000a0: 5790 023f ebcc 283c 4f1c 9ebd e832 f13e
000000b0: b53e fd3e cdce 37bf 25cf 143f fa55 1f3e
000000c0: 51ac 01bf 6ebf 8c3f 77f5 06bf b088 463d
000000d0: d91e cb3b d21e c83e e6c9 063f 6f1c 163f
000000e0: 78a1 36bc 75a8 383f 7d86 6c3f fb3d 923e
000000f0: b34b 563f 7340 ec3a 3727 593f f89a 30be
00000100: 96af af3e b537 883f c65a d0be b292 3d3f
00000110: 88cf 063f e2d6 853d afc0 603f 35b9 6b3e
00000120: 6398 333f dc0c 63bd 48c9 5d3f cf15 c93e
00000130: ea16 643f c94c e2be f253 193f 3294 583f
00000140: f2cb 863e 800e 3d3f c296 aabd 715e 0a3f
00000150: 9499 433f b4cb 833f 6ce4 87bf 0b3a dd3e
00000160: cc86 933e 5286 f63e 85f4 c33c a1f5 5b3f
00000170: bb2a 2bbf 725e 0bbf 8682 b5bd 9a14 3c3e
00000180: 5ed3 ed3e 1c6e 53be 9149 bf3b a561 073c
00000190: 2ffa 78bf a8a3 6cbe 3eea 9a3e 8eff 43bf
000001a0: bcf3 92bf 9b87 b13e 390e 573f 5714 2b3f
000001b0: dcc5 3b3f 86b1 383f 7d5c cf3e 13a3 833f
000001c0: de3d e13e 27bf 253f 40cd eb3d 6754 c23e
000001d0: 6b35 8f3f 432e 773f 905e 1e3e 590b 5f3f
000001e0: 6a71 8d3f 28c2 873f b7c3 d33e b190 73bc
000001f0: 77f8 1a3f 3ea9 953e 1b42 673f e3c8 473f

arith.constant2 f4 [64]
0.010082012 -0.050378855 -0.042028856 -0.22579801 -0.22652853 0.009092571 -0.243633 -0.24454133
-0.09785661 -0.18309459 -0.20910873 -0.06496473 0.028743345 -0.07906144 -0.16627164 -0.04777402
-0.16539189 -0.022149995 -0.11519988 -0.1186803 -0.043430902 0.047250357 -0.06292454 0.076485954
-0.023901552 0.06647941 -0.13319382 -0.0068627894 -0.07974999 -0.005818017 -0.05057708 -0.036985647
-0.06102433 -0.21914504 -0.06038042 -0.13348776 -0.14167358 -0.091313496 -0.016289435 0.003987387
-0.18626146 -0.19389671 -0.04744652 -0.03537917 -0.07789677 -0.09728553 -0.07981011 -0.11939434
-0.04818602 -0.17134157 -0.22993127 -0.0474107 -0.23198608 -0.11913117 -0.115517214 0.1326723
-0.064934015 -0.14604588 -0.07326642 -0.13197356 -0.19869874 0.00011953898 -0.038665943 -0.1720882
00000000: 062f 253c 0f5a 4ebd 7326 2cbd 9837 67be
00000010: 18f7 67be 02f9 143c ee7a 79be 0b69 7abe
00000020: 0c69 c8bd 267d 3bbe 9920 56be 3a0c 85bd
00000030: 2a77 eb3c f7ea a1bd 1d43 2abe b1ae 43bd
00000040: 7e5c 29be e873 b5bc eaed ebbd a80e f3bd
00000050: 9ae4 31bd 9789 413d 95de 80bd aba4 9c3d
00000060: 30cd c3bc 5b26 883d f663 08be 40e1 e0bb
00000070: f653 a3bd 10a5 bebb ea29 4fbd 437e 17bd
00000080: a6f4 79bd 8f67 60be 7651 77bd 04b1 08be
00000090: e112 11be 9202 bbbd 6c71 85bc a0a8 823b
000000a0: 53bb 3ebe dc8c 46be 4857 42bd c0e9 10bd
000000b0: 5788 9fbd a33d c7bd 7c73 a3bd 0585 f4bd
000000c0: b45e 45bd 2a74 2fbe 1a73 6bbe b931 42bd
000000d0: c28d 6dbe 0bfb f3bd 4a94 ecbd 3fdb 073e
000000e0: 20fc 84bd 0d8d 15be b40c 96bd 1424 07be
000000f0: af77 4bbe 00b1 fa38 2e60 1ebd e437 30be

arith.constant3 f4 [64, 1, 3, 128]
0.018585188 -0.025474723 -0.051921725 -0.002358672 0.06588101 -0.04739109 0.003744891 -0.01819179
0.025208747 0.04601586 -0.048073858 -0.005191776 0.004469526 -0.0017400073 -0.056822564 -0.0032185554
-0.034761727 0.04263807 0.05983085 0.037270334 -0.061220083 -0.006739905 0.057972267 0.050958574
0.04176442 0.067160524 0.033470694 0.050124545 0.019051567 -0.024887325 -0.060652137 0.0018223516
-0.012365187 -0.082965 0.036160868 -0.007156328 0.06011193 0.0037497948 0.021510607 -0.018365571
-0.0007353492 -0.057300013 -0.018884236 0.032211974 0.016400525 0.0059555434 -0.02544432 0.0050402577
-0.0047274 0.025317645 -0.046862315 0.014004963 0.048215605 0.04120276 0.031893566 0.025543902
-0.011879235 0.05136938 0.040799 0.002485251 0.076674744 -0.021702489 0.0006308473 -0.003953491
0.0035194887 0.077564985 0.013190723 0.0074559627 -0.012692395 -0.03562953 -0.033082403 -0.015534031
-0.008870973 -0.027075684 0.0028811088 -0.02298291 0.024383735 -0.02905878 -0.00857884 0.051484343
0.011934493 0.016844666 -0.008200272 -0.019395346 0.036838114 0.019474057 -0.01988322 -0.0073229885
-0.03417765 -0.022319626 -0.05703448 0.043812435 -0.007334808 0.03128711 0.01403429 -0.023030065
0.03935152 -0.03323742 -0.007561275 -0.0313712 -0.016258866 -0.008956098 -0.0632095 0.013653286
0.011494887 -0.0023150437 0.059903402 0.051783267 0.056773994 0.033549536 -0.04362103 0.0002763849
-0.06760329 -0.022987071 -0.04517513 0.046465382 0.08907478 -0.011614533 0.008419052 -0.008072149
0.0020436903 -0.033127658 -0.009833482 0.019148631 0.0009110875 0.028488358 0.0064694886 -0.038617205
0.0035511567 -0.0040137446 0.0070924503 0.009638176 0.034073234 -0.012710358 0.0037171901 -0.000996177
-0.0028352586 -0.019581111 -0.013503224 0.027700854 0.018963318 -0.026651677 -0.011922171 -0.03063262
-0.02832974 0.0103069935 0.014616235 0.0024691503 -0.028021937 0.01091531 0.037392106 0.03601418
0.05474978 -0.010849183 0.04623174 0.054457135 -0.0032325974 -0.043889113 -0.035981886 -0.0027808263
-0.004513349 -0.033963956 0.061205342 0.010104177 0.039197776 -0.016728101 -0.044656765 -0.030028783
-0.019637307 -0.023274312 0.0064568664 0.010151518 -0.0033749323 0.0095687015 -0.011990891 -0.037778653
0.027325964 0.007902291 -0.018696317 -0.009749807 0.0029732038 0.034208383 -0.011784223 0.014847616
-0.0064817783 0.00895331 0.027944611 -0.0024526038 0.03496762 -0.0106895855 -0.0042548166 -0.0038316424
-1.0471867e-05 0.016966302 0.01641724 0.023072693 -0.023266185 -0.042071592 -0.020555962 -0.03958272
0.011810796 0.00021541269 -0.015718179 -0.048465252 -0.041171424 -0.008656521 0.0001294837 -0.015499238
0.037914954 -0.04928819 0.013166595 -0.01429992 -0.0014635661 -0.030893011 -0.047438066 -0.03338117
-0.030907767 -0.017732048 -0.011779331 0.014685627 0.029042915 -0.016885193 -0.04469226 0.04930307
0.025876077 0.016213302 0.009159475 -0.0062645143 -0.018810906 0.01080891 -0.032308016 0.038870484
9.962795e-05 0.017550008 0.035091743 0.063315324 0.042132333 0.023800336 -0.008820245 -0.012259578
-0.032532543 -0.028526215 -0.037095398 0.026207471 0.090916485 0.00878669 0.011922674 -0.015161183
-0.038313046 -0.03776207 0.025495267 0.016120426 -0.030865485 0.0075671375 0.013309119 -0.02031943
00000000: f73f 983c 5eb0 d0bc e0ab 54bd f393 1abb
00000010: 9fec 863d 291d 42bd d86c 753b f306 95bc
00000020: 9382 ce3c 207b 3c3d 18e9 44bd c61f aabb
00000030: 1a75 923b f510 e4ba c7be 68bd 66ee 52bb
00000040: 5062 0ebd 42a5 2e3d 3211 753d c7a8 183d
00000050: e9c1 7abd 6cda dcbb 5474 6d3d f0b9 503d
00000060: 2b11 2b3d 758b 893d 9118 093d 654f 4d3d
00000070: 0812 9c3c 81e0 cbbc 606e 78bd f9db ee3a
00000080: 5a97 4abc 8ee9 a9bd 6b1d 143d a17f eabb
00000090: ed37 763d 1ebf 753b 0337 b03c 6573 96bc
000000a0: 73c4 40ba 6bb3 6abd 1db3 9abc b4f0 033d
000000b0: 655a 863c b826 c33b 9b70 d0bc bf28 a53b
000000c0: 4ee8 9abb f366 cf3c b3f2 3fbd 1375 653c
000000d0: ba7d 453d 3ac4 283d d4a2 023d 7241 d13c
000000e0: 1fa1 42bc b368 523d da1c 273d 98df 223b
000000f0: a607 9d3d 6bc9 b1bc 725f 253a 498c 81bb
00000100: 39a7 663b 64da 9e3d e71d 583c 2651 f43b
00000110: c3f3 4fbc 45f0 11bd 6a81 07bd 7382 7ebc
00000120: 8f57 11bc d3cd ddbc fcd0 3c3b a846 bcbc
00000130: 66c0 c73c ae0c eebc 438e 0cbc 3fe1 523d
00000140: e488 433c d3fd 893c 6f5a 06bc fde2 9ebc
00000150: 90e3 163d 0f88 9f3c 22e2 a2bc aef5 efbb
00000160: ddfd 0bbd a6d7 b6bc fd9c 69bd ab74 333d
00000170: d458 f0bb ea26 003d 14f0 653c 8ca9 bcbc
00000180: 0f2f 213d f623 08bd 92c4 f7bb 167f 00bd
00000190: 5031 85bc 99bc 12bc fb73 81bd 08b2 5f3c
000001a0: 0d55 3c3c fdb7 17bb 455d 753d b11a 543d
000001b0: d98b 683d 3d6b 093d f7ab 32bd c1e7 9039
000001c0: 9873 8abd 624f bcbc 8f09 39bd 7c52 3e3d
000001d0: d76c b63d e24a 3ebc 10f0 093c 0c41 04bc
000001e0: 6fef 053b deb0 07bd 9d1c 21bc 97dd 9c3c
000001f0: 0cd6 6e3a 6b60 e93c 01fe d33b 132d 1ebd
00000200: 86ba 683b bb85 83bb c967 e83b 71e9 1d3c
00000210: 6090 0b3d 1b3f 50bc 1a9c 733b 2792 82ba
00000220: bfcf 39bb 9168 a0bc a03c 5dbc e7ec e23c
00000230: f658 9b3c 9e54 dabc 3655 43bc 43f1 fabc
00000240: c513 e8bc aade 283c ef78 6f3c 78d1 213b
00000250: 438e e5bc 21d6 323c 7728 193d 9b83 133d
00000260: 4e41 603d c6c0 31bc 7e5d 3d3d 720e 5f3d
00000270: fcd9 53bb 12c5 33bd be61 13bd 863e 36bb
00000280: b7e4 93bb ca1d 0bbd 74b2 7a3d fd8b 253c
00000290: d98d 203d 5f09 89bc 03ea 36bd ecfe f5bc
000002a0: 6bde a0bc c5a9 bebc 1f94 d33b 8d52 263c
000002b0: f82d 5dbb 0bc6 1c3c 7175 44bc cabd 1abd
000002c0: b3da df3c 9c78 013c 0529 99bc a8bd 1fbc
000002d0: 15da 423b 171e 0c3d 9d12 41bc 6a43 733c
000002e0: 1965 d4bb e7b0 123c 19ec e43c ddbb 20bb
000002f0: 353a 0f3d 5f23 2fbc fd6b 8bbb 4b1c 7bbb
00000300: 54b0 2fb7 eafc 8a3c 737d 863c f202 bd3c
00000310: ba98 bebc 4353 2cbd fa64 a8bc 7d21 22bd
00000320: 1282 413c 67e0 6139 69c3 80bc 8083 46bd
00000330: 5ea3 28bd 15d4 0dbc 04c6 0739 84f0 7dbc
00000340: b64c 1b3d 6ae2 49bd b4b8 573c 364a 6abc
00000350: 21d5 bfba 5713 fdbc 6b4e 42bd b2ba 08bd
00000360: 4932 fdbc cd42 91bc 18fe 40bc fc9b 703c
00000370: 68eb ed3c d152 8abc 3b0f 37bd 04f2 493d
00000380: 11fa d33c c2d1 843c 9f11 163c 8e46 cdbb
00000390: 5419 9abc db17 313c 6955 04bd a836 1f3d
000003a0: 59ef d038 09c5 8f3c 5cbc 0f3d 77ab 813d
000003b0: f492 2c3d ecf8 c23c ca82 10bc 66dc 48bc
000003c0: d840 05bd cfaf e9bc 58f1 17bd 0db1 d63c
000003d0: 6c32 ba3d 0df6 0f3c 5257 433c 9c66 78bc
000003e0: 24ee 1cbd 66ac 1abd 73db d03c fc0e 843c
000003f0: 9dd9 fcbc c0f5 f73b 7e0e 5a3c ef74 a6bc

arith.constant4 f4 [128, 1, 3, 64]
0.05459057 -0.004269182 0.026243707 -0.016782744 -0.051792588 -0.053337608 -0.04883211 -0.016478516
0.10332523 -0.0917601 0.11155627 -0.078505866 0.003979571 0.03657864 0.003935697 0.033479903
0.018602652 0.09019017 -0.030356368 0.044462178 0.036839575 0.08036604 -0.016534155 0.0040872777
0.09451883 0.09752712 0.059884463 0.12271744 -0.05046747 0.074298784 0.029465502 0.069894254
-0.017738882 0.066465825 0.04202362 0.03671284 0.042841997 0.017427783 0.021191772 0.11577355
-0.019565886 0.0438389 -0.07785021 0.12106707 0.10599574 -0.02740702 0.052527543 -0.03603016
0.025085092 -0.043185648 -0.123893924 0.0064454037 0.02697429 -0.038848262 -0.054007147 -0.006367082
-0.08458597 -0.045343265 0.07026949 -0.050796058 0.034774195 -0.016318083 0.040135123 -0.036337603
-0.011656407 -0.041041147 -0.0145453485 -0.028911456 -0.040297467 -0.052315496 -0.07992411 -0.094741166
0.110801294 -0.0346653 -0.023085155 -0.027182924 0.052880652 -0.044805083 -0.0103415325 -0.020013848
-0.012377896 0.0071899467 0.014825922 -0.034038674 -0.025903257 -0.010945416 -0.042709477 -0.010624167
0.068863265 0.03520494 0.08560003 0.07776851 0.023806177 0.09732665 0.07339443 -0.025368758
-0.017775675 0.05294845 -0.059891347 0.014104066 -0.046451233 0.0036271478 0.0065683527 0.0060971007
-0.04343279 -0.047738213 -0.10322152 0.083344124 0.05952303 -0.05174539 0.107223704 0.016397055
-0.078857064 0.01641435 -0.005209645 0.0008764316 -0.04456822 0.09118295 -0.071757294 0.006614793
-0.10335588 -0.0828606 -0.021930732 0.002742829 -0.10932948 -0.021577721 -0.035767306 0.038019978
0.093123764 0.06463236 0.07513436 -0.024060395 0.0473739 -0.054314904 -0.1016524 0.039228726
0.13141237 0.016489992 -0.08610077 0.01863865 -0.02733246 0.030930635 -0.07532555 -0.0072342944
0.09407166 -0.0048077987 0.008472524 -0.04682674 0.0132730715 0.028528713 -1.074425e-05 -0.05953753
0.02301509 -0.034150142 0.07345785 0.0052983738 0.045686148 0.1393287 0.058531225 0.027326483
0.062141903 0.17204507 0.083216175 -0.050848566 -0.03218724 0.0070032747 0.07395111 -0.03046325
-0.06441063 -0.11985275 -0.060584847 -0.009908005 0.051116653 0.05325431 0.0076607866 0.0009091687
-0.072060324 0.09498457 0.039357614 0.01596469 -0.08756841 0.02516055 -0.07037049 -0.011331098
0.032613885 -0.13370337 0.004505792 0.03650588 -0.00133639 -0.0043460876 0.0005228418 0.0035430621
0.036911026 0.012785869 0.031876925 -0.03775188 0.06635787 0.037930455 0.040774077 -0.05862616
-0.017199432 0.02742648 -0.048471116 0.041248143 -0.036410112 0.021651413 0.04776348 -0.053650185
0.0065932944 -0.015819179 -0.027988175 0.013559953 0.008256211 0.006025722 -0.018927801 -0.057037096
-0.032964613 -0.021453802 -0.022935659 -0.0040618028 0.04545011 -0.019528162 -0.0301896 0.05011012
-0.009483153 -0.10213745 0.047227778 -0.005017966 -0.06757398 -0.0024063103 0.046024453 -0.065544106
-0.06920044 -0.060617857 0.007330508 -0.017725365 0.028125992 0.060980354 0.021111224 0.05552172
0.042356025 0.13787262 0.01076066 0.046284005 -0.037250247 0.044456046 -0.046052568 0.057068966
0.009949613 -0.027253477 0.09475174 0.056829035 -0.03149276 -0.024746347 0.022715101 0.019306745
00000000: 5d9a 5f3d 7fe4 8bbb 0bfd d63c f77b 89bc
00000010: 7724 54bd 8978 5abd 2e04 48bd f4fd 86bc
00000020: 2e9c d33d b8ec bbbd 9d77 e43d afc7 a0bd
00000030: 1067 823b 7cd3 153d 05f7 803b 3922 093d
00000040: 9764 983c a0b5 b83d ebad f8bc f91d 363d
00000050: 18e5 163d f396 a43d a372 87bc 92ee 853b
00000060: 1793 c13d 4cbc c73d 6949 753d 4853 fb3d
00000070: fab6 4ebd f629 983d a361 f13c b824 8f3d
00000080: 2251 91bc 3c1f 883d f620 2c3d 3460 163d
00000090: 177b 2f3d b6c4 8e3c 5e9a ad3c af1a ed3d
000000a0: a348 a0bc 6b90 333d ee6f 9fbd 03f2 f73d
000000b0: 4b14 d93d b084 e0bc 1f27 573d 5c94 13bd
000000c0: 407f cd3c 6fe3 30bd 19bc fdbd f733 d33b
000000d0: 30f9 dc3c 5b1f 1fbd 9936 5dbd f4a2 d0bb
000000e0: 693b adbd dcb9 39bd 73e9 8f3d 870f 50bd
000000f0: 636f 0e3d 80ad 85bc ba64 243d bdd6 14bd
00000100: 84fa 3ebc c31a 28bd 9d4f 6ebc b8d7 ecbc
00000110: f50e 25bd c648 56bd 40af a3bd a807 c2bd
00000120: caeb e23d 34fd 0dbd 141d bdbc b9ae debc
00000130: 6299 583d 8985 37bd 886f 29bc 15f4 a3bc
00000140: a9cc 4abc a599 eb3b 6de8 723c 236c 0bbd
00000150: 1133 d4bc 6754 33bc 22f0 2ebd fc10 2ebc
00000160: 2f08 8d3d 0e33 103d 124f af3d 1945 9f3d
00000170: 2c05 c33c 3253 c73d d24f 963d 24d2 cfbc
00000180: 4b9e 91bc 79e0 583d a150 75bd be14 673c
00000190: a643 3ebd 71b5 6d3b 563b d73b 30ca c73b
000001a0: 95e6 31bd 2589 43bd ce65 d3bd 53b0 aa3d
000001b0: 6cce 733d f9f2 53bd 1a98 db3d 1e53 863c
000001c0: d07f a1bd 6377 863c abb5 aabb 54c0 653a
000001d0: 2a8d 36bd 20be ba3d 7df5 92bd e8c0 d83b
000001e0: 3fac d3bd d1b2 a9bd 14a8 b3bc 09c1 333b
000001f0: 22e8 dfbd c3c3 b0bc bd80 12bd d6ba 1b3d
00000200: acb7 be3d f95d 843d 0be0 993d 4e1a c5bc
00000210: 220b 423d 4e79 5ebd 222f d0bd 4dae 203d
00000220: f790 063e 0516 873c 9a55 b0bd 15b0 983c
00000230: 53e8 dfbc 3e62 fd3c 4844 9abd a90d edbb
00000240: a4a8 c03d bd8a 9dbb 57d0 0a3c 65cd 3fbd
00000250: 4c77 593c 0cb5 e93c 3442 34b7 a0dd 73bd
00000260: 248a bc3c 05e1 0bbd 1271 963d fb9d ad3b
00000270: 6621 3b3d 2fac 0e3e 70be 6f3d cadb df3c
00000280: 8288 7e3d 952c 303e 3e6d aa3d 9646 50bd
00000290: c4d6 03bd ba7b e53b ae73 973d 118e f9bc
000002a0: b8e9 83bd 5c75 f5bd d127 78bd 2f55 22bc
000002b0: b25f 513d 3121 5a3d 5607 fb3b 4755 6e3a
000002c0: 5d94 93bd 4587 c23d 7335 213d 62c8 823c
000002d0: 1157 b3bd 7f1d ce3c 671e 90bd 12a6 39bc
000002e0: 2396 053d 89e9 08be 53a5 933b 3187 153d
000002f0: cf29 afba a069 8ebb 520f 093a b832 683b
00000300: 0430 173d d27b 513c 6191 023d b7a1 1abd
00000310: a3e6 873d f75c 1b3d b802 273d fc21 70bd
00000320: d3e5 8cbc 7fad e03c a689 46bd d0f3 283d
00000330: c522 15bd 4e5e b13c a4a3 433d 4cc0 5bbd
00000340: 900c d83b 3997 81bc 7547 e5bc 912a 5e3c
00000350: 0f45 073c 6b73 c53b 7a0e 9bbc bb9f 69bd
00000360: e705 07bd e2bf afbc 90e3 bbbc df18 85bb
00000370: e529 3a3d 86f9 9fbc 2e50 f7bc 4540 4d3d
00000380: 3a5f 1bbc 702d d1bd ea71 413d c06d a4bb
00000390: 3a64 8abd 30b3 1dbb 2384 3c3d fd3b 86bd
000003a0: f6b8 8dbd 6e4a 78bd c234 f03b c934 91bc
000003b0: 7b68 e63c 89c6 793d 72f1 ac3c be6a 633d
000003c0: 837d 2d3d 7b2e 0d3e 7b4d 303c 4c94 3d3d
000003d0: b793 18bd 8b17 363d 9ea1 3cbd 26c1 693d
000003e0: b403 233c af42 dfbc 330d c23d 90c5 683d
000003f0: 8dfe 00bd dab8 cabc 0515 ba3c 2e29 9e3c

arith.constant5 f4 [64, 1, 3, 4]
0.18961836 -0.22219346 -0.045821607 0.21212377 -0.19559419 0.17166701 0.38826394 -0.0045176083
-0.16055585 0.17939298 0.17784275 0.2038143 0.23027405 0.049549393 0.19188197 0.19345848
-0.1300313 0.07473639 0.08976442 0.20769669 -0.16451518 0.026403379 0.15535682 0.23968591
-0.26641354 0.12697183 0.14477128 0.47505054 -0.053160537 0.043320097 -0.37846532 0.25210717
0.2617006 -0.081864156 0.45007554 0.15908633 -0.24387088 1.7856811 0.7236028 -0.7412412
-0.3256463 -0.87301385 -0.29583117 -0.6613582 1.0053917 -0.79745317 0.74720657 -0.0811506
1.2549989 -1.956745 1.1245745 -0.3766462 -2.3437772 2.5216026 -1.2213417 -0.035788976
1.1420947 -0.48908097 0.36570612 0.22083122 -0.33837962 -0.043676194 0.8921612 -0.33852568
-0.37134367 0.67443174 0.28363332 -0.49478173 0.5311367 -0.15366586 -0.20414445 -0.54982233
0.8211485 0.46163106 0.9936376 1.0158749 -1.3979669 0.97018397 -1.46868 -1.3017119
0.5526181 -0.92449856 1.3140392 -0.5666252 -0.48090258 -0.86457914 -0.06352553 0.18876813
-0.20874812 -0.1962288 -0.3156835 0.4198638 0.52886325 0.31856525 -0.62973976 0.08012984
-0.7005452 2.109822 -0.06633884 -0.42184627 0.82187253 -0.16796654 -0.4058901 1.7626524
-0.17287439 -2.0140781 0.41526064 -1.800531 0.7784668 -2.1006334 0.7205733 -0.97943866
0.67005336 0.38240966 -0.91506696 0.9205818 -1.5309108 1.6706481 0.6068248 -0.4964442
-0.10294513 -0.06971225 -0.2429581 -0.28521237 -0.1561299 0.29097453 -0.10671939 0.082245976
-0.039322603 -0.0018876902 -0.16158092 -0.17732605 0.033875383 -1.7245445 1.8489784 -0.82612205
0.46817136 -0.10701008 -1.245489 -0.09188736 -0.633529 1.9096581 -0.39011595 0.61997974
0.13824865 -0.11370931 -0.0019154891 -0.29913267 0.018216241 -0.1593951 -0.18174303 -0.44859993
-0.11400588 0.25302085 -0.14109631 0.117621176 0.30534142 0.06904101 0.39274466 0.36729643
-0.26521447 0.08228872 -0.2661839 0.27955613 -0.107039355 -0.1834573 -0.28825787 0.5928973
0.20358124 0.012077034 0.45503885 0.4011178 -0.3672567 0.31906036 -0.22953765 0.5825111
-0.1979713 0.09024454 -0.28076115 -0.77696365 0.39958537 0.16021514 0.26306516 0.14878224
0.37434942 -0.050096594 0.1973866 -0.16646421 -0.3440547 0.21342699 -0.05501081 0.29310283
-0.6481504 -0.084424846 0.65291333 -0.5954624 0.017040584 1.0713966 0.37505403 0.3619508
1.1071053 -0.8641164 0.187563 -0.70375025 0.34684458 -0.008817686 0.31979057 -0.4119338
-0.043909803 0.09619551 -0.10896863 -0.35623452 -0.33156246 0.05685535 0.026358455 -0.48242378
-0.2477942 0.24886523 -0.25717896 0.15675771 0.01995805 -0.36423475 -0.32396284 -0.5984685
-0.0649706 -0.58513117 0.8257646 0.031104568 0.12927671 0.059312575 -0.3074129 0.9499495
0.048301566 0.7801751 0.19971476 0.27966577 0.19554135 -0.6066532 -0.21580671 -1.120262
-0.17779398 -0.35416546 0.038132265 0.25266117 0.0104052955 -0.0596671 0.058062732 0.2818275
0.09661954 -0.3372053 0.03600721 -0.17813323 0.05881636 0.023681074 -0.06698742 -0.116352044
00000000: 512b 423e af86 63be 70af 3bbd f936 593e
00000010: d849 48be 7ac9 2f3e 88ca c63e 7208 94bb
00000020: c168 24be cbb2 373e 691c 363e b2b4 503e
00000030: f6cc 6b3e 4ef4 4a3d b57c 443e fb19 463e
00000040: ed26 05be 640f 993d 69d6 b73d 71ae 543e
00000050: ab76 28be e64b d83c dc15 1f3e 3970 753e
00000060: 5b67 88be e704 023e ec3e 143e d339 f33e
00000070: ddbe 59bd 6a70 313d 35c6 c1be 3114 813e
00000080: 9ffd 853e 65a8 a7bd 4d70 e63e 87e7 223e
00000090: 4ab9 79be 3391 e43f 083e 393f fcc1 3dbf
000000a0: 1dbb a6be d67d 5fbf 2f77 97be c54e 29bf
000000b0: adb0 803f e425 4cbf ee48 3f3f 4932 a6bd
000000c0: cea3 a03f 9f76 fabf 0ff2 8f3f c5d7 c0be
000000d0: 7200 16c0 f061 2140 ed54 9cbf 7697 12bd
000000e0: 2930 923f d268 fabe d53d bb3e 9421 623e
000000f0: 1840 adbe cfe5 32bd ad64 643f 3d53 adbe
00000100: c220 bebe 8fa7 2c3f 6338 913e 0854 fdbe
00000110: 93f8 073f 955a 1dbe 3e0b 51be 28c1 0cbf
00000120: ca36 523f e85a ec3e 095f 7e3f 3008 823f
00000130: 94f0 b2bf fa5d 783f b5fd bbbf 7f9e a6bf
00000140: 6178 0d3f f0ab 6cbf 7032 a83f 590e 11bf
00000150: dd38 f6be 0f55 5dbf ac19 82bd 6f4c 413e
00000160: 11c2 55be 34f0 48be 45a1 a1be 63f8 d63e
00000170: 9563 073f fc1a a33e a036 21bf 1d1b a43d
00000180: ee56 33bf 5307 0740 a8dc 87bd 3cfc d7be
00000190: 3d66 523f 6cff 2bbe d4d0 cfbe 989e e13f
000001a0: fc05 31be a8e6 00c0 0b9d d43e cd77 e6bf
000001b0: 9a49 473f c770 06c0 7e77 383f 7ebc 7abf
000001c0: 9e88 2b3f 33cb c33e d441 6abf 40ab 6b3f
000001d0: e3f4 c3bf ccd7 d53f df58 1b3f ef2d febe
000001e0: e5d4 d2bd 4cc5 8ebd 02ca 78be 5b07 92be
000001f0: 84e0 1fbe 9dfa 943e b28f dabd 9470 a83d
00000200: bd10 21bd 5f6c f7ba 7875 25be f694 35be
00000210: eac0 0a3d e0bd dcbf 53ab ec3f bc7c 53bf
00000220: 28b4 ef3e 1a28 dbbd 2f6c 9fbf 712f bcbd
00000230: f52e 22bf ad6f f43f 47bd c7be feb6 1e3f
00000240: 0e91 0d3e 6de0 e8bd 2611 fbba eb27 99be
00000250: 3a3a 953c 7838 23be d81a 3abe e4ae e5be
00000260: ea7b e9bd f38b 813e 8d7b 10be 5fe3 f03d
00000270: b655 9c3e 6065 8d3d d415 c93e 470e bc3e
00000280: 31ca 87be fd86 a83d 4249 88be fb21 8f3e
00000290: 7337 dbbd 3bdc 3bbe 8996 93be 1ec8 173f
000002a0: 9a77 503e c1de 453c dafa e83e 505f cd3e
000002b0: 1209 bcbe e15b a33e eb0b 6bbe 731f 153f
000002c0: fdb8 4abe 21d2 b83d edbf 8fbe 17e7 46bf
000002d0: 7496 cc3e 700f 243e 7ab0 863e 5f5a 183e
000002e0: baaa bf3e 1632 4dbd b61f 4a3e 9875 2abe
000002f0: f027 b0be 9b8c 5a3e 0453 61bd 9311 963e
00000300: 2fed 25bf efe6 acbd 5425 273f 3970 18bf
00000310: b298 8b3c 8623 893f 1507 c03e 9e51 b93e
00000320: a0b5 8d3f bb36 5dbf 8410 403e fa28 34bf
00000330: 9d95 b13e 0e78 10bc 97bb a33e fde8 d2be
00000340: c4da 33bd 2702 c53d f22a dfbd 5f64 b6be
00000350: 8ec2 a9be 28e1 683d b0ed d73c 4000 f7be
00000360: c3bd 7dbe 87d6 7e3e f6ac 83be 1885 203e
00000370: 117f a33c fa7c babe 75de a5be 3b35 19bf
00000380: 4e0f 85bd 28cb 15bf 4f65 533f 02cf fe3c
00000390: 1d61 043e bef1 723d 3965 9dbe e42f 733f
000003a0: ddd7 453d 8eb9 473f 0782 4c3e 5a30 8f3e
000003b0: fe3b 483e a04d 1bbf 6ffc 5cbe bf64 8fbf
000003c0: a00f 36be 2d55 b5be 9430 1c3d ce5c 813e
000003d0: f97a 2a3c 7d65 74bd 30d3 6d3d b24b 903e
000003e0: 77e0 c53d 2ca6 acbe 4c7c 133d 8f68 36be
000003f0: 6ce9 703d d0fe c13c b330 89bd fb49 eebd

arith.constant6 f4 [64]
0.013968525 -0.009974895 -0.0009034045 0.039941024 0.065435745 -0.011565584 -0.0037008107 0.0191622
0.008490742 0.014451714 0.0006676534 -0.013944468 -0.01810149 -0.016688062 0.0024700738 0.0036166369
-0.004821129 -0.01078252 -0.017291203 0.04222138 0.007273067 -0.017618127 0.025195863 -0.013682895
-0.01895863 -0.03644099 0.0061405073 0.0068766293 -0.0073040514 0.009676575 -0.031110194 0.029039787
0.06309082 0.0058739022 0.013694963 -0.020219546 -0.00069227745 0.032360516 0.017479947 0.023597106
0.04175486 6.541892e-05 0.0044051483 -0.00052728906 -0.044073083 0.0047638244 0.015763106 0.021753734
0.043328453 0.017871398 -0.015447702 0.058824964 -0.014571946 -0.029914174 -0.0022330873 0.0045622853
0.04274142 -0.0052029276 0.020905567 -0.018290654 0.017703712 0.017367711 0.003897209 -0.026651649
00000000: 3edc 643c be6d 23bc 73d2 6cba 3399 233d
00000010: 2d03 863d 937d 3dbc 4d89 72bb 0cfa 9c3c
00000020: c11c 0b3c e2c6 6c3c 7605 2f3a 5777 64bc
00000030: 9349 94bc 67b5 88bc f6e0 213b 1905 6d3b
00000040: 90fa 9dbb 2ba9 30bc 48a6 8dbc 53f0 2c3d
00000050: e852 ee3b e453 90bc 8e67 ce3c 392e 60bc
00000060: 214f 9bbc 2643 15bd 4f36 c93b 5955 e13b
00000070: d356 efbb 7f8a 1e3c ceda febc d9e4 ed3c
00000080: c335 813d dd79 c03b d760 603c 76a3 a5bc
00000090: f479 35ba 768c 043d 1b32 8f3c b84e c13c
000000a0: 2507 2b3d 8431 8938 1059 903b c539 0aba
000000b0: fa85 34bd db19 9c3b a121 813c e334 b23c
000000c0: 2d79 313d 0a67 923c 5c18 7dbc 72f2 703d
000000d0: 2cbf 6ebc 920e f5bc fd58 12bb 397f 953b
000000e0: a111 2f3d 527d aabb 2742 ab3c 48d6 95bc
000000f0: 6007 913c bb46 8e3c 5168 7f3b 8f54 dabc

arith.constant7 f4 [4]
0.030517695 0.11442286 0.0136649655 -0.1895716
00000000: 3f00 fa3c 8856 ea3d 05e3 5f3c 0f1f 42be

arith.constant13 f4 [4, 64]
0.44203362 -0.079182595 0.045548353 0.21178399 -0.06496272 -0.28749692 0.46521157 0.016925627
0.28440782 -0.21485947 0.26612377 0.15477055 -0.14490394 0.08277458 -0.28363472 -0.40239927
-0.33124653 -0.52325684 -0.0053385175 0.17292877 0.18421167 -0.43011668 -0.0016938078 -0.13052471
-0.27997708 -0.23373681 0.23138836 -0.5325648 0.2981139 0.14383118 0.14174302 -0.24391133
0.24907827 -0.1886496 -0.6319481 -0.063337564 -0.17620163 0.13338113 0.20535773 0.3496668
0.33611035 -0.308029 0.43596217 0.24582113 -0.41751507 -0.37795463 0.47980917 -0.18392707
0.50150836 -0.030269027 -0.41849148 0.0685705 -0.45934036 -0.348464 0.11899206 -0.23414293
0.15578361 0.016713424 0.08257722 -0.42423123 0.10973246 -0.015833914 0.060865533 -0.40652305
-0.39558023 -0.17007057 -0.46297613 -0.21535 -0.047749758 0.0017415071 -0.3488612 0.04020449
-0.46435687 0.20959713 0.29557425 0.2233755 -0.073172316 -0.27839375 -0.033438094 -0.42935178
-0.2531153 0.2968047 -0.24050376 0.18794565 0.17704594 0.09754563 0.2674391 -0.3359257
-0.2542248 -0.21999244 -0.29124704 -0.16451329 -0.4480123 -0.20175144 -0.25575042 -0.46291012
0.26831055 -0.22142191 0.036103345 -0.25303438 -0.13356428 -0.5956205 0.2946889 -0.020009482
-0.11591701 -0.4086202 -0.37912354 0.3461819 0.3288368 -0.27238658 -0.11227843 -0.4510545
-0.09223789 0.07891465 0.18740314 0.07727943 0.14428046 0.62368774 0.1232662 0.06200085
0.14333504 -0.50895596 -0.12397132 0.40868664 -0.025845414 -0.39001885 -0.28751507 -0.0018390443
0.3478124 -0.089248985 -0.2887894 -0.3627449 -0.07291917 0.27357432 -0.27865595 -0.37549132
0.3442034 0.30925727 -0.32390732 -0.43930373 -0.16952467 -0.10290487 0.36346388 -0.3265385
0.50465053 0.26279697 -0.3381885 0.17759179 -0.31793928 -0.10340148 0.24296555 0.049298253
0.10512453 -0.02803069 -0.5008946 0.057621658 0.050560508 -0.28099453 -0.05324249 0.1183974
0.23814784 -0.14473222 0.06269253 0.28143406 0.040698964 0.3570375 -0.37860054 -0.44385007
-0.017219465 0.10034157 0.062050246 -0.4725867 0.22712833 0.45163843 -0.22493578 0.29913366
-0.5160188 0.054584254 0.34165505 0.06015781 -0.16736497 -0.30005693 -0.3632092 0.17675273
0.1416624 0.17351164 -0.050848655 -0.18960634 0.53573126 -0.06881403 -0.26151186 -0.17402974
-0.12107811 0.21103293 0.116102204 0.21858494 -0.4744658 0.13425465 -0.2697298 -0.55018216
0.10232852 -0.36196738 -0.50115526 0.14284016 0.33800188 0.32227477 -0.29042685 0.11705664
-0.33109486 0.15893973 0.3895976 -0.5739572 -0.03824041 0.07900615 -0.546318 0.27730712
0.44470942 0.2029476 -0.07984606 0.07313046 -0.08460488 0.33004883 -0.0820415 -0.41722643
-0.3916893 0.31498286 0.04361871 0.11516015 -0.39957437 0.2899064 -0.17237538 0.1502665
0.39136112 0.026296364 -0.2468502 -0.34611645 -0.048579656 -0.1379074 0.028179273 -0.059103392
-0.019846799 -0.47546628 0.22926868 -0.49550188 0.14119859 -0.42017728 -0.1621811 -0.31352466
-0.42809916 -0.10495695 0.4746387 -0.003542897 -0.2183504 0.24891214 0.33051565 0.31095657
00000000: 3b52 e23e 7c2a a2bd e990 3a3d e7dd 583e
00000010: 2d0b 85bd cc32 93be 3630 ee3e 9da7 8a3c
00000020: e79d 913e 1f04 5cbe 6041 883e 2c7c 1e3e
00000030: b361 14be b885 a93d 9238 91be 4707 cebe
00000040: 2599 a9be 29f4 05bf bbee aebb 3d14 313e
00000050: fca1 3c3e 4138 dcbe c202 deba 45a8 05be
00000060: 2859 8fbe b458 6fbe 12f1 6c3e 2b56 08bf
00000070: 63a2 983e 7b48 133e 1525 113e e4c3 79be
00000080: 600e 7f3e 5c2d 41be 5ac7 21bf 20b7 81bd
00000090: 336e 34be 1095 083e 4c49 523e 8707 b33e
000000a0: a816 ac3e fab5 9dbe 6f36 df3e 89b8 7b3e
000000b0: 89c4 d5be 4583 c1be 8ca9 f53e 6157 3cbe
000000c0: da62 003f c0f6 f7bc 8444 d6be b16e 8c3d
000000d0: a92e ebbe e069 b2be 1cb2 f33d 2ac3 6fbe
000000e0: bd85 1f3e 97ea 883c 3f1e a93d d634 d9be
000000f0: 69bb e03d 20b6 81bc 234e 793d ca23 d0be
00000100: 7e89 cabe fb26 2ebe 350b edbe b684 5cbe
00000110: 4095 43bd 4843 e43a ef9d b2be 77ad 243d
00000120: 2fc0 edbe a1a0 563e 8255 973e 8cbc 643e
00000130: 5edb 95bd a089 8ebe 62f6 08bd ffd3 dbbe
00000140: 5498 81be c9f6 973e 9e46 76be d374 403e
00000150: 884b 353e 01c6 c73d c7ed 883e 74fe abbe
00000160: c129 82be b345 61be 551e 95be 2c76 28be
00000170: de61 e5be ee97 4ebe b8f1 82be 8e02 edbe
00000180: 0060 893e 6dbc 62be 1ae1 133d b98d 81be
00000190: 13c5 08be 967a 18bf 77e1 963e edea a3bc
000001a0: e665 edbd ab36 d1be 7b1c c2be c13e b13e
000001b0: 4c5d a83e 4176 8bbe 3cf2 e5bd 9ef0 e6be
000001c0: 38e7 bcbd 019e a13d 9ce6 3f3e ae44 9e3d
000001d0: 42be 133e 00aa 1f3f fd72 fc3d 9af4 7d3d
000001e0: 6cc6 123e f04a 02bf ade4 fdbd 603f d13e
000001f0: c3b9 d3bc 8db0 c7be 2d35 93be 160c f1ba
00000200: 7814 b23e 2cc8 b6bd 34dc 93be b3b9 b9be
00000210: a556 95bd ef11 8c3e feab 8ebe 6640 c0be
00000220: 6e3b b03e f856 9e3e 2ed7 a5be 6bec e0be
00000230: e097 2dbe cabf d2bd f017 ba3e 0e30 a7be
00000240: c730 013f 538d 863e 0b27 adbe 9fda 353e
00000250: f0c8 a2be 28c4 d3bd f6cb 783e f7ec 493d
00000260: 884b d73d 9ea0 e5bc a13a 00bf b004 6c3d
00000270: 8918 4f3d 84de 8fbe cc14 5abd 567a f23d
00000280: 07dd 733e af34 14be f164 803d 2018 903e
00000290: f5b3 263d 9fcd b63e eed7 c1be 5140 e3be
000002a0: d60f 8dbc e27f cd3d 6628 7e3d e2f6 f1be
000002b0: 5494 683e 273d e73e 9155 66be 0c28 993e
000002c0: cf19 04bf bd93 5f3d 69ed ae3e 0968 763d
000002d0: b961 2bbe 10a1 99be 8ef6 b9be abfe 343e
000002e0: f30f 113e 09ad 313e ae46 50bd 2a28 42be
000002f0: af25 093f 5fee 8cbd e2e4 85be da34 32be
00000300: cdf7 f7bd 0419 583e fec6 ed3d bbd4 5f3e
00000310: 2eed f2be 0d7a 093e 061a 8abe bdd8 0cbf
00000320: 9d91 d13d ca53 b9be b64b 00bf b144 123e
00000330: 950e ad3e 3301 a53e d4b2 94be 64bb ef3d
00000340: 4485 a9be 19c1 223e 5679 c73e dcee 12bf
00000350: faa1 1cbd facd a13d 7fdb 0bbf 33fb 8d3e
00000360: f4b0 e33e 7fd1 4f3e 5586 a3bd 6cc5 953d
00000370: 5345 adbd 29fc a83e 6005 a8bd b49e d5be
00000380: 808b c8be 6f45 a13e 88a9 323d 16d9 eb3d
00000390: 0395 ccbe 9d6e 943e 2c83 30be 76df 193e
000003a0: 7c60 c83e 796b d73c 4dc6 7cbe 2d36 b1be
000003b0: 76fb 46bd 9937 0dbe 38d8 e63c 6616 72bd
000003c0: c195 a2bc 5170 f3be 69c5 6a3e 6cb2 fdbe
000003d0: 5d96 103e 7a21 d7be cd12 26be 4e86 a0be
000003e0: d02f dbbe abf3 d6bd d803 f33e f32f 68bb
000003f0: 3f97 5fbe d3e2 7e3e 5939 a93e b335 9f3e

arith.constant14 f4 [64, 64]
-0.13687013 -0.064331464 -0.08379925 -0.1887399 0.15872353 0.15869024 0.14762485 -0.17511208
0.17010742 -0.20063269 -0.13691014 0.029215524 0.11079982 0.04511544 -0.069920115 -0.095601864
0.12339233 -0.119673885 0.06020954 -0.14944327 0.10601761 -0.0013723465 0.17695269 0.077887304
0.12436166 0.105223574 0.096779235 -0.040331647 0.116281725 -0.05689865 0.17739144 0.0324296
-0.015656235 0.15920694 -0.11930588 -0.19688411 -0.14970788 -0.09557861 0.13835949 -0.08520999
-0.11509415 0.05241865 0.19765048 -0.11699524 0.046384584 0.010949831 -0.10144043 -0.19084755
-0.077585824 0.15457973 0.026596583 0.13844435 0.06515869 -0.13722986 0.051918544 -0.0051310468
-0.16091354 0.13291408 -0.08794176 -0.04891715 -0.089708805 0.07702347 0.105119035 0.19745241
-0.01377248 -0.005253366 -0.045366798 0.019317713 -0.01316098 -0.0058801644 -0.0058021354 -0.026139472
-0.03336453 -0.0011633391 0.00787053 -0.014499182 0.0016664164 0.06773948 0.0455928 -0.009935483
-0.020121709 0.01635872 0.067237206 -0.034933753 -0.012701091 -0.011168274 -0.018803772 0.061109617
-0.016102195 -0.023994299 -0.015154284 -0.029791053 -0.030828925 -0.029547635 0.0043739644 -0.04391333
0.024458371 0.007321437 -0.034846365 0.051560067 -0.006806084 -0.046273377 0.0542153 -0.0010734431
-0.05457054 -9.329349e-05 -0.006361221 -0.014696719 -0.025130983 -0.044655055 0.04994613 -0.043795366
0.009811957 -0.009299896 -0.021866634 0.04658435 -0.054024857 -0.03945037 0.03322764 -0.025604839
-0.055835173 0.011131595 0.027368503 0.023849927 -0.019511353 0.017948266 0.012813656 0.009004802
-0.11657239 -0.06953967 0.06480736 -0.1765111 -0.018421603 0.11843288 -0.02155232 0.076303005
0.08192815 -0.13618404 -0.17549022 -0.06440913 0.1694439 0.02022366 -0.11494194 -0.08494099
-0.06152712 -0.064978756 0.06911903 -0.043305993 -0.10110744 -0.018601902 -0.02426925 0.12848021
0.14333391 -0.075739175 0.15009773 -0.17771374 -0.008193814 -0.18694186 0.13646716 -0.0773782
-0.1304043 0.09199677 0.0672236 0.010674561 -0.034047626 -0.014876002 0.15296836 0.14709215
0.017720567 0.0632237 0.015457094 0.029678572 0.00495106 0.10425706 0.0085248975 -0.068351924
0.105935514 0.032026723 -0.09480862 0.057342045 0.07950478 -0.13364525 0.0056007025 0.016631952
-0.1302469 0.15949547 0.19741139 0.13138758 -0.10050028 0.14586091 -0.0033644391 0.04827413
-0.074631296 -0.026148722 -0.047395136 -0.10407817 0.023694556 -0.028032014 0.101116486 0.023897339
0.039959367 -0.065776534 -0.014889306 -0.12920368 -0.032949258 0.02371252 -0.03060353 0.03333187
0.12010791 0.06888124 -0.03636133 -0.11122575 -0.07492472 0.10887205 0.01572591 0.17072411
0.113866486 -0.111369014 0.039563037 -0.080462545 -0.04706228 -0.056305174 -0.05392542 -0.051390752
-0.084096014 -0.00449319 -0.075463966 -0.046230767 0.11604443 -0.0155476 0.015797779 0.00034123726
-0.023590615 0.08314343 -0.034224518 0.00054026186 -0.041049033 -0.01325292 0.13244362 -0.018585041
0.18134686 0.0539837 -0.050902534 0.0063433736 0.066809766 -0.09374272 -0.037958212 -0.08134775
-0.033041213 0.11123843 0.11018499 0.012894114 -0.13877036 0.2034672 -0.0038192084 0.02908593
00000000: af27 0cbe 37c0 83bd f19e abbd 0845 41be
00000010: 6c88 223e b27f 223e f82a 173e 9550 33be
00000020: a430 2e3e a872 4dbe 2c32 0cbe 6555 ef3c
00000030: 04eb e23d f8ca 383d 4732 8fbd e9ca c3bd
00000040: 1eb5 fc3d 9517 f5bd 479e 763d a807 19be
00000050: c31f d93d 4fe0 b3ba 1633 353e 6183 9f3d
00000060: 53b1 fe3d 757f d73d 3134 c63d cc32 25bd
00000070: 1d25 ee3d 8f0e 69bd 1aa6 353e e6d4 043d
00000080: 8141 80bc 2507 233e a456 f4bd fd9b 49be
00000090: 064d 19be b8be c3bd 1cae 0d3e 9382 aebd
000000a0: 7bb6 ebbd f0b4 563d e364 4a3e 339b efbd
000000b0: c3fd 3d3d ec66 333c 00c0 cfbd 8a6d 43be
000000c0: 51e5 9ebd 264a 1e3e 14e1 d93c 5bc4 0d3e
000000d0: eb71 853d fc85 0cbe 8aa8 543d 5722 a8bb
000000e0: 85c6 24be a11a 083e cf1a b4bd 595d 48bd
000000f0: 40b9 b7bd 7bbe 9d3d a648 d73d f730 4a3e
00000100: f8a5 61bc 6e24 acbb 89d2 39bd 2e40 9e3c
00000110: 27a1 57bc 65ae c0bb d71f bebb 7222 d6bc
00000120: 3fa9 08bd 2f7b 98ba 65f3 003c fa8d 6dbc
00000130: a86b da3a ffba 8a3d 84bf 3a3d 70c8 22bc
00000140: 48d6 a4bc b902 863c a9b3 893d b216 0fbd
00000150: 3d18 50bc 23fb 36bc 5e0a 9abc 144e 7a3d
00000160: c0e8 83bc b18f c4bc ad49 78bc 5e0c f4bc
00000170: f18c fcbc e20d f2bc 7953 8f3b 77de 33bd
00000180: ec5c c83c aae8 ef3b 10bb 0ebd a630 533d
00000190: 9205 dfbb 2789 3dbd dd10 5e3d c6b2 8cba
000001a0: 5c85 5fbd 90a6 c3b8 ca71 d0bb 82ca 70bc
000001b0: 7edf cdbc 38e8 36bd 5094 4c3d c562 33bd
000001c0: 55c2 203c 975e 18bc a821 b3bc 3bcf 3e3d
000001d0: 2b49 5dbd b696 21bd b519 083d 3dc1 d1bc
000001e0: 6cb3 64bd 4b61 363c e933 e03c ec60 c33c
000001f0: 46d6 9fbc 3e08 933c 5ef0 513c e188 133c
00000200: 81bd eebd d16a 8ebd b9b9 843d 53bf 34be
00000210: e7e8 96bc f08c f23d 7e8e b0bc c044 9c3d
00000220: f2c9 a73d d473 0bbe b5b3 33be efe8 83bd
00000230: b482 2d3e 17ac a53c ae66 ebbd 8bf5 adbd
00000240: dd03 7cbd 9513 85bd 478e 8d3d a061 31bd
00000250: 6b11 cfbd 0463 98bc 4ed0 c6bc 5190 033e
00000260: 20c6 123e 241d 9bbd 38b3 193e 97fa 35be
00000270: 593f 06bc b06d 3fbe 0cbe 0b3e 7678 9ebd
00000280: b488 05be cd68 bc3d 87ac 893d 5be4 2e3c
00000290: 8675 0bbd 7aba 73bc bda3 1c3e 539f 163e
000002a0: b92a 913c 6d7b 813d c03f 7d3c 7a20 f33c
000002b0: 803c a23b ba84 d53d 03ac 0b3c 18fc 8bbd
000002c0: b8f4 d83d 742e 033d 062b c2bd 7edf 6a3d
000002d0: 67d3 a23d 4dda 08be 1986 b73b bb3f 883c
000002e0: 715f 05be c852 233e 3626 4a3e 778a 063e
000002f0: 17d3 cdbd 905c 153e ec7d 5cbb 18bb 453d
00000300: 4bd8 98bd d835 d6bc 6721 42bd f026 d5bd
00000310: 161b c23c 65a3 e5bc 2916 cf3d 5ac4 c33c
00000320: 6fac 233d d9b5 86bd 47f2 73bc f84d 04be
00000330: cdf5 06bd c240 c23c 41b4 fabc 0087 083d
00000340: 23fb f53d 9c11 8d3d 9eef 14bd 53ca e3bd
00000350: 2272 99bd 4ff8 de3d a0d3 803c 4dd2 2e3e
00000360: d532 e93d 7015 e4bd da0c 223d 8cc9 a4bd
00000370: 61c4 40bd 41a0 66bd e7e0 5cbd 1c7f 52bd
00000380: 883a acbd 9c3b 93bb da8c 9abd 795c 3dbd
00000390: b4a8 ed3d 5cbb 7ebc 586a 813c 17e8 b239
000003a0: 1b41 c1bc 1a47 aa3d 022f 0cbd 5ca0 0d3a
000003b0: 0823 28bd c622 59bc 4d9f 073e a83f 98bc
000003c0: feb2 393e 031e 5d3d 2d7f 50bd 13dc cf3b
000003d0: 8fd3 883d 2ffc bfbd 127a 1bbd a699 a6bd
000003e0: 3956 07bd f9d0 e33d aba8 e13d d541 533c
000003f0: d119 0ebe b559 503e af4b 7abb 9e45 ee3c
