model_v3/model_v3.tflite (tflite, 225088 bytes, 10 tensors)

arith.constant f4 [64]
00000000: cbb4 ecbe 8be8 f3bf f8ce 473f 4bdd 353e
00000010: 38a2 a83e bd09 0240 67b9 01bf b259 9d3e
00000020: b6f3 b43f d681 0c3e 8084 a43e 476c 213e
00000030: e5eb 0abf dd9a 15bf 8011 28bf 3cd7 dbbe
00000040: 6692 043f dc39 753e 6745 34bd 16dc 96bf
00000050: 38c0 95be 8661 e43c b16f c73f bc30 143e
00000060: d2f6 883c 2e6a b03f 4577 af3f c59d 7abf
00000070: 867f f6bd a32d 833f a1f4 84be 2424 2fbf
00000080: a5ce 243f 58f6 933f 897a 4fbf 7ca2 d83e
00000090: b7a9 a2bf 5f3c d83e 493d 96be 5bd8 503d
000000a0: 814f 603f 72e6 5bbe be24 123e 3b19 09bf
000000b0: c37a 973f f7a1 a6be e619 9f3d 7ff3 84be
000000c0: abd7 513f d712 153f c65f 0e3f ee6f c0bf
000000d0: 8bcb d6be d1ba 773d 219f 1d3d 6032 eebf
000000e0: 6303 b7be ff87 56be d451 a23f bf22 2abf
000000f0: 1b0c 3d3f 0d0a 08bf 53e3 5b3f 7fb4 aa3e
-0.46231684 -1.9055341 0.78050184 0.17760198 0.32936263 2.0318444 -0.50673527 0.30732495
1.4136875 0.13721403 0.3213234 0.15763961 -0.54266196 -0.5843943 -0.656517 -0.42937648
0.51785886 0.23947853 -0.0440115 -1.1785915 -0.29248214 0.027878534 1.558096 0.14471716
0.016719256 1.3782403 1.3708273 -0.9789699 -0.12036042 1.0248302 -0.25967887 -0.6841452
0.64377815 1.1559553 -0.8104635 0.42311466 -1.2708043 0.4223356 -0.29343632 0.050987583
0.87621313 -0.21474627 0.14271829 -0.53554124 1.1834339 -0.32545444 0.077686116 -0.25967023
0.8196971 0.5823187 0.5561489 -1.5034158 -0.41952166 0.060480896 0.038481835 -1.8609123
-0.3574477 -0.20950316 1.2681222 -0.6645927 0.73846596 -0.53140336 0.85893744 0.33340833

arith.constant1 f4 [128]
00000000: 76a1 b4bd 1921 703f cc67 f03e ac9a 273f
00000010: 39c7 e13e 7737 003f 9645 313f 5272 543e
00000020: 6a8d 8f3f 5875 27bf 3610 99bf d15e 973d
00000030: f3e0 193f d87e f2be e766 763f 396d 023e
00000040: 8feb 003f bc0b 0cbf f57f 583f 4232 d9bd
00000050: f1ba 993e 5c9b 2c3f 9d12 32bf 992c 2abf
00000060: 8e54 5d3f 06eb 8e3f a722 1c3f 3fa5 b0be
00000070: 1b5f 113d e420 04bf 5e47 973e 9187 bfbe
00000080: 7b4b 1a3f 9a84 8bbf 920c 493f fb00 2ebe
00000090: ddd2 e8be 3fcc 473f 25f7 a03e 8615 18be
000000a0: 27f3 153f 145a 16bf e90f 19bf 0dcc 6d3f
000000b0: 1740 56bf 2b66 5e3f b3ff 713f 402d 6f3e
000000c0: 6638 543f 67b8 4a3e 4dbe a83e 9ffa 323f
000000d0: 8e1b 563f cf04 743e 3224 32bf 7e45 8e3f
000000e0: a55c 25bf a292 833f bcbb 303f 8597 ae3f
000000f0: cb67 103f 6a43 b63e 96cd 29be 30d8 e53e
00000100: f33c 833f 3542 093f fad7 723d 0894 f93e
00000110: ec53 b7b9 4602 1e3f c4d5 b53e dfea 1e3f
00000120: 9b26 b03f 64fa 4a3f d3ae d6be 9e15 733f
00000130: 7005 bcbe 3036 8fbd 0a0f d83e 3182 e53e
00000140: f651 edbe 545e 043f f479 efbe ec75 14be
00000150: 6bd3 793d 7b4c 153f 5578 a13f 4a43 45bf
00000160: dd50 103f 350d 3e3f 863f 8a3f 2477 eebe
00000170: 9de4 933f 4e64 0d3f f8a9 4b3f c1ec 103e
00000180: 8a00 f6bd 0695 08bf 1e9c 813f 6df8 0e3f
00000190: 0605 703f e1b0 993e 3d7e 993f 89b6 703f
000001a0: 7f3e 463f 0f53 113f 477d 3e3f 49e5 03bf
000001b0: 6eca 913f 11cb 003f 6c3a 313f 6002 c63e
000001c0: d850 223f 54a0 793f e618 683f 2aad 3b3f
000001d0: c7fe 353f f834 2b3f 6626 0bbf 40e3 8b3f
000001e0: 7206 743f e9a4 87bf a0ba 933f f0a3 5e3f
000001f0: 42b2 513f 2ca9 913f cb26 583f 7cdf ec3e
-0.08819859 0.93800503 0.4695419 0.65470386 0.44097307 0.5008463 0.69246805 0.20746735
1.1215031 -0.6541343 -1.1958072 0.07391132 0.6010887 -0.473624 0.96250767 0.12736978
0.50359434 -0.54705405 0.84570247 -0.10605289 0.30025437 0.6742456 -0.6955965 -0.664743
0.86457145 1.1165473 0.60990375 -0.34501073 0.03549109 -0.5161269 0.29546636 -0.37408116
0.60271424 -1.0899842 0.78534806 -0.16992562 -0.45473376 0.7804603 0.31438556 -0.1485196
0.58574146 -0.587312 -0.597899 0.9288948 -0.83691543 0.86874646 0.9453079 0.23357105
0.8289856 0.19796906 0.32957688 0.6991367 0.83635795 0.2382996 -0.6958648 1.1114957
-0.6459449 1.0279124 0.6903646 1.363999 0.56408376 0.35598308 -0.16582331 0.448915
1.0252975 0.5361665 0.059288003 0.4874575 -0.00034967007 0.6172222 0.35514653 0.62077135
1.3761781 0.79288316 -0.41930255 0.9495486 -0.36722898 -0.06992757 0.42198974 0.4482589
-0.46351594 0.51706433 -0.4677273 -0.14498109 0.06099264 0.58319825 1.2614847 -0.770558
0.5637339 0.742389 1.0800636 -0.46575272 1.1554142 0.5523118 0.79556227 0.14152814
-0.120118216 -0.5335239 1.0125768 0.5584782 0.93757665 0.3001776 1.199165 0.94028527
0.7743911 0.5676736 0.7440991 -0.51521736 1.1389902 0.50309855 0.6922977 0.38673687
0.6340461 0.97510266 0.9066299 0.733111 0.71091884 0.668777 -0.54355466 1.0928726
0.95322335 -1.0597202 1.1541328 0.869689 0.81912625 1.1379752 0.84434193 0.46264255

arith.constant2 f4 [64]
00000000: be76 913d e5fa d5bc 60b3 59bd 410b 83bc
00000010: fcd9 373d 90dc 0fbe 11ce e7bc 851b cfbd
00000020: 9e9f 4bbd a47d 0cbd b1ad e6bd d5f2 6fbc
00000030: 76b7 61bd 3b35 01be 5b87 bdbc f8ba 4f3d
00000040: ee69 edbd 8fc7 4ebd 309a bfbd a497 05bd
00000050: 7401 95bd 908d f7bd 147c 47bd 8371 14bd
00000060: d9bc a3bd b785 43bd 0062 263d bc25 123d
00000070: 2bad 52bd 8a31 3e3b 0fb6 b43c a052 78bd
00000080: 09aa b1bd a103 663c 0a48 87bc 8873 2bbd
00000090: cc9b c6bb 88db 6e3c 6af1 8dbc febd 1abd
000000a0: babd 4d3d aec6 adbc 7109 80bd 584e 41bd
000000b0: a2c2 f0bc c09c 2b3d ad14 1bbd 6d12 883c
000000c0: 758c 88bd 38eb 5dba d365 cabd a56b 20bc
000000d0: 8a9e df3d 38fe 083d 1475 fd3d f4a1 b3bd
000000e0: a0a8 243c 92f4 083d d271 223c 4001 dcbd
000000f0: 391c c8bd 6cb8 39bd 5e7a 14bc aa2e 1abe
0.071027264 -0.026120612 -0.05314958 -0.015996577 0.04488562 -0.14048982 -0.028296502 -0.10112671
-0.04971277 -0.034299508 -0.11263598 -0.014645298 -0.055106603 -0.12617962 -0.023135832 0.050715417
-0.1159247 -0.050483283 -0.09355581 -0.03261532 -0.07275668 -0.12087548 -0.048702314 -0.036241066
-0.07995004 -0.047734942 0.040620804 0.035680518 -0.051434677 0.0029021227 0.022059469 -0.060625672
-0.0867501 0.014038951 -0.016513843 -0.041858226 -0.006061053 0.0145787075 -0.01732703 -0.037778847
0.050229765 -0.021212902 -0.06251801 -0.047193855 -0.029389683 0.041897535 -0.037861515 0.016610349
-0.06667415 -0.0008465531 -0.09882703 -0.009791289 0.10918911 0.033445567 0.123758465 -0.087711245
0.010049969 0.033436365 0.009914832 -0.10742426 -0.09771008 -0.045341894 -0.009062378 -0.15056863

arith.constant3 f4 [64, 1, 3, 128]
00000000: a1cd 853b 2061 d23b f925 1a3b ffc4 3fbb
00000010: b959 203c f33c 303d 40d1 823d 1dd1 4abb
00000020: fb18 66bd edd4 a4bd 53d3 1e3b 9458 1cbd
00000030: 0b23 07bd 5ceb e8bc bf1b e03c 1354 9ebd
00000040: 21dd 01bc 0357 0b3d 6b12 2c3d 0a01 853d
00000050: b2da 8dbb b384 8fbc b948 0abd 50b4 2d3d
00000060: f8c5 c5bd 94b5 893d 727a 70bd 2fa9 5abd
00000070: 4df7 42bc 7fb7 743c ee69 c53c 75cc 453d
00000080: 4fae a4bd ce7c c7bc 25af dabc d0dd 51bd
00000090: 6332 86bc e256 73bc e7fb 5ebd 2c5a a63b
000000a0: 9a4a fdbc ba87 7c3c 901c e23c a915 bd3b
000000b0: fdde 553d 04b1 a73c 5ba7 d3bc ff27 9cbd
000000c0: 8a34 803d 6d46 34bd 3b0d 77bc 1000 543c
000000d0: 6d98 a73c c2ec 23bd 0108 77bd 3e3a d83c
000000e0: 472c 2abd 0eb3 a13d dd7c eb3c aae7 6a3d
000000f0: 0c73 353d aa9b cdbc 29cf 3e3d 3a50 89bc
00000100: dfae dbbc d83e acbc 50fc abbc 92d1 f23b
00000110: d9ca 583c da52 923d c2ac 0d3d 0370 ffbc
00000120: 5c2b 593c ed7d f0bc 06c8 54bd 2421 4c3d
00000130: 7718 c43c de53 b93c c8b4 2abc 005b 2b3d
00000140: 4eca 83bc b49e 803d b5bd 573d fe5e 24bd
00000150: 1978 0a3c a54e c8bc eb34 5c3d 498c a9bc
00000160: 4111 d939 46ee d23c 9f31 8d3d c952 dabc
00000170: 3829 433c edf3 24bd cafa 5a3d 0436 7e3d
00000180: ed0d 183d ee18 a1bb bff7 76bd 1cc9 893d
00000190: 3e23 833c 2292 0e3d 4439 23bd b476 3b3b
000001a0: 5364 a83d 5c27 a9bb 9eed 8f3d bb87 53bc
000001b0: a4a2 07bd bbff a9bc a5a6 28bd 727e bf3c
000001c0: 200c 153d d6bb 273b f07b eabc d0c6 823c
000001d0: 73e6 97bc 64df 153d 124c 17bd 9bb3 a43b
000001e0: 788c 3a3b a159 da3c bba8 883d 9425 3b3d
000001f0: 0632 71bd dd72 ffbc 40f3 75bd 0005 51bc
00000200: 23d7 dd3b 5b23 bebb f5c6 383d a6f5 32bc
00000210: defc f2bb 9b56 113d ceb9 783d 8ca5 c33c
00000220: 5443 76bd 4a51 9dbd 1c47 f43c db4e 3d3d
00000230: 5550 963c 94e8 96bd f477 61bd 6b15 d63c
00000240: 93bc 7b3d a675 9f3c 442c 083d e910 44bd
00000250: 2df0 91bb 9d24 c33c 7ee9 053d 4ebf 80bc
00000260: 03e7 25bd 33f5 0e3d fb99 78bd 43b1 9bbd
00000270: 7e6c fb3c 015a eabc b27b 773c 96d7 c03c
00000280: 46d6 d7bc 93f1 1c3d 5744 8c3c e039 8a3d
00000290: 5a66 8dbd 63e9 523d c018 033c a206 933c
000002a0: deeb 79bd 4bd1 fe3c 44d5 27bd a65a 81bc
000002b0: 61d4 853d ec49 19bd 4a06 b4bc e10d f7bb
000002c0: 0fa9 e83c aeec 243d 032d 973c 19cc 58bc
000002d0: 4803 5a3c e932 6b3d 0e3c 6a3c d942 973d
000002e0: 219c f0bc b341 693c 81bf 2abd 74e5 373d
000002f0: 3648 033d 97a2 5d3d 1e75 753b b5e6 743d
00000300: 60fd 443d 4f1d 39bd 2954 1ebd d328 5a3d
00000310: fb8a 6e3c 6361 4d3c af12 243d d2b7 c3bc
00000320: a1cf 5b3c dc70 95bc 5e0c 5bbd c8e6 5bbd
00000330: df36 a43c a515 08bd 096f 3c3d 062a 023d
00000340: 80c5 9fbc 7348 fa3a bee0 1a3d b410 2bbd
00000350: 63c1 3d3d 4c50 48bd d098 69bc e593 30bd
00000360: 0bdf 21bc 7024 3dbd 5c6c cd3b e3b1 613d
00000370: 53ae e7bb f1a9 523d 49e0 093d 0496 473d
00000380: b438 4fbd 8dc0 58bd 0aa0 27bc 51b8 73bc
00000390: 6c0b 1bbc db16 7abd ab3f b63c a968 babc
000003a0: c6a1 943d 1fff 703d f6e5 583d 9102 5dbd
000003b0: c1d6 893d d7ec 4abd 099a c83c 33ab 5cbc
000003c0: fdb3 9e3d 617c 9fbc 9511 85bc f378 8e3d
000003d0: e2ef 61bd 96b6 35bd 4121 63bd c056 d13c
000003e0: 6cf1 4f3c 845c 1abd f6d2 043d 0f71 7dbd
000003f0: 5994 9abb f693 44bd bb36 703c 9bb7 c7bc
0.0040833508 0.0064202696 0.0023521169 -0.0029261706 0.009787017 0.043026876 0.063875675 -0.0030947395
-0.056176167 -0.08048425 0.0024234846 -0.038170412 -0.032992404 -0.02843254 0.02735698 -0.0773088
-0.007926256 0.034018528 0.042009752 0.06494339 -0.004329049 -0.01751933 -0.03376076 0.042408288
-0.096569 0.067240864 -0.058710523 -0.053384002 -0.011899781 0.014936327 0.024098363 0.04829069
-0.08041059 -0.024351504 -0.026694844 -0.051236928 -0.016381448 -0.014852257 -0.05443945 0.0050766673
-0.030919362 0.015413219 0.02760151 0.0057704044 0.05221461 0.02047015 -0.025836637 -0.07624816
0.06260021 -0.044012476 -0.015078838 0.012939468 0.020458424 -0.04002071 -0.060310367 0.02639496
-0.041546132 0.0789548 0.028746063 0.05734984 0.04429917 -0.02509864 0.046584282 -0.016761888
-0.026816783 -0.02102606 -0.020994335 0.0074102366 0.013231956 0.07144709 0.034588583 -0.031181341
0.013254967 -0.029356921 -0.05194857 0.049836293 0.023937447 0.022622999 -0.010419078 0.04183483
-0.016087677 0.0628027 0.052671153 -0.040129654 0.008451485 -0.024451563 0.053761404 -0.020696776
0.0004140232 0.025748383 0.0689423 -0.026650803 0.011911683 -0.04027169 0.053461827 0.062063232
0.037122656 -0.004916302 -0.060294863 0.06727812 0.016008016 0.03480733 -0.039849535 0.0028604688
0.0822226 -0.0051621627 0.07027744 -0.012910779 -0.03311409 -0.020751825 -0.04117455 0.023375724
0.036388516 0.0025594137 -0.028623551 0.015963942 -0.018542504 0.036589995 -0.03693778 0.0050262935
0.0028465074 0.026654067 0.06672808 0.045690134 -0.058885597 -0.0311827 -0.060046434 -0.01275754
0.006770031 -0.0058025545 0.045111615 -0.010922825 -0.007415398 0.035482984 0.060724072 0.02388265
-0.060122803 -0.0768152 0.029819064 0.04621778 0.018348852 -0.073685795 -0.055046037 0.02613326
0.061459135 0.019465279 0.03324534 -0.04786769 -0.00445368 0.02382117 0.03269338 -0.015716221
-0.040503513 0.03490181 -0.060693722 -0.07602169 0.030691382 -0.02860737 0.015105175 0.0235403
-0.02634729 0.03831632 0.01712243 0.0674932 -0.06904288 0.051492106 0.008001506 0.017947499
-0.061015956 0.031105658 -0.04097487 -0.015790295 0.06534649 -0.037424013 -0.021975655 -0.0075394963
0.028400926 0.040264778 0.01845408 -0.013232254 0.013306446 0.0574216 0.014296545 0.07385797
-0.029371323 0.014236855 -0.04168654 0.044896558 0.032051288 0.054110136 0.003745384 0.059790332
0.0480932 -0.045193966 -0.03865448 0.05326159 0.014559503 0.012535426 0.04005688 -0.023891363
0.013416202 -0.018242292 -0.05347859 -0.053686887 0.020045696 -0.033223767 0.04600433 0.031778358
-0.019503355 0.0019095078 0.037811987 -0.041763976 0.046327006 -0.048904702 -0.014257625 -0.043109793
-0.009879838 -0.046177328 0.006269021 0.055101287 -0.0070703416 0.0514316 0.03366116 0.04872705
-0.050591186 -0.052918006 -0.010231027 -0.014875487 -0.009463172 -0.061056953 0.022247156 -0.022754984
0.07257418 0.058837052 0.052953683 -0.053957526 0.06730414 -0.049542274 0.024487512 -0.013468551
0.07749174 -0.019468488 -0.016243735 0.06956663 -0.05516041 -0.04436358 -0.055451635 0.025554061
0.012691837 -0.037685886 0.03242775 -0.0618754 -0.0047173914 -0.04799267 0.014661486 -0.024379542

arith.constant4 f4 [128, 1, 3, 64]
00000000: 3ac7 ad3c cd8d ebbc 1e1f 833d f0bd 623d
00000010: 12b5 eb3b 3bc4 7e3d b219 023d dc83 c53c
00000020: 293d fb3c 4c0c 9abd e264 39bc 2cc8 0fbd
00000030: 04f8 52bd 0933 20bd 3082 b3bd aa5f 823c
00000040: 7912 28bd 28bb 163d 8cfd c13c e420 efbd
00000050: 19fc 223d e30d 1f3c 3098 e8bc ad25 83bd
00000060: d485 a73c feb8 d7bc c0e2 4f3d ad81 733d
00000070: 1da8 c93d faa9 7fbd a2ae dfbd a8cd a8bd
00000080: 0a63 9c3d 20de ef3c 582f 243c cfc0 833d
00000090: 94e7 babd 2c40 f1bd 4f72 e23c 45d1 3abd
000000a0: 1f39 88bd e2d0 593c 606e 2d3d a022 893c
000000b0: f5bb a33d 0309 cdbd 4cdb eb3d de71 cebc
000000c0: 39cb 3dbd a086 3e3c e3a5 ce3d 32b2 bfbc
000000d0: c03d a7bc 9fa9 bebc 9d7a 363d 7c3c eebc
000000e0: b054 20bd 10fe e43c ae70 ecbc 2b6e b23d
000000f0: b8b7 f73b 5c84 b6bc f1c1 11bb a232 d2bd
00000100: 17f5 ebbb f0aa d9bb 813d 613b 5979 c63d
00000110: 0252 c3bd f960 483d 4edf c7bc c3f6 aa3b
00000120: 35bd 913c 4419 133d 009b a83d 8c0d 48bc
00000130: 1805 4c3d 8629 1e3c 5079 96bd d699 8f3d
00000140: a1de febd e2bd fcbc 79a9 f73c 9f72 903c
00000150: 03ce d23d d015 1bbd 1311 513a ed9b 813d
00000160: baf9 573d 27b5 ae3c b89f 783c 9e64 7f3d
00000170: e25e 823d e0d1 3a3d 10e4 78bd 7375 e1bc
00000180: 1314 053d f573 0d3d e004 23bd 9180 203d
00000190: 2536 353d 43cb 173d 3f68 c03d 8b1e a3bd
000001a0: 8e9b 3dbd d38a 53bd 2d48 bd3b feac 4c3d
000001b0: 14f4 24bd fd8a 73bb 69bb d13d f2f7 143d
000001c0: 956b 2d3c 2cc6 a5bd 5e48 a6bc 35d9 2a3d
000001d0: 366b dbbc 7804 063c 6aeb e03c ca0c bebd
000001e0: 7aa3 433d 499f 17bd 3ab8 8bbc 5b93 3fbd
000001f0: 934d 4e3d 8a58 3abd f8e0 c03c 0e11 6cbd
00000200: 3b26 37bc a381 a5bc 5c48 fa3c 9afc 3a3d
00000210: 2b7d 2fbc 6061 dcbc 7904 7cbd c599 833b
00000220: b6ff 0dbd bbff 383c 4355 a7bb 5754 bb3d
00000230: f012 5f3d dc8d 85bc f3fc 4ebd 792d d13c
00000240: 2ca6 b6bc b689 aa3d 4ea2 d83c 5cb0 433d
00000250: 3537 043d 873d 9b3d 5e6f 593c 0ad3 be3d
00000260: ac9a 61bc c704 de3b 76ad cbbc d88c 52bd
00000270: cce3 1e3d 7643 a1bc dedb 78bd 6c99 943d
00000280: e87b c4bd 8d91 59bd c836 6c3c 0a05 fc3c
00000290: 0937 f2bc 7165 b43d 57d2 a63d a12c 9fbd
000002a0: 6230 ebbd 3c7d c0bd 930e ddbd 9164 0cbc
000002b0: e62e 383d 892e be3d 1e47 1cbd 7c8c 923d
000002c0: cd94 58bd c592 5ebd 7a48 2f3d 4786 fabc
000002d0: bc8a 52b9 4f2f a03a 119f d03d a556 b5bd
000002e0: cff1 ddbc e9d7 dbbc 9980 65bd 8db2 92bd
000002f0: e48b 433d 792e c43c 1993 193c c2f6 5a3c
00000300: 604f cabd 9c8a 1a3d e4da 3cbc 09b9 8dbd
00000310: 96d5 8bbd ee92 a13c c127 8fbd 465a 07bb
00000320: 7e60 86bd da57 313d 6daa 02bd f894 e8bc
00000330: 6391 c0bb a9df 21bd c19e 86b9 31ff 7bbc
00000340: 5021 08bd 4975 e5bc 0f60 c9bb 6644 9a3c
00000350: bc56 c43c 212b eb3c fe0d 0cbc 7e32 71b9
00000360: f0c3 153c c564 8abd 3ae3 7e3d 3ebb 97bd
00000370: bc50 dabc 955a 0cbd d896 a6bd 96b9 753d
00000380: 8b97 12bc 14e6 fabc 55f5 82bd 2aa4 15bc
00000390: 60cb cabc 0e65 aa3c 0d92 d7ba 0cd7 643d
000003a0: 6a25 3dbd 4be5 82bd 2f75 36bd 3966 933d
000003b0: 9cb5 52bd 799a d73b d36e 8abd ee09 933d
000003c0: 8f13 7c3c 9afd 58bc 5ee9 203d 10d9 1fbc
000003d0: 0c3d 43bc 89fd bebd 0564 48bd 574d 16bc
000003e0: 7bd4 d23c 6560 983b c529 033d af25 a93c
000003f0: 26ee e6bc 7e8e c63c 70fd 113d a5fe 0b3d
0.021213163 -0.02875414 0.064024195 0.05535692 0.007193216 0.06219886 0.031762786 0.024110727
0.030668812 -0.07521877 -0.011315556 -0.03510301 -0.051506057 -0.03911117 -0.08765066 0.015914757
-0.041033242 0.03679958 0.02368047 -0.11676195 0.0397912 0.009707901 -0.028392881 -0.064036705
0.020449556 -0.026333328 0.050753355 0.05944984 0.09846518 -0.06241796 -0.109219804 -0.08242351
0.07636078 0.029280722 0.010021053 0.0643326 -0.09126201 -0.11779818 0.027642397 -0.04560973
-0.0665152 0.01329443 0.04234159 0.016740143 0.07994834 -0.100114845 0.11516437 -0.02520078
-0.046336386 0.011628777 0.10090234 -0.0234004 -0.020415187 -0.023274241 0.044550527 -0.029081576
-0.039143264 0.027953178 -0.028862324 0.08712419 0.007559743 -0.02227991 -0.0022240842 -0.10263564
-0.007200848 -0.006642692 0.0034368935 0.09691114 -0.09537126 0.048920605 -0.024398472 0.0052174046
0.017790416 0.035912767 0.08232689 -0.012210261 0.049809545 0.009653455 -0.07347357 0.07011764
-0.12444807 -0.030852262 0.030232178 0.01763278 0.102932 -0.0378626 0.00079752615 0.063285686
0.052728392 0.021326615 0.015174799 0.062351815 0.06365754 0.04561031 -0.060764372 -0.027521824
0.032489847 0.034534413 -0.03979957 0.03918511 0.04424109 0.03705908 0.09394883 -0.0796481
-0.046290927 -0.051646065 0.0057764263 0.049969666 -0.040271834 -0.00371617 0.10240824 0.03636927
0.010584732 -0.08094439 -0.02029818 0.04171105 -0.02678452 0.008179776 0.027456004 -0.09279783
0.047763325 -0.03701714 -0.01705562 -0.04677139 0.05036695 -0.045494594 0.023544773 -0.057633452
-0.011178548 -0.020203417 0.030552082 0.045651056 -0.010710995 -0.0269019 -0.061527703 0.0040161335
-0.034667693 0.01129144 -0.0051065995 0.09146946 0.05446142 -0.016302995 -0.0505342 0.025534378
-0.022296034 0.083270475 0.02644458 0.04777561 0.032279212 0.07580095 0.013271181 0.09317596
-0.013769787 0.006775472 -0.024862986 -0.05140385 0.038791463 -0.019685488 -0.060756557 0.072558254
-0.09593946 -0.053117324 0.014417358 0.030764122 -0.029567258 0.08808411 0.08145588 -0.07772184
-0.11483838 -0.093988866 -0.107937954 -0.008568899 0.0449666 0.092862196 -0.03815376 0.071557015
-0.052876282 -0.05433919 0.04279373 -0.030581607 -0.00020078843 0.001222113 0.101865895 -0.08854417
-0.027092842 -0.026836352 -0.056030843 -0.07162962 0.047740832 0.023947941 0.00937345 0.013364496
-0.09878421 0.037729844 -0.011526797 -0.06920058 -0.06827848 0.019723382 -0.06990004 -0.0020653172
-0.06561373 0.043296672 -0.031900812 -0.028391346 -0.0058767064 -0.03951994 -0.00025676753 -0.015380667
-0.033234894 -0.028010027 -0.0061454843 0.018831443 0.02396714 0.028707089 -0.008548258 -0.00023002361
0.009140953 -0.067575015 0.06222842 -0.074087605 -0.026649825 -0.034266073 -0.0813424 0.05999144
-0.0089472635 -0.030627288 -0.063944496 -0.009133378 -0.02475518 0.02080014 -0.0016446725 0.055869147
-0.04617826 -0.063913904 -0.04454535 0.07197232 -0.051442727 0.006579694 -0.06759419 0.07179628
0.0153855225 -0.013244057 0.039285056 -0.009756342 -0.01191641 -0.09325702 -0.04892351 -0.009173713
0.025736084 0.004650163 0.032022256 0.020647852 -0.02818973 0.024237867 0.035642087 0.034178395

arith.constant5 f4 [64, 1, 3, 4]
00000000: 3063 833d e15a d6bd 04d9 0b3e f2d6 55be
00000010: d69b 07be 3a7d 24be 96a7 a3bd 8e5d d0be
00000020: 3c94 34be 87eb 3a3c a3f2 cdbd bfe8 8abe
00000030: a980 a13e bf02 213e d8dc fc3d 042d 213e
00000040: cbda f2be 33b4 31bf c40d e0bb 6b8a 52be
00000050: 9521 603e 98bf e4be da33 58be f233 1fbd
00000060: 24c2 2c3e e368 323f a1dc f5be 07b6 f2be
00000070: 9cf4 023e 70d6 d03d eef8 1b3f 73dc 1e3f
00000080: 421c 45bf 2bcb aabe a3da a33e d899 71bf
00000090: 2b83 91be 37f1 973e 8f72 773e 7ac6 d3be
000000a0: d7ed 3fbe f5b4 263e 3da4 9abd 4b69 c4be
000000b0: c606 0abe eb98 42be 74dc fc3d 3b5d 1ebd
000000c0: cedf 2a3f 26a0 c5bf 693e 1b3e 4f43 413f
000000d0: 853f f6bd 61d8 bc3d c5f6 93bf e40f 96bf
000000e0: ea96 08bf 0f14 8f3f e8f8 813e 6c49 913f
000000f0: 364e aebb b32a 8abc caa5 43be 44d8 9cbd
00000100: 6a43 2abe f0fb da3d 9af2 0bbe cf81 27be
00000110: 5d7c 1a3e 8be8 e13d 469c 12be f4e4 98be
00000120: f186 adbf 0035 abbf f66b 043f ae92 17be
00000130: 3da1 383e ce1c 7c3f 7ff8 f6bd 8911 96be
00000140: 038c 693f 8c1c b43e 8031 89bf fca5 6e3f
00000150: 3935 cc3d 3737 823e d806 9dbd ea17 16be
00000160: 11a6 20bd bf03 543e e3e1 5b3d 9fc3 33be
00000170: a0cc 24be b3a9 943e 4e99 253d 675a bfbe
00000180: 5a5c c23e 6dce 93bd e769 4abd 49d5 93be
00000190: 42f4 79be 9f3f 973e 2246 98be 6173 a8be
000001a0: e4b6 663e 766d 17be eee7 743e 8228 82be
000001b0: de01 1cbe 8a32 96bd b14d ec3c 45e2 1a3d
000001c0: bfa9 9c3d c8fd 4f3e f792 673e 4c8a c93e
000001d0: 341a d53d e0e2 c93c b593 b93e ee55 5a3d
000001e0: 0247 8d3e c5b9 e4be 6b30 a9be ae13 76bc
000001f0: dd74 2cbe 40ad 563e afb1 98be b530 5d3d
00000200: 947f cbbe c04a 833e e8ea 8dbe f748 bfbd
00000210: 9dc9 b1be 92f4 003e a737 cebe 932b 493e
00000220: ad79 73be e9b9 9fbe 5e8f 8dbe 6f6e d0be
00000230: 8d7a 50be 6309 3dbe 368b 303d f5c9 893e
00000240: 0b70 ee3e 101e 8dbf 481f efbe 66c6 c3be
00000250: f127 183f be87 4abf 36ac 1f3f b8e7 50bf
00000260: b28c 8cbf 1a2d d63f 06a8 443f 0389 b33e
00000270: 8e61 1abe 892d 0abe 22c0 08be ae88 95be
00000280: c827 903d 2ed9 ebbc 6970 ad3e 5c64 f8be
00000290: 03e4 e0be e061 eb3e b696 f7be 7b27 893e
000002a0: e440 a83e 84cd 733e 2a8e 0f3e 594a 3a3f
000002b0: bc4b fabe 2a78 60be f911 973e 7e73 6bbd
000002c0: d25f 3f3e c1f1 c4be 93cc 39bf e79a 30bf
000002d0: f173 9a3e d1bd ecbe a07a ccbe b4ae 11bf
000002e0: 23c0 bbbe b191 033f 5133 363e c182 18bf
000002f0: beb7 c0be 52f9 babe d6cf 3b3f c39a bc3e
00000300: 2720 f1be 98a0 cabf a12a 573f 86a9 4bbf
00000310: 0228 123d e159 c13d 7f9b c5bf c8e5 0a3f
00000320: 5e7c 603e 3f1c 923f d90d e93e f6ae 5f3f
00000330: 4577 4dbe db75 a13e 4313 283d 7ee1 a73d
00000340: e30f a6be bd3e 3cbe ae25 823e 6169 87be
00000350: 39c5 a2be 954c 39bd 42ec 06be 2266 49be
00000360: a56e 333e bfd3 96bf 5232 da3f 16e2 f3bf
00000370: 1713 5b3f 0950 f0be 0bea dabf 95b0 be3e
00000380: 6eb7 6fbf f0c5 b53f abbc bf3d 4412 923f
00000390: 00b3 e43e 79a3 f73e b172 9e3e f212 adbd
000003a0: 0b00 03be 6ea0 84bd 5b58 123e c061 be3e
000003b0: e7f6 8abe 8d15 7ebe df91 98bd b979 9b3e
000003c0: ceee c1be a49d 0f3d 39d5 c13e 1774 20bf
000003d0: 1d51 253f cd5b 513f c605 053e a43c f4be
000003e0: 4a54 c93e 46a3 14bf be5d edbd f8d3 843d
000003f0: 32ff 153e cbf5 a73e 3361 193f c4f4 6abe
0.06415403 -0.104665525 0.13657004 -0.20882776 -0.1324304 -0.16063395 -0.07990949 -0.40696377
-0.17634672 0.011408693 -0.10056045 -0.27130696 0.31543472 0.15723704 0.1234681 0.15739828
-0.4743255 -0.6941559 -0.0068375785 -0.20560615 0.2188781 -0.44677424 -0.2111353 -0.0388679
0.16870934 0.69691294 -0.4801989 -0.474045 0.12788624 0.10197151 0.6092671 0.6205513
-0.76996243 -0.3335813 0.32002744 -0.9437537 -0.28420386 0.2967622 0.24164794 -0.41362363
-0.18743072 0.16279967 -0.07550857 -0.38361582 -0.13479146 -0.19003646 0.123467356 -0.03866313
0.6674775 -1.5439498 0.15160526 0.7549333 -0.12023834 0.092209585 -1.1559683 -1.17236
-0.53355277 1.1177996 0.25385213 1.1350532 -0.005319382 -0.016866064 -0.19106212 -0.07658437
-0.16627279 0.106925845 -0.13666764 -0.16358112 0.15086503 0.11030682 -0.14317426 -0.29862177
-1.3556806 -1.3375549 0.51727235 -0.14802048 0.18030258 0.9848145 -0.120591156 -0.29310253
0.91229266 0.3517803 -1.0718231 0.9322202 0.09971089 0.2543275 -0.07667321 -0.1465756
-0.039220873 0.20704554 0.05368222 -0.17555092 -0.16093683 0.2903572 0.040429406 -0.3737366
0.37961084 -0.07217107 -0.049417403 -0.2887366 -0.24409583 0.29540727 -0.29741007 -0.32900527
0.22530705 -0.1478785 0.23916599 -0.2542153 -0.15235087 -0.07333858 0.02884564 0.037813444
0.07649564 0.20311654 0.22614656 0.39363325 0.104053885 0.024644315 0.36245504 0.053304605
0.27593237 -0.4467298 -0.33044752 -0.01501934 -0.16841455 0.20964527 -0.29823062 0.05400153
-0.39745772 0.25642967 -0.27718282 -0.09340089 -0.3472413 0.12593296 -0.40276834 0.19645528
-0.23776884 -0.31196526 -0.27648443 -0.40709254 -0.2035925 -0.18460612 0.043101512 0.26911893
0.46569857 -1.1024799 -0.46703553 -0.38237303 0.59435946 -0.79113376 0.6237215 -0.81603575
-1.0980437 1.6732514 0.76818883 0.3506547 -0.15076277 -0.13493933 -0.13354543 -0.2920584
0.07038838 -0.028790083 0.33874825 -0.48514068 -0.4392396 0.4597311 -0.4835717 0.26787934
0.32862008 0.23808867 0.14019075 0.72769696 -0.48885906 -0.21920839 0.295059 -0.05748319
0.18688896 -0.38465694 -0.7257778 -0.6898636 0.3016658 -0.46238568 -0.39937305 -0.569072
-0.36670026 0.5139418 0.17793013 -0.59574515 -0.37640184 -0.3651834 0.7336401 0.36836824
-0.47094843 -1.5830259 0.8404942 -0.7955555 0.035682686 0.09440971 -1.5438079 0.5425687
0.21922442 1.141487 0.45518377 0.87376344 -0.20065029 0.3153523 0.041033994 0.08197306
-0.32433996 -0.18383308 0.25419372 -0.26447585 -0.31791094 -0.04523905 -0.13176063 -0.19667867
0.17522676 -1.178337 1.7046607 -1.9053371 0.85576004 -0.46936062 -1.7102674 0.37244096
-0.93639266 1.4201031 0.093621574 1.1411824 0.44667816 0.48366907 0.30946878 -0.08450879
-0.12792985 -0.06475912 0.14291517 0.37183952 -0.27141497 -0.24812908 -0.07449698 0.30366305
-0.37877506 0.035062447 0.37857988 -0.6267714 0.64576894 0.817807 0.12990484 -0.47702515
0.3932212 -0.58061635 -0.115901455 0.06485742 0.1464813 0.32804713 0.5991394 -0.22944933

arith.constant6 f4 [64]
00000000: c530 acbc 1747 96bb 8c94 0bbc ae3a 6639
00000010: 80a0 283d 0000 0000 348f 133c acdb f2bc
00000020: a827 4a3c 46a3 2b3c 62f1 2b3c cd41 1dbc
00000030: 8fba 0b3c 3fe3 5cbc c7d9 713c 7582 d03c
00000040: a9cd 903c caca 9ebc 889e dd3c 4988 2f3d
00000050: 8b64 963b bf19 163d 99dd e939 efc5 87bb
00000060: bf01 d9bc e3f3 82bb 19c6 25bd 3e4c 293c
00000070: 3d6f 82bc 1672 be3c ebfb 5a3a 9436 d03c
00000080: 5b52 2dbc 1d18 23bc 9204 b03c 2166 5a3c
00000090: 233d d33c 70eb dcbc 46d9 49bc 0acb 1fbd
000000a0: 594a bfbb f81b 5e3c 80e7 d7bc bb5f 83bc
000000b0: 70b3 6f3c 15a0 b13b f628 7a3b b83d f03c
000000c0: 61af 18bc cecd 213c 9b46 053d 4000 2ebc
000000d0: 9fa2 66bc cf3c 5d3a ef14 173c d2c1 c1bc
000000e0: 928f 4d3d 68b8 bbbc c411 733b 9076 4ebb
000000f0: fbc7 f3b9 89f8 90bc 5fb5 88bc dc1f a9ba
-0.021019349 -0.0045861113 -0.008519303 0.00021956369 0.04116869 0.0 0.00900631 -0.029645763
0.012338556 0.010475939 0.010494562 -0.009598208 0.008528366 -0.013481914 0.014761395 0.025452832
0.017676191 -0.019383807 0.027053133 0.04285458 0.0045896224 0.036645647 0.00044606326 -0.0041434686
-0.02649009 -0.0039963587 -0.040472124 0.010333119 -0.015922183 0.02324776 0.0008353579 0.02541665
-0.010578717 -0.0099544795 0.021486554 0.0133300135 0.025785988 -0.026967734 -0.012319868 -0.039011993
-0.0058377204 0.013556473 -0.026355505 -0.016036859 0.014630184 0.0054206946 0.0038171387 0.029326305
-0.009319157 0.009875728 0.032538038 -0.010620177 -0.014076858 0.0008439542 0.0092213 -0.023651991
0.050185747 -0.02291508 0.0037089447 -0.0031503774 -0.0004649757 -0.017696636 -0.016688047 -0.0012903172

arith.constant7 f4 [3]
00000000: 30a5 b63b 076e 03bd 78dc e63c
0.005573891 -0.032087352 0.0281813

arith.constant13 f4 [3, 64]
00000000: 75cd bcbd a8b7 4e3d 9ea1 91be b033 54be
00000010: 95e1 6f3d a8bc 2cbd 6637 9a3e 94ed 80be
00000020: fe10 e73d bda6 09bd 9e32 843e f1f0 f3bc
00000030: b624 383e c200 44be 2246 93be 507a 8e3d
00000040: 73cf ae3d 4be0 03be 6c41 833e be86 6abe
00000050: f4dc a0be e150 b13e a511 d93c 50b0 4b3e
00000060: c9a1 37bd 90ed 35be 5f19 01be c499 9c3e
00000070: 5e16 0c3e 6b63 983d 9907 72be 86a5 b83d
00000080: 55c4 b33d f46d a0bd 88d8 15be 184d 74be
00000090: 3d5c 9e3d ff44 a3bd f542 613e 2deb 993a
000000a0: 1573 653d 9dc1 afbe 32bc 643e faad 8dbd
000000b0: 5214 6c3e bf4d 843d c276 e03d be2e 0c3e
000000c0: c9bb 7f3e 0ed7 64bd 50b7 e3bd 6aaf 3ebe
000000d0: d13c cdbd 40a9 923d 0a5e a6be 5050 08be
000000e0: 35a9 593e 0d4c 243e 40e6 5e3e b544 123e
000000f0: e291 3f3e cab2 a2be a2c3 823e 818a 20be
00000100: 2b01 de3d fcd0 393e 4d8b 333e ede2 953e
00000110: 1a97 8d3d 37c2 4bbe 36d8 743e 8c9d 363e
00000120: 319f 843e 45d6 51bd 992f 5d3e e7a2 9fbe
00000130: 2b40 b2be 548f d43d ffa6 25be d3d5 60be
00000140: 41f8 a5be 7e9c a73d 39a7 b8bc 9bc9 a1be
00000150: a812 57bd 1ff4 333e 1995 253e d1d4 c2bd
00000160: 4a5d 7f3d f52a 4b3e f49b 8d3b 71d4 823d
00000170: 61e1 533e 9462 d7bc 3aa1 f8bd 9b1d 393d
00000180: 876f 8e3e 9830 6fbe 2433 a1be 2baa cb3d
00000190: f5e4 9dbe a93f 953e eb39 70be 1294 443e
000001a0: 29c1 943e c96e 3ebe b622 333e ac28 00bd
000001b0: 43c0 a43e 5b0f edbc a8ce 70be d1c9 cbbb
000001c0: 1dc5 623e 56d2 863e 85e1 263e ebdf 3e3e
000001d0: 8a51 96bd f236 3abe ebac 7cbd 071d 013e
000001e0: 837d 95be d3f0 32be 5257 0dbe b619 9c3d
000001f0: 23d4 37be be25 54be 9a74 96bd 5626 773e
00000200: c73c 563d b64a 6b3e ebed 18be 620e c3be
00000210: 6674 cfbe 7cb0 a3bd f58d 39be 9862 5e3e
00000220: 9eb9 a3be 30a3 98be 12d1 0abe aa05 663e
00000230: a4f0 febd 47e6 a7bd b80f 773e acde 713e
00000240: 64a8 593e 46df 513e 49d9 5f3e 5e23 c5bb
00000250: d231 c63d 2ba5 773c 41d7 8b3d f238 bcbd
00000260: a18e ea3d 9257 313d 4105 bbbb a357 e53d
00000270: b34b e63d 58b1 acbe 5bc9 07bc 148e 76be
00000280: 0695 1a3e 715d 00be 33c5 25be 083e 4b3e
00000290: 2a8f 47be b293 03be 9e0a 02be 0903 fb3b
000002a0: 7cc1 68be 24bc 883e 1270 383d 25d3 acbe
000002b0: 5c50 84be 0588 babe 3f47 433e 0c6e 6ebe
000002c0: c13a 453e caa0 863e e880 623e dadc 5d3e
000002d0: 86fd 6dbe 9226 8d3e 1038 d23c 394a 733e
000002e0: 4701 d3be a7b7 82be 5e06 1bbe e896 edbd
000002f0: f1a5 65bc 55a8 9fbc 16ac e8bd 1d24 803e
-0.09218875 0.050468117 -0.28443617 -0.20722842 0.05856474 -0.042172104 0.3012039 -0.25181258
0.11282538 -0.03360628 0.25819868 -0.029777976 0.17982754 -0.19140914 -0.28764445 0.06956923
0.085356615 -0.1287853 0.2563585 -0.22902963 -0.31418574 0.34632018 0.026497671 0.19891477
-0.044832025 -0.17766404 -0.12607335 0.30586064 0.13680407 0.074408375 -0.23635711 0.09015946
0.08777682 -0.07833472 -0.14633381 -0.23857534 0.07732437 -0.07972144 0.21998198 0.0011743061
0.056017954 -0.34327403 0.22337416 -0.06917949 0.23054627 0.064601414 0.10960151 0.13689706
0.24973978 -0.055869155 -0.111189485 -0.18621603 -0.100213654 0.07161188 -0.3249362 -0.13311887
0.21255954 0.16044636 0.21767521 0.14284022 0.18707994 -0.3177703 0.2553988 -0.15677835
0.108400665 0.18146127 0.17533608 0.29274693 0.06913586 -0.19898306 0.23910603 0.17833537
0.25902703 -0.051229734 0.21600188 -0.31178972 -0.3481458 0.103789 -0.16176985 -0.21956567
-0.32415965 0.081841454 -0.022540675 -0.31599125 -0.052508026 0.17573594 0.16170157 -0.09513248
0.062344827 0.19840606 0.0043215696 0.06388176 0.20691444 -0.026292123 -0.121401265 0.04519425
0.27819464 -0.23358381 -0.3148433 0.09944566 -0.30838743 0.2915013 -0.23459594 0.1919711
0.2905362 -0.18596949 0.1749371 -0.031288788 0.32177934 -0.028937986 -0.23516333 -0.0062191267
0.22145505 0.2633235 0.16296966 0.18640105 -0.07339771 -0.18185022 -0.061688345 0.1260873
-0.2919732 -0.1747468 -0.13802841 0.076220915 -0.17952017 -0.20717523 -0.07346459 0.24135718
0.052304056 0.22977719 -0.14934509 -0.3809691 -0.40518492 -0.07992646 -0.18120559 0.21717298
-0.31977552 -0.29812002 -0.13556316 0.22463098 -0.12448242 -0.08198219 0.2412709 0.23620099
0.21255642 0.20495328 0.21860231 -0.006016179 0.09677471 0.015115063 0.06828166 -0.09190549
0.114529856 0.043296404 -0.0057074134 0.11198356 0.11244907 -0.33729053 -0.008287753 -0.24077636
0.1509591 -0.12535645 -0.16188507 0.19847882 -0.19488207 -0.1284931 -0.12699363 0.007660274
-0.22730058 0.2670604 0.045028754 -0.3375484 -0.2584256 -0.364319 0.19070147 -0.23284167
0.19260694 0.26294547 0.22119486 0.2166628 -0.23241243 0.2756849 0.025661498 0.23758782
-0.41211912 -0.2553074 -0.15139148 -0.11601049 -0.014016614 -0.019489447 -0.11360948 0.25027552

arith.constant14 f4 [64, 64]
00000000: 859e a73d fbe8 66be 0ddc abbd 593f 7e3d
00000010: 784e d8bd a4f9 4ebe fce2 29be 7854 f83d
00000020: 624e ab3d f2ae 07be 671e 08be aa24 61be
00000030: f8d3 583d 1ce2 3b3d 0ace 0dbd a37c 60be
00000040: a80d 3e3d 935c 31be c673 5bbd 648d fd3d
00000050: 57b1 c3bd d8c1 30bd 0992 113e 21ef 3cbd
00000060: 6699 37be f834 cd3c a3f7 b9bd cdb7 533c
00000070: 8c9a 06be f993 2a3d 3f8b ebbd 7273 083e
00000080: 4a29 513e 03b7 66be 906e 043d ec99 f43c
00000090: 59f9 dc3c 7aa9 e83d 8020 32bd 0f00 313e
000000a0: 68f9 5b3d 0cb0 0ebe 5dc3 ce3c 6185 1abe
000000b0: 5e6e 68bd 4063 e7bd 8fb8 bb3d c19c c0bd
000000c0: e774 1a3e c33d 283e d070 00be 2097 1b3e
000000d0: 7b37 57bd ad9a 05bd 808c 0dbd 15ed 873d
000000e0: 5dcd 94bd 91e7 59be 7bf7 02be 5742 09be
000000f0: 3e78 e4bd 2916 c53d d36b 983d 5a9a 7cbd
00000100: a764 31be 3a43 f63d 8e73 043d 760c 59bd
00000110: 221b c2bd 27da 103e 984e 713e dc97 833e
00000120: ed7a 563d 2216 2bbe 4ee1 5a3e 619d a4bd
00000130: eb79 97bc bbb7 333e a468 353e fc4b bd3d
00000140: a43f 173e 198a 8a3e e170 8b3e 7ecf 77bc
00000150: 872c 9bbd 68c7 433e 1303 5b3d 26a7 9fbd
00000160: b278 c83d 0c98 19bc c3a2 1f3e 14e3 4ebd
00000170: ccbb 2f3b fd17 27be 6a31 e33d a3ca 913d
00000180: ed0c a4bd 3d21 733d 952a bdbd 053b babd
00000190: 1885 e3bd e58c 893d 57d4 5abd 85c7 7fbd
000001a0: 29d9 9d3d b1ab d53d 56d4 22bd 7173 993e
000001b0: 22c0 f2bd a537 373e d683 003e e421 2dbe
000001c0: fff8 52bc 8157 8f3e 35d6 45be 8acc 33be
000001d0: 84f0 d7bd 8863 11be f34e 31bd eba9 5bbe
000001e0: d920 c23d 5ca6 d73d b141 233c d9ab 003c
000001f0: f20f e2bd f31d 5a3e 1575 ce3c 88ef fcbc
00000200: 59f6 353e e74b 003e 9b74 b83d 07b7 953d
00000210: 64e0 aa3d 94cf f1bd 10fb 2ebe 6ca6 5cbd
00000220: d412 413c 2a0d 443e ee12 3c3d af19 02bd
00000230: 05e9 983d a6a1 00be bf85 1bbd d392 4fbd
00000240: 1972 0a3e 8f4a 25be 4dfd ef3d 6278 eebd
00000250: 44ed 873d 8e8d 72bd de14 943c 739c ba3d
00000260: 068f fdbd 6b86 e2bd 0fb1 debd ec4e 123e
00000270: 22d4 453e 99e9 ffbd 5bb7 be3d 3810 33be
00000280: 35b6 aebd 4d26 65bd 1505 493e 5242 c1bd
00000290: ee6d e7bd 490e 0cbe 3ad1 ed3d 3b6d 193e
000002a0: b76e 14bd e896 e23d a449 2a3e dabe 59be
000002b0: 07f9 9abc cd31 1cbe c9b0 bfbc 6031 93bd
000002c0: 1583 9fbd cad7 cb3d 8cbc e2bc be27 0f3d
000002d0: e76f 443e c61f c9bc de3b 5abe 0fc0 30be
000002e0: 37bd 7dbd 5034 05be 04ef c8bd e33d 733e
000002f0: 87c2 4dbe 94bc 553e 9105 08bd bbf5 fcbd
00000300: 439b dc3d 8d9f d13c d2c4 e23c 6426 b73d
00000310: 4480 21be 9067 2b3d b263 fc3d 6f7d d7bd
00000320: 949a 19bc d2ed 19be 1123 a23c f5e3 29be
00000330: ae64 1c3d ee08 223e b6d9 19be 0d09 03be
00000340: be41 9cbd f1d8 ef3d 4314 773d bb7e 37be
00000350: f90e 7cbe f0a9 0cbc cd56 063e 4dc8 aa3d
00000360: 34b4 b43c ecea c53d af38 c5bd c814 1ebe
00000370: 2bfb 933d 52aa fa3d e51e 4d3e bf3d 85bd
00000380: 7881 043d 4ed7 023e 9fa4 0c3d fd59 d13d
00000390: 5f90 2b3e d0da 463d f90e c63d a5a9 70bc
000003a0: 0b1e f1bc 2b82 8f3d d245 be3d 6341 d2bd
000003b0: fb0f 9a3d 821d 3bbe 78a5 453d 46f1 c43c
000003c0: ac87 4e3e 20e5 183e 074b d7ba d279 55be
000003d0: 84ed 0b3d 7c69 a4bd 9d68 5fbe af82 3bbe
000003e0: cd5f ebbd 3b06 36bd 541d debd b12a 0abd
000003f0: 5dbd 373e e9be 4f3d e920 4b3e 8cda d03c
0.08184532 -0.22549812 -0.08391581 0.06207213 -0.10561842 -0.20212418 -0.16590494 0.12125486
0.0836456 -0.1325033 -0.13292848 -0.21986642 0.052936524 0.04586993 -0.034620322 -0.21922545
0.046399742 -0.1732047 -0.053577207 0.12380484 -0.09555309 -0.043153614 0.14215864 -0.04612649
-0.1792961 0.025049672 -0.09080436 0.0129222395 -0.13144892 0.041645024 -0.115011685 0.13325289
0.20425907 -0.22530751 0.032332003 0.029858552 0.026974367 0.1136045 -0.043488026 0.17285179
0.05370465 -0.13934344 0.02523964 -0.15089943 -0.05674588 -0.11298227 0.09166061 -0.094048984
0.15083657 0.1642981 -0.12543035 0.15194368 -0.052543145 -0.032618213 -0.03455782 0.06637017
-0.072657324 -0.21279742 -0.12789719 -0.13404213 -0.11155747 0.09623367 0.07442441 -0.06167064
-0.17323552 0.12024541 0.032336764 -0.0529904 -0.094778314 0.14145719 0.23565137 0.25701797
0.052363325 -0.16707662 0.2137501 -0.0803783 -0.018490752 0.17550556 0.17715698 0.092430085
0.1477037 0.27058485 0.27234557 -0.015125154 -0.07576852 0.19119036 0.05346973 -0.07795553
0.09788646 -0.00937463 0.15589432 -0.050509527 0.0026814817 -0.16317745 0.11093409 0.07118728
-0.08010278 0.05935787 -0.092366375 -0.09093288 -0.1110937 0.067163266 -0.05342516 -0.062446136
0.07707436 0.10433138 -0.03975328 0.29970887 -0.11853053 0.1789232 0.12550291 -0.1690746
-0.012876748 0.27996448 -0.19319995 -0.17558494 -0.105439216 -0.14198124 -0.043288182 -0.21451537
0.094789214 0.105297774 0.0099643925 0.007853472 -0.110381976 0.21300487 0.025202313 -0.030875936
0.17769755 0.12528954 0.09006616 0.073103 0.0834358 -0.118071705 -0.1708796 -0.05386965
0.011784274 0.19145647 0.04591649 -0.031762775 0.0746632 -0.12561664 -0.037969347 -0.05067713
0.13520087 -0.16141723 0.11718235 -0.11644055 0.06637052 -0.05921703 0.018076357 0.091118716
-0.12380795 -0.110607944 -0.10873615 0.14287919 0.19319203 -0.12495727 0.09312316 -0.17486656
-0.08530847 -0.05594473 0.19630845 -0.09436478 -0.11300264 -0.13677324 0.116121724 0.14983074
-0.0362384 0.11063939 0.16629654 -0.2126421 -0.018917574 -0.15253372 -0.023399727 -0.07187152
-0.07788674 0.09953268 -0.027677797 0.03495001 0.19183312 -0.024551284 -0.213119 -0.17260765
-0.061948027 -0.13008237 -0.098112136 0.23754077 -0.20093738 0.20872718 -0.033208434 -0.12351557
0.10771801 0.025588775 0.027681742 0.08942869 -0.15771586 0.04184681 0.12323703 -0.105219714
-0.009375233 -0.15032127 0.019792112 -0.16590865 0.038181953 0.15823719 -0.15024456 -0.12796421
-0.07629727 0.117113 0.060322057 -0.17919438 -0.24615087 -0.008585438 0.1311905 0.083389856
0.022058584 0.096639484 -0.09629952 -0.15437615 0.07225641 0.12239517 0.20031317 -0.06505918
0.032350034 0.12777445 0.034336682 0.10222242 0.16754292 0.04854852 0.096708246 -0.014688884
-0.02943327 0.070072494 0.09290661 -0.10266378 0.07522579 -0.18272975 0.048253506 0.02404083
0.20168942 0.14931154 -0.0016425558 -0.20847252 0.03416206 -0.08027932 -0.2181725 -0.1831157
-0.11492882 -0.044439536 -0.10845438 -0.03373212 0.1794333 0.050719175 0.19836773 0.025494836
