model_v1/model.tflite (tflite, 141520 bytes, 8 tensors)

arith.constant f4 [64]
0.0 -0.008746026 -0.0015032251 -0.010213782 -0.0003027458 0.0 -0.010326653 0.0
0.016041115 -0.0028921328 0.0 0.015282818 0.0 0.0 0.041158777 -0.011671802
0.0026317004 -0.011466537 -0.011506791 -0.005984965 -0.0063347914 0.011227599 0.04090962 0.040710635
0.015978074 -0.0060042683 -0.0069309017 -0.010593499 0.0 0.0017015386 -0.0113492515 -0.011336156
-0.008053168 -0.0064249933 0.022191806 -0.01871605 -0.020233706 0.0077256314 -0.00657594 0.014115435
-0.005546361 0.0 0.0 0.011704859 -0.008796633 -0.010096745 -0.006522853 -0.015974758
0.0 0.00565674 -0.011945816 0.027680548 0.0028308325 0.01471825 0.0066585313 0.0
0.011008244 0.0350749 -0.0061503663 -0.0055856886 0.042459436 0.0020210308 0.025233243 -0.010366569
00000000: 0000 0000 7e4b 0fbc dd07 c5ba b557 27bc
00000010: dab9 9eb9 0000 0000 1f31 29bc 0000 0000
00000020: a868 833c f089 3dbb 0000 0000 c964 7a3c
00000030: 0000 0000 0000 0000 1b96 283d 163b 3fbc
00000040: 9b78 2c3b 24de 3bbc fb86 3cbc 861d c4bb
00000050: 1594 cfbb f7f3 373c d890 273d 32c0 263d
00000060: 73e4 823c 74bf c4bb 9e1c e3bb 5b90 2dbc
00000070: 0000 0000 2906 df3a 36f2 39bc 49bb 39bc
00000080: 6ff1 03bc c088 d2bb 97cb b53c 6752 99bc
00000090: 28c1 a5bc 4b27 fd3b fc7a d7bb 6d44 673c
000000a0: 40be b5bb 0000 0000 0000 0000 bdc5 3f3c
000000b0: c11f 10bc d16c 25bc a8bd d5bb 7fdd 82bc
000000c0: 0000 0000 2d5c b93b 62b8 43bc 51c2 e23c
000000d0: 7d85 393b d124 713c cf2f da3b 0000 0000
000000e0: ec5b 343c b3aa 0f3d 0389 c9bb 2708 b7bb
000000f0: f2e9 2d3d 4573 043b f2b5 ce3c 8bd8 29bc

arith.constant1 f4 [128]
0.0006119113 -0.0050768587 0.0110125365 -0.010581476 -0.0054799733 0.012773298 -0.012040638 -0.019035446
-0.011445301 -0.011700494 0.0071062427 0.009631738 -0.002770897 0.0012799553 -0.008316244 0.012618409
0.026627501 0.004295774 -0.0073427088 -0.012951445 0.000703598 -0.0016299861 0.016173301 -0.020027693
0.03499767 -0.008014032 -0.0009821403 -0.0073782136 0.051437065 0.0016323467 -0.008602554 0.0047474196
-0.0051129325 0.005537553 0.012411494 0.0017662264 -0.019941552 -0.0092077525 -0.011007854 -0.003626192
0.021949463 -0.0042013978 -0.011190671 0.050731037 1.5449643e-05 -0.013371383 0.031304527 0.019824715
0.0057123015 -0.007565826 0.013241167 0.053260848 0.0127018085 -0.010942824 -0.0015163099 0.044538084
0.038943786 0.048061468 0.0043597706 -0.003859009 -0.016796192 0.023850549 -0.003889766 0.029621443
0.041894477 2.6041555e-05 -0.010611204 -0.0034890075 0.048001267 0.023278974 -0.0066584544 0.0014396636
0.014076246 0.010966106 0.022466758 0.0014876066 -0.0069710067 0.019906335 -0.012969045 -0.014996892
-0.012822863 0.028034275 -0.0047050454 0.029775586 0.031126931 0.03757602 0.011366672 -0.01194157
-0.016111387 -0.002095478 -0.003059706 0.024264589 -0.019446354 0.037526287 -0.020975979 -0.008500642
0.05234669 0.014185755 0.0034940145 -0.0029141488 0.010937204 0.030402308 0.0017720263 0.0124633955
-0.007970016 -0.006454089 -0.0009374366 0.026794014 0.032456014 -0.0038209502 0.009015477 0.020731736
-0.0051418785 -0.002790912 0.031868566 -0.006176504 -0.0011887512 0.028213816 -0.0006654604 -0.008715896
-0.01267415 0.012168421 -0.010579977 -0.003704338 0.056243762 -0.016890487 -0.011384673 0.041935552
00000000: ac68 203a c75b a6bb ed6d 343c ed5d 2dbc
00000010: 5991 b3bb 1847 513c 1946 45bc 39f0 9bbc
00000020: 1285 3bbc 6eb3 3fbc 7cdb e83b 70ce 1d3c
00000030: f097 35bb 2cc4 a73a db40 08bc 71bd 4e3c
00000040: eb21 da3c 90c3 8c3b 1b9b f0bb 4c32 54bc
00000050: aa71 383a 42a5 d5ba df7d 843c 1e11 a4bc
00000060: b859 0f3d 494d 03bc 29bb 80ba f1c4 f1bb
00000070: acaf 523d 77f4 d53a baf1 0cbc 3e90 9b3b
00000080: 638a a7bb 5d74 b53b 9459 4b3c b980 e73a
00000090: 775c a3bc 1ddc 16bc 495a 34bc 68a5 6dbb
000000a0: 5ccf b33c e1ab 89bb 1359 37bc 59cb 4f3d
000000b0: db99 8137 a513 5bbc 2d39 003d 7167 a23c
000000c0: 422e bb3b c0ea f7bb 7bf1 583c 0c28 5a3d
000000d0: 3f1b 503c 8849 33bc ebbe c6ba 916d 363d
000000e0: 8583 1f3d 1adc 443d 68dc 8e3b 6de7 7cbb
000000f0: 2b98 89bc 3a62 c33c 72eb 7ebb aba8 f23c
00000100: 8b99 2b3d d073 da37 9eda 2dbc d5a7 64bb
00000110: fa9c 443d 8cb3 be3c 2a2f dabb 18b3 bc3a
00000120: 0ea0 663c 2fab 333c 350c b83c cbfb c23a
00000130: 0b6d e4bb 9c12 a33c 1e7c 54bc 86b5 75bc
00000140: fc16 52bc 23a8 e53c c82c 9abb eeeb f33c
00000150: e8fd fe3c 50e9 193d 473b 3a3c 93a6 43bc
00000160: 07fc 83bc 4954 09bb 5985 48bb 88c6 c63c
00000170: f64d 9fbc 2ab5 193d d1d5 abbc 4746 0bbc
00000180: 7c69 563d 5e6b 683c d6fb 643b 4efb 3ebb
00000190: f531 333c 430e f93c 5643 e83a 4533 4c3c
000001a0: ac94 02bc d37c d3bb 4ebe 75ba 1f7f db3c
000001b0: 99f0 043d e868 7abb a7b5 133c 9ad5 a93c
000001c0: 347d a8bb bce7 36bb 9d88 023d 4564 cabb
000001d0: dfcf 9bba a920 e73c 4b72 2eba 1ecd 0ebc
000001e0: 3da7 4fbc 0f5e 473c a457 2dbc 7bc4 72bb
000001f0: dc5f 663d eb5d 8abc c886 3abc 9dc4 2b3d

arith.constant2 f4 [64]
0.027590306 -0.011883362 0.005990702 0.02432968 0.04966922 -0.0029750636 0.014505746 0.049279653
0.011555315 0.00083415594 0.006693533 0.020671949 -0.008244703 0.013140032 0.00077358197 0.00513837
0.009755459 -0.0013689292 0.014463222 0.015994271 0.06901595 -0.004890587 -0.009574783 -0.0042212354
-0.015152205 0.010941959 0.02459538 0.046410687 -0.013755744 -0.002465767 0.018353859 -0.004811669
0.010134266 0.024493035 0.028274763 -0.005129914 -0.001420285 0.0011431116 0.013389928 0.0030926066
0.012739078 0.034891885 0.028549902 0.040227883 -0.027110204 0.014922199 0.009761253 0.017588682
0.027326897 0.049693253 -0.012009194 -0.0050860355 0.021975698 0.02943608 0.018860856 0.03729499
-0.012986049 0.021434698 -0.044287514 -0.00036226033 0.015571647 0.024096888 -0.039904937 0.038021095
00000000: 1105 e23c 6fb2 42bc a74d c43b 094f c73c
00000010: f471 4b3d 49f9 42bb 82a9 6d3c 76d9 493d
00000020: 8152 3d3c 42ab 5a3a 6d55 db3b 3858 a93c
00000030: ca14 07bc 4a49 573c 35ca 4a3a c65f a83b
00000040: 5cd5 1f3c a46d b3ba 26f7 6c3c 6b06 833c
00000050: 3c58 8d3d 3841 a0bb 8ddf 1cbc 4a52 8abb
00000060: f440 78bc e745 333c 407c c93c 2219 3e3d
00000070: c65f 61bc b598 21bb d55a 963c 34ab 9dbb
00000080: 310a 263c 9ea5 c83c 7aa0 e73c d618 a8bb
00000090: db28 baba 76d4 953a 6e61 5b3c 54ad 4a3b
000000a0: 91b7 503c cbea 0e3d 7ce1 e93c fec5 243d
000000b0: 3816 debc 3d7c 743c aaed 1f3c 2416 903c
000000c0: a8dc df3c 278b 4b3d 36c2 44bc c2a8 a6bb
000000d0: 6106 b43c ef23 f13c 1582 9a3c a2c2 183d
000000e0: 70c3 54bc d297 af3c d366 35bd c2ed bdb9
000000f0: 3920 7f3c d666 c53c 5c73 23bd 02bc 1b3d

arith.constant3 f4 [3]
-0.010689532 0.017575493 -0.0034000361
00000000: 2623 2fbc 7bfa 8f3c 24d3 5ebb

arith.constant6 f4 [128, 1, 3, 64]
-0.07760197 0.1095594 -0.055018365 0.005435714 0.07846972 0.03278598 0.0455818 -0.0949899
-0.03661376 -0.046987485 0.1275828 0.060982764 -0.057112552 0.034140207 -0.017801225 0.027292931
0.07209562 0.04683518 0.096130386 -0.010633005 0.021311656 0.058631092 0.09192998 -0.011408229
0.003439276 -0.041379277 -0.055608436 -0.0060086027 -0.052666113 0.01901657 -0.030468343 0.09687639
-0.095444426 -0.05820044 0.09797962 -0.037881523 0.005028486 -0.08480893 -0.022611309 0.0072808117
-0.03243677 0.08899458 -0.092980064 -0.046127338 0.122323684 0.076204374 0.020304132 0.031027718
-0.040991902 -0.073127195 -0.006411652 0.034086876 0.035109475 0.046108592 -0.019975768 -0.114205174
-0.015506484 0.03628809 -0.065514065 -0.04382462 -0.0012617614 -0.034340125 -0.105218135 -0.034626514
0.0036291936 0.02769267 0.028583627 0.057829786 -0.012504144 -0.068892166 -0.0017955034 -0.0054554315
-0.12036006 0.09919529 0.03341278 0.121792406 0.052129693 -0.008587954 -0.065402366 0.10312712
0.0024962171 0.07005718 0.05838322 -0.04512191 0.04502612 0.09664258 0.034811966 -0.11843885
0.044586785 -0.00076829497 0.035320494 -0.078466095 0.07888493 -0.04324871 -0.106934704 0.06094606
-0.014109086 -0.033129584 0.10404152 -0.1243434 -0.05622553 0.00029355945 -0.045981888 0.016579293
0.09668783 0.022995409 -0.0856642 0.01347687 -0.049614906 0.01894792 -0.052806042 -0.020531395
-0.06383009 -0.016246712 -0.015123977 0.038019717 -0.0019775995 0.08247597 -0.07375475 0.015893983
0.006761052 -0.0028963333 -0.041173678 -0.06934926 -0.036699317 0.06335362 -0.10276069 -0.006220819
-0.045079015 0.06886898 0.07778815 0.07852278 0.05812674 0.033638515 0.017632935 -0.10992648
0.08038893 0.0134346215 0.09364299 0.077556655 -0.043504234 0.046259087 0.09911726 0.06740995
0.08991001 0.092643015 0.04624639 0.05971108 0.042837016 -0.024814637 -0.055623133 -0.07647226
0.041029714 0.0077834893 0.065919094 -0.07016642 -0.068466015 -0.096357726 -0.13325252 -0.06634829
-0.118014224 0.043465417 0.08568159 0.053318493 -0.06511238 0.040344376 -0.013030424 -0.08330112
0.025552236 0.010072492 -0.0057440205 -0.020030946 -0.022802785 0.043484934 0.1046132 -0.094342425
0.06936276 -0.082636796 -0.116451696 -0.05221356 -0.013781322 -0.023113793 0.0368066 -0.036481384
-0.095396414 0.068378136 0.11216577 0.0100484565 -0.10370173 0.06681536 -0.07738117 0.047372047
-0.08987614 0.12690532 0.01390226 0.047937624 -0.109771706 -0.030799171 0.10617106 -0.0067306915
-0.028791362 0.01956276 0.047341194 -0.052499577 0.061734054 -0.04422264 0.025681136 0.09610663
0.1441634 -0.006702545 0.08973267 0.020259378 -0.07254505 0.055338528 -0.016118372 0.08173408
0.109666884 -0.12228132 -0.08039609 0.095144786 0.14795026 0.048139434 -0.1144957 -0.086221464
0.00648211 -0.024908202 0.055862658 0.02687614 -0.008272591 0.10057325 0.109805726 -0.028201288
-0.045989208 0.0489229 0.0030317123 -0.10413115 0.09571344 -0.022340082 0.11566458 -0.113692135
-0.012725807 0.0675021 -0.0016456099 0.11723106 0.055136487 -0.017584752 -0.061835136 -0.007002113
0.04269832 0.040879928 0.089452855 -0.02306111 -0.06321426 -0.035877913 0.055496644 -0.13929717
00000000: c8ed 9ebd ae60 e03d f05a 61bd 131e b23b
00000010: bcb4 a03d 974a 063d fbb3 3a3d 118a c2bd
00000020: 4ff8 15bd f375 40bd 11a5 023e 10c9 793d
00000030: daee 69bd 9ad6 0b3d e0d3 91bc 6d95 df3c
00000040: dea6 933d 3fd6 3f3d 02e0 c43d 0e36 2ebc
00000050: c895 ae3c 2827 703d c945 bc3d 95e9 3abc
00000060: 7a65 613b 517d 29bd acc5 63bd d0e3 c4bb
00000070: 6cb8 57bd a3c8 9b3c bf98 f9bc 2167 c63d
00000080: 5e78 c3bd 9663 6ebd 8aa9 c83d a829 1bbd
00000090: ffc5 a43b 4eb0 adbd 5a3b b9bc e093 ee3b
000000a0: 6bdc 04bd ca42 b63d 556c bebd 05f0 3cbd
000000b0: d784 fa3d 0a11 9c3d da54 a63c d72d fe3c
000000c0: 20e7 27bd b6c3 95bd d618 d2bb ae9e 0b3d
000000d0: f4ce 0f3d 5ddc 3c3d 39a4 a3bc 67e4 e9bd
000000e0: e80e 7ebc d2a2 143d 3d2c 86bd 7281 33bd
000000f0: b061 a5ba 3ba8 0cbd 9b7c d7bd 88d4 0dbd
00000100: c4d7 6d3b bddb e23c 3628 ea3c edde 6c3d
00000110: 2ede 4cbc 5617 8dbd 1957 ebba 7ac3 b2bb
00000120: 567f f6bd e626 cb3d d7db 083d 4c6e f93d
00000130: f285 553d 7db4 0cbc adf1 85bd 5034 d33d
00000140: 9397 233b 247a 8f3d 3e23 6f3d c0d1 38bd
00000150: 4f6d 383d 8cec c53d fe96 0e3d 1190 f2bd
00000160: a2a0 363d 6767 49ba 39ac 103d d5b2 a0bd
00000170: 6c8e a13d 8f25 31bd 9500 dbbd 93a2 793d
00000180: cc29 67bc e3b2 07bd b813 d53d c1a7 febd
00000190: be4c 66bd e2e8 9939 8157 3cbd 4cd1 873c
000001a0: 4504 c63d de60 bc3c b670 afbd 17ce 5c3c
000001b0: 0039 4bbd ab38 9b3c 264b 58bd 7531 a8bc
000001c0: 5ab9 82bd d317 85bc 8fca 77bc 90ba 1b3d
000001d0: 9d9a 01bb 29e9 a83d bb0c 97bd 1934 823c
000001e0: d18b dd3b 69d0 3dbb bba5 28bd fc06 8ebd
000001f0: 0652 16bd 8bbf 813d 3274 d2bd 03d8 cbbb
00000200: c6a4 38bd 2e0b 8d3d 654f 9f3d 8dd0 a03d
00000210: 4e16 6e3d 8ac8 093d f272 903c 2221 e1bd
00000220: f4a2 a43d e31c 5c3c e5c7 bf3d 06d6 9e3d
00000230: 7f31 32bd 2b7a 3d3d fdfd ca3d 3a0e 8a3d
00000240: bd22 b83d 9fbb bd3d db6c 3d3d 9b93 743d
00000250: de75 2f3d 1148 cbbc 15d5 63bd 7d9d 9cbd
00000260: c60e 283d a40c ff3b 9700 873d 69b3 8fbd
00000270: e937 8cbd 3357 c5bd 5973 08be 9de1 87bd
00000280: 71b1 f1bd cb08 323d d479 af3d 7e64 5a3d
00000290: a459 85bd 2540 253d 8f7d 55bc c799 aabd
000002a0: ec52 d13c 1807 253c 5638 bcbb f017 a4bc
000002b0: e8cc babc 421d 323d 723f d63d 9a36 c1bd
000002c0: 100e 8e3d 7b3d a9bd 3a7e eebd e3dd 55bd
000002d0: 0ecb 61bc 2359 bdbc 84c2 163d 816d 15bd
000002e0: 325f c3bd d609 8c3d 2bb7 e53d 48a2 243c
000002f0: 9361 d4bd 7ed6 883d 057a 9ebd 3109 423d
00000300: fb10 b8bd 78f3 013e 4ec6 633c 3e5a 443d
00000310: fdcf e0bd 8b4e fcbc 3670 d93d 228d dcbb
00000320: dddb ebbc 1542 a03c d7e8 413d cc09 57bd
00000330: d9dc 7c3d cd22 35bd 3f61 d23c 8ed3 c43d
00000340: 929f 133e 06a1 dbbb c3c5 b73d fff6 a53c
00000350: 8092 94bd a7aa 623d ad0a 84bc 3364 a73d
00000360: 0899 e03d a16e fabd b5a6 a4bd 45db c23d
00000370: 4680 173e db2d 453d b97c eabd e194 b0bd
00000380: e167 d43b 490c ccbc 3ed0 643d 5a2b dc3c
00000390: c389 07bc 59f9 cd3d d3e1 e03d 6306 e7bc
000003a0: 2e5f 3cbd 6163 483d b1af 463b b642 d5bd
000003b0: 6805 c43d 8c02 b7bc 8de1 ec3d 6cd7 e8bd
000003c0: e77f 50bc 8a3e 8a3d 81b1 d7ba d716 f03d
000003d0: ccd6 613d e60d 90bc d746 7dbd fb71 e5bb
000003e0: 6fe4 2e3d b671 273d 0f33 b73d a7ea bcbc
000003f0: 7a76 81bd b8f4 12bd 7350 633d eba3 0ebe

arith.constant7 f4 [64, 1, 3, 6]
0.11723679 -0.19711673 -0.1915314 0.23046492 -0.12258068 0.01320478 0.10316398 0.030640466
0.08475116 -0.05669671 -0.071601376 -0.15167022 0.08112749 -0.036264174 -0.12910897 0.17444958
-0.1530181 0.14876616 0.037298933 0.14844158 -0.18415563 -0.056070816 -0.1682949 0.090151146
0.08215776 0.019835083 0.1111885 -0.055401176 -0.087006316 0.12894306 -0.13487177 -0.016866041
-0.068067856 0.112360656 0.13280438 -0.1592019 0.022372354 0.08938256 -0.15462372 0.047356963
-0.056876075 0.17483616 -0.17999266 0.17156753 0.06767408 -0.04662843 0.025247665 -0.08161237
0.073693015 0.06998651 -0.14646664 -0.0894473 -0.041602664 0.03804933 -0.07426307 0.12158569
0.1452536 -0.007863317 -0.0412286 0.09467393 -0.03899512 0.10835427 0.0027579078 -0.08381585
0.13523865 0.12752007 -0.11181019 0.064244404 0.073166795 0.0513997 0.18419659 -0.12661624
0.11407147 0.116597496 0.2462913 -0.12432582 0.01931697 0.08668845 0.10711988 0.2200202
0.046477135 0.09672887 0.047775142 -0.12371067 -0.06943323 0.15060073 0.034143005 -0.15431145
-0.093568206 -0.07755718 0.10079747 0.13820238 0.16359638 0.12330369 0.14758469 -0.0018086401
0.04277441 -0.07922614 0.025132407 0.15354289 -0.00962033 0.02450793 0.1509819 0.050907824
0.0044412166 0.1808357 0.19959658 0.20535786 0.022413604 0.15688244 0.07061072 0.1920956
-0.1057756 0.08303492 -0.087541945 0.18214971 -0.03895039 -0.1000774 0.046114527 0.18988203
0.12810911 0.17357288 0.056468982 0.07180015 0.006562355 0.1971914 -0.16300873 -0.07076339
0.17573433 -0.058394007 -0.045948647 -0.13535722 -0.1591479 0.024638487 0.113743946 -0.0066351346
0.015561408 0.10824981 0.012277898 0.1784998 0.1368984 -0.25390172 0.1309325 0.06650721
-0.12089458 0.095750056 0.118710265 -0.10592085 -0.05899004 -0.13243774 0.09199209 -0.024158379
-0.01766242 -0.08320129 0.009518568 0.14799649 0.09952601 0.13892959 0.10565031 0.033487972
0.14877418 -0.12169073 -0.18942496 -0.101258956 -0.14245969 -0.106770426 0.12784761 0.081337765
0.10580177 0.17768729 -0.093025036 0.11259184 0.14051074 0.11671441 -0.19226275 0.20197438
-0.08734703 -0.052429307 0.1007544 0.10845715 -0.03224523 -0.11670463 -0.10925853 -0.030731896
-0.05269719 0.115276866 0.040598385 0.18183996 -0.11478981 -0.12615481 -0.03915944 -0.05560928
-0.19932671 0.15350828 -0.13410848 -0.09646957 -0.074476525 0.09270342 -0.030322324 -0.0329148
-0.1427044 -0.17196022 -0.06612817 0.123622894 -0.036168545 0.2087934 -0.18952724 0.13122576
-0.12329617 -0.049234882 0.07449125 0.1140349 0.023072748 -0.18601546 0.052307744 0.16522524
0.070345595 0.10217316 -0.1425418 0.22101045 -0.010555606 0.010190847 0.16001816 -0.060794435
0.13834676 -0.078616284 -0.11466202 0.13645664 -0.019567976 -0.07110621 0.008432959 -0.12040677
0.085485116 0.09650039 -0.17490284 0.016471166 0.017702565 -0.010154196 -0.10239804 0.12762387
0.113023184 0.19841433 -0.18752524 -0.046087507 -0.15573956 0.12240666 0.16323568 0.13042176
-0.17277884 -0.06700816 0.0047424785 -0.07158489 -0.07766976 0.022108387 -0.06778204 -0.02878344
00000000: d819 f03d f8d8 49be cf20 44be fffe 6b3e
00000010: 940b fbbd dd58 583c a347 d33d b701 fb3c
00000020: 0492 ad3d cf3a 68bd bea3 92bd 704f 1bbe
00000030: 2b26 a63d be89 14bd 2435 04be e9a2 323e
00000040: c7b0 1cbe 2856 183e c4c6 183d 1201 183e
00000050: 4b93 3cbe 83aa 65bd 8055 2cbe 2aa1 b83d
00000060: 5442 a83d 2f7d a23c ccb6 e33d 58ec 62bd
00000070: 5e30 b2bd a609 043e d31b 0abe a72a 8abc
00000080: 2967 8bbd 581d e63d dffd 073e d305 23be
00000090: 3a46 b73c 340e b73d ae55 1ebe 60f9 413d
000000a0: e3f6 68bd 4008 333e ff4f 38be 66af 2f3e
000000b0: b598 8a3d 74fd 3ebd 31d4 ce3c 6324 a7bd
000000c0: 5dec 963d 1655 8f3d 5afb 15be 2530 b7bd
000000d0: 8e67 2abd 9dd9 1b3d 3d17 98bd eb01 f93d
000000e0: 5cbd 143e 24d5 00bc 52df 28bd 68e4 c13d
000000f0: 59b9 1fbd d8e8 dd3d 04be 343b a5a7 abbd
00000100: 007c 0a3e 9f94 023e befc e4bd 9292 833d
00000110: 79d8 953d 7e88 523d 089e 3c3e b0a7 01be
00000120: 4e9e e93d abca ee3d c933 7c3e 899e febd
00000130: 9f3e 9e3c b789 b13d ab61 db3d fa4c 613e
00000140: cf5e 3e3d c919 c63d deaf 433d 055c fdbd
00000150: 0233 8ebd 1437 1a3e 89d9 0b3d d203 1ebe
00000160: b0a0 bfbd 4cd6 9ebd e76e ce3d ed84 0d3e
00000170: cf85 273e a586 fc3d 7120 173e e40f edba
00000180: 3834 2f3d 5141 a2bd 7ae2 cd3c 593a 1d3e
00000190: 979e 1dbc dbc4 c83c 009b 1a3e b984 503d
000001a0: a087 913b fe2c 393e 0c63 4c3e 5549 523e
000001b0: bc9c b73c caa5 203e 5a9c 903d b5b4 443e
000001c0: e1a0 d8bd 360e aa3d 3149 b3bd 7485 3a3e
000001d0: 728a 1fbd 61f5 ccbd 96e2 3c3d 6f70 423e
000001e0: 092f 033e 17bd 313e 054c 673d f50b 933d
000001f0: 0609 d73b 8bec 493e c3eb 26be 65ec 90bd
00000200: b3f3 333e 8e2e 6fbd a634 3cbd 159b 0abe
00000210: abf7 22be a7d6 c93c 96f2 e83d 8b6b d9bb
00000220: 47f5 7e3c 14b2 dd3d 3d29 493c a7c8 363e
00000230: 182f 0c3e 68ff 81be 2b13 063e ef34 883d
00000240: 9497 f7bd 9b18 c43d 5e1e f33d 08ed d8bd
00000250: 8a9f 71bd c29d 07be 5966 bc3d cbe7 c5bc
00000260: c8b0 90bc 7065 aabd c5f3 1b3c 648c 173e
00000270: 4bd4 cb3d 8f43 0e3e 315f d83d af2a 093d
00000280: 4258 183e fd38 f9bd 9ef8 41be db60 cfbd
00000290: f4e0 11be 74aa dabd 7cea 023e 6a94 a63d
000002a0: 99ae d83d a8f3 353e e983 bebd 8d96 e63d
000002b0: 0ce2 0f3e f707 ef3d 87e0 44be 5fd2 4e3e
000002c0: 00e3 b2bd 1dc0 56bd 5358 ce3d c81e de3d
000002d0: 9313 04bd d602 efbd f0c2 dfbd 75c1 fbbc
000002e0: 02d9 57bd 4716 ec3d 7e4a 263d 4134 3a3e
000002f0: eb16 ebbd ba2e 01be a665 20bd 8ec6 63bd
00000300: 4d1c 4cbe 4631 1d3e bc53 09be d791 c5bd
00000310: 2687 98bd 4adb bd3d 8666 f8bc abd1 06bd
00000320: 1a21 12be 5716 30be 356e 87bd 002e fd3d
00000330: 7825 14bd f0cd 553e 6e13 42be 0c60 063e
00000340: b482 fcbd 84aa 49bd de8e 983d 218b e93d
00000350: 0f03 bd3c d67a 3ebe a540 563d ce30 293e
00000360: 5a11 903d 2940 d13d 7af6 11be 9050 623e
00000370: 6cf1 2cbc 83f7 263c cddb 233e 9603 79bd
00000380: c6aa 0d3e 9301 a1bd ecd3 eabd 4abb 0b3e
00000390: 054d a0bc 22a0 91bd 652a 0a3c d397 f6bd
000003a0: d212 af3d ffa1 c53d bb19 33be 8aee 863c
000003b0: f804 913c c95d 26bc 10b6 d1bd d5af 023e
000003c0: b378 e73d 202d 4b3e 9e06 40be 41c6 3cbd
000003d0: 317a 1fbe 58b0 fa3d 4127 273e 488d 053e
000003e0: f0ec 30be 933b 89bd cb66 9b3b 199b 92bd
000003f0: 5311 9fbd a61c b53c 4fd1 8abd 40cb ebbc

arith.constant8 f4 [3, 64]
-0.1269594 0.19158983 -0.03664632 -0.10991959 0.0012861852 -0.189159 -0.21521503 0.07553908
-0.1920087 -0.21954067 0.22723877 -0.3627417 -0.2602356 0.21617615 -0.27640435 0.17558889
0.24856047 0.18700567 -0.056690898 0.25864917 0.21451032 -0.112708256 -0.27495363 -0.34662235
0.34216836 -0.26815492 0.112229936 0.32525408 0.06702578 0.24157423 -0.25207868 -0.053041965
0.17929725 0.32337996 -0.179822 -0.05393276 0.17016572 0.025013408 0.13270313 -0.15775758
-0.16345926 0.21076727 -0.16818473 0.2048494 0.0006562572 0.2015887 0.095252804 0.24410139
0.14617634 0.25920573 0.25896904 -0.20305453 0.29784036 -0.054121934 -0.2654438 0.101640195
-0.28530094 -0.22947891 0.087743945 -0.19370799 0.12043386 0.21093488 -0.26374978 0.06672476
0.17010617 -0.20790115 -0.3616351 -0.15155481 -0.10294067 -0.17078449 -0.30707625 0.00011664629
0.2941456 0.06625827 -0.04072255 0.00705988 0.048930794 0.06615484 0.024022823 -0.21067922
0.18198624 -0.18989348 0.1441103 0.119327895 -0.2602175 0.162692 0.12225381 0.27156875
-0.06608172 0.024959723 0.17490345 0.073518746 0.04606831 0.00078223646 0.1816108 0.22536634
-0.27682757 -0.11112415 0.16196732 -0.16583589 -0.10372472 0.26812696 -0.20799987 -0.15905488
-0.01724808 -0.2502865 -0.034228772 0.30818295 -0.18151037 -0.22224702 -0.26674932 -0.33626413
-0.14560391 0.3055354 -0.12538584 0.08410605 -0.17527534 0.21005927 -0.15651026 0.07655272
-0.03686885 -0.10235528 0.058958467 -0.07282454 0.37601423 0.10965108 0.16434637 0.00028739744
0.29925078 -0.24534522 0.00069162506 -0.053969204 0.2883838 -0.27754122 0.1696713 0.24330735
-0.34357455 -0.1992756 -0.29028586 0.13214904 0.10132635 0.20701587 0.21738812 -0.037769586
-0.20261255 0.058694355 -0.13039769 -0.049267784 -0.07295997 0.2106995 0.21955028 -0.2682147
0.059499312 -0.27696994 0.10385756 0.0703033 -0.17409672 -0.28970546 -0.2124805 0.079731755
-0.31206635 -0.32047194 -0.21423541 -0.09971595 0.25838798 -0.13025497 -0.06304977 -0.33822784
0.0096633695 0.19501856 0.042294413 -0.05911246 -0.29166502 -0.15283789 0.1127953 0.14318912
-0.25669065 -0.29725304 -0.058133297 0.15901603 -0.35125124 0.28727636 0.215833 0.050977737
0.16968457 -0.10346527 -0.094078176 -0.110286415 -0.17539361 -0.07271078 0.15770663 0.045836456
00000000: a501 02be 2030 443e 741a 16bd 861d e1bd
00000010: 3795 a83a e6b2 41be 5461 5cbe 3cb4 9a3d
00000020: ee9d 44be 45cf 60be 48b1 683e 48b9 b9be
00000030: 9a3d 85be 485d 5d3e df84 8dbe 93cd 333e
00000040: a386 7e3e 6a7e 3f3e b734 68bd aa6d 843e
00000050: 98a8 5b3e 96d3 e6bd b9c6 8cbe 7c78 b1be
00000060: b130 af3e 9a4b 89be cfd8 e53d b487 a63e
00000070: d044 893d 3c5f 773e 7510 81be 8842 59bd
00000080: b399 373e 0f92 a53e 4223 38be 99e8 5cbd
00000090: ec3f 2e3e ebe8 cc3c 54e3 073e 348b 21be
000000a0: dd61 27be 60d3 573e 9e38 2cbe 0bc4 513e
000000b0: ad08 2c3a 456d 4e3e e713 c33d b7f5 793e
000000c0: 40af 153e 9db6 843e 9797 843e 87ed 4fbe
000000d0: 887e 983e f6ae 5dbd 40e8 87be bc28 d03d
000000e0: f712 92be 85fc 6abe 19b3 b33d 635b 46be
000000f0: 07a6 f63d 50ff 573e 360a 87be fea6 883d
00000100: 5030 2e3e 0ae4 54be 3c28 b9be 2f31 1bbe
00000110: 8fd2 d2bd 21e2 2ebe 1939 9dbe 00a0 f438
00000120: 419a 963e 6ab2 873d b0cc 26bd 9156 e73b
00000130: a86b 483d 307c 873d 83cb c43c 4bbc 57be
00000140: 9a5a 3a3e 7073 42be a791 133e 2f62 f43d
00000150: 3a3b 85be bb98 263e 3560 fa3d 0f0b 8b3e
00000160: da55 87bd 5578 cc3c e419 333e ff90 963d
00000170: 20b2 3c3d 000f 4d3a 2ef8 393e 6fc6 663e
00000180: 58bc 8dbe 0f95 e3bd c3da 253e e2d0 29be
00000190: a06d d4bd f047 893e ebfd 54be 48df 22be
000001a0: d84b 8dbc 8d25 80be 7833 0cbd 28ca 9d3e
000001b0: dbdd 39be b994 63be 5e93 88be d02a acbe
000001c0: 3119 15be 236f 9c3e 2565 00be cb3f ac3d
000001d0: 617b 33be c719 573e 3a44 20be acc7 9c3d
000001e0: cb03 17bd a59f d1bd 6f7e 713d 0825 95bd
000001f0: f084 c03e bf90 e03d 6a4a 283e d5ad 9639
00000200: 6637 993e c73b 7bbe 2c4e 353a d00e 5dbd
00000210: 0ba7 933e e219 8ebe 50be 2d3e 9025 793e
00000220: 01e9 afbe e70e 4cbe 59a0 94be 1452 073e
00000230: 3084 cf3d f8fb 533e fe9a 5e3e 48b4 1abd
00000240: aa79 4fbe 7e69 703d f986 05be 04cd 49bd
00000250: 096c 95bd 9cc1 573e cad1 603e 7053 89be
00000260: 8db5 733d 01cf 8dbe 46b3 d43d 2dfb 8f3d
00000270: 6946 32be 4654 94be 7d94 59be 674a a33d
00000280: 29c7 9fbe e614 a4be 8760 5bbe e037 ccbd
00000290: 6e4b 843e 8f61 05be 3d20 81bd 332c adbe
000002a0: 1c53 1e3c f2b2 473e e83c 2d3d e81f 72bd
000002b0: 1e55 95be 8981 1cbe 3901 e73d 2ba0 123e
000002c0: f56c 83be 8d31 98be 2e1d 6ebd 19d5 223e
000002d0: 34d7 b3be e315 933e 5303 5d3e 08ce 503d
000002e0: cbc1 2d3e 99e5 d3bd 0fac c0bd d8dd e1bd
000002f0: 629a 33be 64e9 94bd d97d 213e 02bf 3b3d

arith.constant9 f4 [64, 128]
0.15667926 -0.14568938 -0.037207484 -0.1177306 -0.16592611 -0.1377209 0.02053605 0.13510738
0.045375675 0.15351917 -0.13270167 0.014772475 -0.12965643 -0.12506954 0.042502016 0.0673199
-0.15670067 0.080021486 0.13433154 0.00020390749 0.09438841 -0.12368861 0.17581402 0.044936717
0.076002285 -0.15988453 -0.13866511 0.006774932 -0.020637885 -0.028122783 0.03851518 0.17320083
-0.14609341 0.086178795 0.10438003 -0.07044959 0.07996829 -0.013457954 -0.16839406 0.018435448
-0.008596107 -0.1338031 -0.14197582 0.025907084 0.133399 0.02352342 0.05578178 0.008724064
0.14387278 -0.14196554 0.025969163 0.08654989 0.046170056 -0.024915025 -0.093718745 -0.052579544
-0.16542844 -0.03131996 -0.17373614 -0.027260914 0.0035667121 -0.09739551 0.17218523 -0.07192895
-0.028279528 0.072873965 -0.05188922 -0.017075583 0.0004246235 0.15581496 -0.013175532 -0.15431006
-0.0022519082 0.08067976 -0.16874743 -0.12103492 -0.03277862 0.038938805 -0.07492087 0.07051383
0.16904758 -0.167098 -0.16489394 -0.116731465 -0.045400336 0.023188904 -0.14236814 0.02324766
-0.10510606 0.091779426 0.05038461 -0.053388253 -0.1457964 -0.16486047 0.077048644 -0.13235717
-0.11440492 -0.0642111 -0.068101384 0.013792887 -0.12696089 -0.12649319 -0.0018499941 -0.12373863
-0.094698235 -0.09748275 -0.03153865 0.06483209 0.056290522 0.08922167 0.11060019 0.08798091
-0.115137815 -0.15166876 -0.06222409 0.05862622 -0.010835066 -0.0757507 0.17533822 -0.08686933
0.022132024 -0.13829026 0.15176322 -0.033835486 0.11536671 -0.114403784 -0.1051324 0.04706973
0.10816749 0.18137783 -0.14882407 -0.015058521 0.1817116 -0.037668 0.05615095 0.18432313
0.0150510995 -0.06874721 0.06684776 0.06824101 -0.040530268 0.18959351 -0.06904971 -0.019292038
0.025807329 -0.13940427 -0.010508672 0.054878492 -0.07713713 -0.023469571 0.050230134 0.015014352
-0.12898225 0.04500917 0.11093597 0.1483431 -0.09975395 0.077877715 -0.05755329 -0.07606957
-0.03559964 -0.13232811 -0.048923373 -0.12102765 0.13394374 0.010227465 0.08534294 -0.09931443
-0.038912944 -0.10295585 -0.043462146 -0.17512996 0.09663556 -0.09391262 -0.00786888 0.109155044
0.07516064 -0.07882104 -0.19119066 -0.105557054 0.077626646 -0.07622291 0.042759556 -0.20442826
-0.16267602 -0.18872449 0.19745629 0.16477112 0.15111111 7.317017e-05 -0.00073615153 0.06492195
-0.09790174 0.19860744 0.09666976 0.13721615 0.13512993 0.037109077 0.054779764 0.15265632
-0.0038283947 0.03038666 0.044003356 0.16789311 0.19371617 0.16363321 0.12782513 -0.07451536
0.14878877 0.12908271 -0.13020734 0.084325224 -0.123018 -0.05961702 -0.17666508 -0.11002805
0.1335271 0.04628046 0.109329574 -0.15642469 0.18960762 -0.06726209 0.11563958 -0.13121215
0.18834043 0.014599096 0.14984186 -0.0037415365 -0.14053933 0.17965442 0.08118475 0.07911673
0.08931945 0.1309282 0.120444536 -0.022599721 -0.07840626 -0.14043249 0.17139772 -0.028722083
-0.018447287 0.10549335 -0.18701315 -0.0025777444 0.12516914 -0.0708964 -0.05893753 0.102223195
-0.050939865 -0.09603901 -0.08642441 0.06027491 -0.08369096 -0.1544161 -0.033159547 -0.102009036
00000000: 8770 203e 992f 15be e066 18bd be1c f1bd
00000010: 89e8 29be b506 0dbe 383b a83c 9759 0a3e
00000020: d8db 393d 2134 1d3e f2e2 07be 4008 723c
00000030: a8c4 04be 3b12 00be 9816 2e3d 04df 893d
00000040: 2476 20be 4ee2 a33d 358e 093e 00d0 5539
00000050: b64e c13d 7450 fdbd 9708 343e 900f 383d
00000060: 16a7 9b3d c5b8 23be 3afe 0dbe 4000 de3b
00000070: c810 a9bc c061 e6bc 18c2 1d3d 8f5b 313e
00000080: 8399 15be 827e b03d 32c5 d53d e047 90bd
00000090: 6ac6 a33d c07e 5cbc 7e6f 2cbe f005 973c
000000a0: b0d6 0cbc ae03 09be 1c62 11be 183b d43c
000000b0: bf99 083e 30b4 c03c 707b 643d 60ef 0e3c
000000c0: 6353 133e 6a5f 11be 48bd d43c 1241 b13d
000000d0: d01c 3d3d 981a ccbc 9def bfbd a65d 57bd
000000e0: 1366 29be 5c49 00bd e3e7 31be 4852 dfbc
000000f0: 80bf 693b 4c77 c7bd 5351 303e 7c4f 93bd
00000100: 78aa e7bc f23e 953d ca89 54bd 18e2 8bbc
00000110: 00a0 de39 f58d 1f3e 30de 57bc 7503 1ebe
00000120: c094 13bb 6e3b a53d 20cc 2cbe 28e1 f7bd
00000130: e042 06bd 4c7e 1f3d 1d70 99bd 8e69 903d
00000140: cf1a 2d3e bd1b 2bbe f5d9 28be e810 efbd
00000150: b4f5 39bd a8f6 bd3c f4c8 11be e071 be3c
00000160: d941 d7bd daf6 bb3d 1860 4e3d a4ad 5abd
00000170: a74b 15be 2fd1 28be aecb 9d3d a388 07be
00000180: 204d eabd 1c81 83bd bd78 8bbd 90fb 613c
00000190: 0902 02be 6e87 01be 807b f2ba ae6a fdbd
000001a0: 26f1 c1bd 09a5 c7bd ac2e 01bd b0c6 843d
000001b0: e490 663d dab9 b63d 5a82 e23d 562f b43d
000001c0: 60cd ebbd 0e4f 1bbe b0de 7ebd 0c22 703d
000001d0: 9085 31bc 2f23 9bbd dd8b 333e 8ce8 b1bd
000001e0: 384e b53c f69b 0dbe d167 1b3e 1497 0abd
000001f0: 6245 ec3d 884c eabd a84f d7bd 30cc 403d
00000200: eb86 dd3d 1cbb 393e 5665 18be 04b8 76bc
00000210: 9b12 3a3e c349 1abd 8afe 653d 34bf 3c3e
00000220: e398 763c 56cb 8cbd 7ae7 883d f1c1 8b3d
00000230: 1103 26bd cd24 423e ef69 8dbd 560a 9ebc
00000240: e469 d33c febf 0ebe 912c 2cbc 45c8 603d
00000250: 12fa 9dbd 4243 c0bc 1dbe 4d3d c2fe 753c
00000260: ec13 04be 895b 383d 6632 e33d 41e7 173e
00000270: cd4b ccbd 5a7e 9f3d 00bd 6bbd 5dca 9bbd
00000280: eed0 11bd 0581 07be e063 48bd 58dd f7bd
00000290: 8c28 093e 1991 273c 48c8 ae3d 5d65 cbbd
000002a0: 2e63 1fbd 84da d2bd 5d05 32bd 4555 33be
000002b0: dde8 c53d 4255 c0bd 7aec 00bc ae8c df3d
000002c0: d2ed 993d ed6c a1bd 7cc7 43be 4c2e d8bd
000002d0: b8fa 9e3d c21a 9cbd a524 2f3d a455 51be
000002e0: 8b94 26be fe40 41be fb31 4a3e c3b9 283e
000002f0: dfbc 1a3e f072 9938 4bfa 40ba cdf5 843d
00000300: b580 c8bd c05f 4b3e ccfa c53d 6482 0c3e
00000310: 805f 0a3e b0ff 173d bf60 603d f051 1c3e
00000320: cee5 7abb 72ed f83c dd3c 343d 2cec 2b3e
00000330: 885d 463e 778f 273e 97e4 023e 829b 98bd
00000340: 155c 183e 422e 043e 1355 05be b4b2 ac3d
00000350: dcf0 fbbd fa30 74bd b1e7 34be 6356 e1bd
00000360: 54bb 083e 9490 3d3d 2fe8 df3d cb2d 20be
00000370: 8028 423e b5c0 89bd 72d4 ec3d 7a5c 06be
00000380: 50dc 403e 0c31 6f3c 2570 193e 9134 75bb
00000390: 8be9 0fbe 54f7 373e 3144 a63d f407 a23d
000003a0: 1eed b63d 0b12 063e a0ab f63d 0d23 b9bc
000003b0: 7693 a0bd 89cd 0fbe e282 2f3e 934a ebbc
000003c0: c41e 97bc e60c d83d 6080 3fbe 60ef 28bb
000003d0: 572c 003e 2232 91bd 7b68 71bd 655a d13d
000003e0: 52a6 50bd 1ab0 c4bd 48ff b0bd d3e2 763d
000003f0: 2b66 abbd 411f 1ebe 4ed2 07bd 1dea d0bd
